examples/output/Alpha360/model.bin (torch, 251576 bytes, 19 tensors)

rnn.weight_ih_l0 f4 [256, 6]
000000 e6 60 84 be 6b d5 97 3c 3d 67 42 3d 1f 49 9e be
       -0.25855178 0.018534383 0.047461737 -0.30915162
000010 c8 60 a9 bc 0e f5 dc 3d ee b9 cf 3d 9b 54 2b bc
       -0.020676032 0.10788928 0.10142885 -0.010457183
000020 06 84 5a be 9e fe ce bd 1e cd f0 3d a9 0c 8f 3d
       -0.21339425 -0.10107158 0.11757873 0.069848366
000030 da 8d e9 3b 11 37 c7 3e 3b ea 35 3e b3 06 53 3e
       0.0071275057 0.389092 0.17765133 0.20608024
000040 a4 65 e5 bd d8 52 1b be 3d 28 37 bd 12 3e 8b 3e
       -0.11201027 -0.15168321 -0.04471611 0.27195793
000050 60 25 3f bd 87 97 5c 3e b0 48 c3 3c 99 96 c8 bd
       -0.046666503 0.21542178 0.023838371 -0.09794349
000060 db 31 78 3e 6c 28 ac 3c d9 1f 81 3d 78 61 6d 3e
       0.24237768 0.021015368 0.063049026 0.23181713
000070 42 2a af bd 22 9c d8 be cc 8a af bc fc 4a da bd
       -0.08552982 -0.4230662 -0.021428488 -0.106588334
000080 59 52 1c be 04 d9 4d 3d 86 89 96 bd 4c 39 98 bb
       -0.15265788 0.05025579 -0.07350449 -0.004645502
000090 5d 8f 88 be 06 97 e2 bd 68 ad b1 3d c1 78 e1 bd
       -0.26671878 -0.11063962 0.08675653 -0.1100936
0000a0 fe dc de bd 5f 96 00 be a4 ff b4 bd e3 9f b7 bd
       -0.10881995 -0.12557362 -0.08837822 -0.08966043
0000b0 37 ff 7a be 17 b8 e5 bc 80 96 1a bd 6c 9c 9a 3e
       -0.24511419 -0.028041882 -0.037741184 0.30197465
0000c0 c0 0d 15 3e 97 13 a3 bd c5 64 99 bd ea c6 e8 bd
       0.14556026 -0.07962721 -0.074899234 -0.11366065
0000d0 c2 d6 f4 bd f6 56 c4 3d b7 da 81 3e 54 ca 3e 3e
       -0.11955024 0.09586899 0.2536218 0.1863187
0000e0 09 d9 fa 3c 00 8a 32 3c 52 df e5 3d 4d e5 82 3e
       0.030621069 0.01089716 0.112242356 0.25565568
0000f0 c3 79 12 bd 11 78 9f bd dc a9 87 bd 90 37 e7 be
       -0.035760652 -0.07786573 -0.06624195 -0.45159578
000100 f0 4e 47 bd 8f 98 5a bd 3b b3 b2 be 84 8b 0e bd
       -0.048659265 -0.053368147 -0.34902367 -0.03480102
000110 37 75 67 be 9a 56 8c be 00 2f 90 3b 62 e3 3a be
       -0.22603308 -0.27409822 0.004400134 -0.18250802
000120 3e df 9e 3c 37 56 99 3b 6d 3f 00 be fb 29 1c bf
       0.01939356 0.004679467 -0.12524195 -0.6100156
000130 e0 7b cc 3d ab 6f 42 be f9 41 2f 3e 92 06 35 3b
       0.09984565 -0.1898791 0.1711501 0.0027622324
000140 b1 9d bd 3e 45 8b 38 be 20 58 94 3d 6e 70 44 bd
       0.37034371 -0.18021877 0.07243371 -0.047958784
000150 44 8e 00 3f ba 9e 8b 3e 46 3a 8e 3e 24 84 5f 3e
       0.5021708 0.27269536 0.27778834 0.21827751
000160 2a d5 ac bd 9f 1b f3 3d 9a 8f 31 3e d6 ab ac 3c
       -0.08439095 0.11870503 0.17339936 0.021078032
000170 ea 63 2e bd 5f cb ab 3e 50 c3 18 bc e1 22 52 3e
       -0.042575754 0.33553597 -0.00932391 0.20521118
000180 4c 0c 96 3e bd 0b 66 3e 4f 23 b3 3d 6e 8a df 3e
       0.29306257 0.22465415 0.08746969 0.436603
000190 20 f1 66 3c 9f f5 60 be f2 e5 de 3d e3 62 10 3e
       0.014095575 -0.21968697 0.10883702 0.14100222
0001a0 d7 d3 4d 3e 85 cd 22 bd f0 ee c0 bd 74 bd 0c 3e
       0.20100342 -0.03974678 -0.09420574 0.13744146
0001b0 7f 65 12 3e ff ce d0 bc 92 22 10 3e e3 27 e0 3d
       0.1429653 -0.025489328 0.14075688 0.10945108
0001c0 44 24 b0 bd d4 65 e7 3e 74 8f 57 bf e0 7b 9c be
       -0.08600667 0.45194876 -0.8420327 -0.3056326
0001d0 5b 5d de be 15 e9 3a bf 62 c0 f7 3d 54 16 25 3e
       -0.434306 -0.73011905 0.12097241 0.16121799
0001e0 0d fb 2d be e1 93 40 be 8d cd d4 3b 70 51 87 be
       -0.169903 -0.18806411 0.00649423 -0.2642932
0001f0 ba 4e a3 bd f3 f6 f3 bd 62 18 13 3d f9 4a 9a 3c
       -0.07974 -0.11912336 0.035911925 0.018834578
000200 b1 ac 8f bb 9b 36 6c 3c a4 8c 3a 3d 2c ff eb 3d
       -0.0043846 0.014417316 0.04554428 0.115232795
000210 2b 6e 62 3c 43 48 49 3d 85 bc 38 3e 23 32 2d 3e
       0.013820211 0.04914118 0.18040664 0.16913657
000220 74 f7 63 3d 68 9b 71 3d b4 74 9b 3d 7e 81 30 bc
       0.05565591 0.058986098 0.07590619 -0.010773061
000230 2e c4 08 3e 3d f0 8a 3d 80 5e 55 3c 84 02 69 be
       0.13356087 0.06784103 0.013023019 -0.22754866
000240 50 6d 0c 3e 09 26 6c be e9 b0 52 be 69 dc ab be
       0.13713574 -0.23061384 -0.20575298 -0.33566597
000250 50 96 2f bc dc 27 fc 3c e1 20 d2 3c d9 cf e6 3c
       -0.01071699 0.030780725 0.025650444 0.028175281
000260 1b 23 f7 bb d5 71 7a be ea 43 f8 bd 4a b5 d6 3e
       -0.0075420267 -0.24457486 -0.121223286 0.41935188
000270 6a 98 21 bd 16 8c cc be 59 b4 f0 bd a5 06 14 bf
       -0.039451994 -0.39950627 -0.117531486 -0.5782264
000280 7a 18 cd 3d 36 13 7f 3e 0b af 69 3c 0a 3c 8a be
       0.10014434 0.24909672 0.014262925 -0.2699893
000290 e2 e2 49 3d 87 08 d1 be 08 df 4e 3d 3e ee 69 bd
       0.049288638 -0.40826818 0.050505668 -0.05711197
0002a0 35 66 5c 3d 76 b3 fc 3d 9c 9c 10 bd b4 00 44 3e
       0.05380841 0.12338917 -0.035305604 0.19140893
0002b0 f8 92 82 3d 5d ca ed 3c 26 ba f7 3c 10 c5 f2 bc
       0.06375688 0.029027158 0.03024013 -0.029634982
0002c0 e0 1a 85 3e 5d 6c 27 3e da 7d b6 bd ce 88 b8 bd
       0.25997066 0.16349931 -0.08910723 -0.090104684
0002d0 ae 93 79 be 54 d4 6c be 8e 7c c6 bd 67 b7 8b bc
       -0.24372742 -0.23127872 -0.09691726 -0.017055226
0002e0 14 39 e6 3d c3 be 68 be d5 1d 53 3e fe 20 a3 3e
       0.112413555 -0.2272902 0.20616849 0.3186111
0002f0 a6 b0 b7 3d e7 cb c9 3e 60 a6 55 3c f5 a8 49 3e
       0.0896924 0.39413378 0.013040155 0.19693358
000300 a3 90 10 3d e2 a9 b9 bc e0 44 f9 bd 85 ca 5b 3d
       0.035294186 -0.022664014 -0.1217134 0.053659935
000310 2c 94 b9 3d c1 a9 89 bd 77 f3 86 3e 3c 37 86 3e
       0.09061465 -0.06721831 0.26357624 0.26214015
000320 f0 97 d6 3d 22 09 82 bc 00 2a e3 3c 92 c0 8e be
       0.104781985 -0.015873495 0.027729988 -0.27881294
000330 74 e8 de be ae c6 c6 3e 81 73 8b bc fe 75 c1 bd
       -0.43536723 0.38823456 -0.01702285 -0.09446333
000340 18 d1 ff 3d 9e 27 6a be be 6e fc 3d 67 63 e4 3d
       0.12491053 -0.22866675 0.1232581 0.11151772
000350 55 94 ea 3d 60 d9 ec 3d 06 b9 c5 3d 48 49 05 be
       0.11454073 0.115648985 0.09654431 -0.13016236
000360 06 d6 c7 3c 09 6e a3 3c 9f 91 98 bd 4c e7 2e be
       0.024394047 0.01994993 -0.0744965 -0.1708042
000370 e0 9c 7a 3c 2e ff 2b 3d 6f 2d 71 be d8 67 cd 3e
       0.015296191 0.041991405 -0.23552488 0.4011829
000380 1a c4 db 3d fd 4b 9d bc a0 6a e2 bc f9 ac a6 3c
       0.10730763 -0.019201273 -0.027638733 0.020346152
000390 7c df 47 3e f9 7b db bd 12 01 86 3b 67 7e 6a 3d
       0.19518846 -0.10717005 0.004089483 0.057249453
0003a0 40 97 fe 3b 34 fd c2 bd c8 97 ef bd ab b7 c3 3d
       0.0077694952 -0.09520951 -0.11698872 0.09556516
0003b0 1b 05 ab bd cf eb 86 bd 16 ed 9a bd 58 74 90 be
       -0.08350583 -0.06587946 -0.07564752 -0.28213763
0003c0 74 6b 43 be 25 12 72 be 10 88 47 be 37 60 08 bd
       -0.19083959 -0.23639734 -0.19485497 -0.033294883
0003d0 18 2a 27 3d 14 da 09 3d 9b d6 81 3e 7d e7 73 3e
       0.040811628 0.03365524 0.25359043 0.23818775
0003e0 2b 81 aa 3e 4f d1 13 3e 8c 40 5d 3d 52 d3 14 3f
       0.33301672 0.14435314 0.054016635 0.5813495
0003f0 0e 02 1d bd a2 c8 17 be 2f 2b f7 bc 14 d3 58 3d
       -0.038332038 -0.14822629 -0.030171959 0.052935675

rnn.weight_hh_l0 f4 [256, 64]
000000 f5 03 a0 bd 4b 8d e9 bd e2 5e 84 bc 28 c7 6f be
       -0.07813255 -0.114039026 -0.016158525 -0.23415816
000010 6e 3a 90 bd e5 ff d5 be 74 34 1f 3e 5c 47 9b 3e
       -0.070423946 -0.41796795 0.15547353 0.3032788
000020 64 f8 60 be c7 c2 82 bd 53 19 82 bd 58 0c 0e be
       -0.21969754 -0.06384807 -0.063524865 -0.13871896
000030 21 42 b4 3d 82 12 6d bd c2 a7 51 be 24 e2 16 3e
       0.088016756 -0.05787898 -0.20474151 0.14734703
000040 56 6e b8 3d e1 03 73 3d 61 d6 71 be 9b 3a d6 3d
       0.0900542 0.05932987 -0.23616935 0.10460397
000050 3b 17 01 3e ad 17 f6 bd e2 e6 0f be ac f6 16 bd
       0.12606518 -0.120162345 -0.14052919 -0.03685634
000060 23 ed a9 3d 12 8b 3a be 3b 4b 24 3d 8f 04 98 be
       0.08297183 -0.18217114 0.040110808 -0.29690978
000070 3b 47 92 3e f2 32 89 be 44 db a8 be 91 6e 87 be
       0.2856997 -0.2679668 -0.32979786 -0.26451543
000080 c4 28 40 3e 65 5a 2b be 49 e4 e6 3c 05 94 53 be
       0.18765551 -0.16733702 0.028185027 -0.20661934
000090 1d 45 d4 bd de 71 09 bd d4 33 e7 3d f9 ee 9e be
       -0.10364745 -0.033555858 0.11289182 -0.31041697
0000a0 ef df 84 bd 4d 11 fc bb 71 e0 19 be 9b 01 c3 ba
       -0.064880244 -0.007692492 -0.15027024 -0.0014877798
0000b0 3e 36 2b bd be 60 ef bc 18 41 5c be dd e4 3f be
       -0.041799776 -0.029220935 -0.21509206 -0.18739648
0000c0 af ec 89 3e 93 1e 20 be 80 6d 21 3d f4 3a b5 3e
       0.26938388 -0.15636663 0.039411068 0.3539654
0000d0 0f 44 15 3d 3e 66 e2 bd 14 a1 67 be 79 22 53 be
       0.03644186 -0.110546574 -0.2262004 -0.20618619
0000e0 11 3e 56 be c9 f4 83 3e cd 09 85 bd 04 e4 d1 3d
       -0.20922114 0.25772694 -0.0649601 0.10248569
0000f0 78 2e a0 bd ba 57 00 be 50 bf f2 bd 50 01 4d be
       -0.07821363 -0.12533465 -0.11852896 -0.20020032
000100 3e 43 36 3e 96 7f 1a 3e d2 1f 3a be 56 fc c4 3d
       0.17799088 0.15087733 -0.18176201 0.09618442
000110 5a 19 97 be a4 2e be 3c 4a cb 19 3e 16 3c 3f be
       -0.2951153 0.0232156 0.15018955 -0.18675265
000120 16 f0 fd 3d fe 8f 3f bd e5 66 31 3e fc a5 84 3e
       0.123993084 -0.04676818 0.17324407 0.25907886
000130 79 b6 0f 3e 31 ec a6 3d 15 03 92 3e 41 e5 67 be
       0.14034452 0.08150519 0.28517976 -0.22646047
000140 60 1a 95 be 05 af 37 3e 75 99 32 3e 10 f2 cb 3e
       -0.29121685 0.17937858 0.17441352 0.39833117
000150 5b b6 86 be 10 bd cb 3d d0 82 31 bd 8e b6 27 be
       -0.26311 0.0994817 -0.043337643 -0.16378233
000160 2e bd 21 be c1 19 47 3d c1 84 ed 3e 09 05 46 bd
       -0.15794823 0.048608545 0.46390346 -0.048344646
000170 13 ec 94 be dc c8 05 3e 45 c8 ec bb 0c 3e 7d 3d
       -0.2908636 0.13064903 -0.0072260224 0.06182675
000180 b9 02 04 be 4e 90 06 be 47 4a 32 3e 2a c8 f1 bd
       -0.12891664 -0.13140985 0.17411147 -0.118057564
000190 93 b8 35 3d 8a 0f d9 3d 87 75 94 be 41 ee 7e 3e
       0.044365477 0.10598667 -0.28995916 0.24895574
0001a0 4c f0 6d bd 36 b8 6b bd 3c 05 87 be 6c f0 29 3e
       -0.058090493 -0.057548724 -0.2637118 0.1659562
0001b0 25 7c 92 bd 8d 02 9e be 31 8a aa bd 82 11 96 be
       -0.07152585 -0.3086132 -0.08327139 -0.29310232
0001c0 60 0e a4 bd d4 92 9b 3e 7b 27 b0 3d bb b2 c0 3e
       -0.08010554 0.30385458 0.0860128 0.3763636
0001d0 f2 7d 09 3e 14 12 2c 3e 4d cf 19 3d d9 4d 52 3e
       0.1342695 0.16803771 0.037551213 0.20537509
0001e0 55 82 f7 3e 31 ed e0 3b 0d f1 c0 3e 1c 7c af be
       0.48341623 0.006864213 0.37683907 -0.34274375
0001f0 44 23 66 3e 06 c0 66 be c2 55 0f 3e ae 86 33 3d
       0.2247439 -0.22534189 0.13997558 0.043829612
000200 c1 8e 99 3c 30 93 86 bd e3 b1 ae 3d 4e 93 f3 bb
       0.018744828 -0.065710425 0.08530023 -0.0074333316
000210 ca d1 e2 3d 55 38 24 bc fb a7 5b be 91 50 7d be
       0.1107517 -0.010023196 -0.21450798 -0.24737765
000220 17 25 40 3e b9 9b 99 bd bf 42 03 be a0 94 be 3a
       0.18764149 -0.07500405 -0.1281843 0.0014540143
000230 47 30 96 be 9b 17 3f 3c 97 05 14 3e 81 f2 82 3c
       -0.29333708 0.011663343 0.14455257 0.015984775
000240 04 d1 94 3e d6 51 2f 3e f2 f9 a4 3d fe 02 d0 be
       0.29065716 0.17121062 0.08055486 -0.40627283
000250 4b 49 32 3e 8d 95 8f 3e 64 c8 81 be ad c4 30 bd
       0.17410772 0.28043786 -0.25348198 -0.043156315
000260 a6 3f 16 3e 43 61 11 be e4 fe 09 bc c1 d0 df 3e
       0.14672717 -0.14197259 -0.008422587 0.43713954
000270 aa 9f cc bd 99 41 69 3e bf a7 a6 bd 2d 93 cb 3e
       -0.09991391 0.2277893 -0.08137464 0.39760724
000280 f9 a5 6f bd 9f 8a 4d bd 20 4e 98 be 9e 15 06 bd
       -0.058507893 -0.050181028 -0.29747105 -0.03273546
000290 f4 40 7e 3c 6c 8f e7 be b3 22 51 3e e5 0f d5 bd
       0.015518416 -0.4522661 0.20423393 -0.10403422
0002a0 31 53 26 3d e7 c8 a0 3d 0c bb fa ba e2 b7 77 bd
       0.04060668 0.07850819 -0.0019129231 -0.0604781
0002b0 c9 36 a9 3e 84 e2 8c 3e 57 30 8d bc ff fc 7e be
       0.3304961 0.27516568 -0.017234964 -0.24901198
0002c0 eb 79 b4 3e fb 33 67 3e 67 a7 20 be 72 84 58 3d
       0.35249266 0.22578423 -0.15688859 0.052860685
0002d0 85 e4 bd bd 5c f4 e6 3e a4 69 a4 bd 83 37 d8 3d
       -0.09272102 0.45108306 -0.08027962 0.10557463
0002e0 02 9a 09 be b9 93 31 3d de 86 30 3e 26 93 60 3e
       -0.13437656 0.04335377 0.17238948 0.21931133
0002f0 7d 04 8a bd 94 09 c7 3e 36 ba 51 bc b8 bc a9 bb
       -0.06739137 0.38874495 -0.012800744 -0.0051799677
000300 b4 7f 67 3e 42 35 74 bd ea 97 11 be 71 e7 69 be
       0.22607309 -0.059621103 -0.14218107 -0.22842194
000310 08 cd 4d 3d 57 ca 90 bd ca fe a0 bc 84 9d 89 bd
       0.05024436 -0.07069843 -0.019652743 -0.06719497
000320 d8 f3 05 be 3e d4 53 3c 9d 09 06 3c 7e 8a 82 3e
       -0.130813 0.01292902 0.008181003 0.25496286
000330 78 9d 8b 3d 4c 03 96 3d 9b 25 04 be ed 61 10 3e
       0.06817144 0.073248476 -0.1290497 0.14099856
000340 e1 68 99 3b 91 f5 1e bd 8a 16 0d 3e b9 7d a9 3d
       0.004681692 -0.03880841 0.13778129 0.08275933
000350 cb d0 38 be db 60 bc bc bc 3e 5b 3e 6b b9 96 be
       -0.18048398 -0.022995403 0.2141065 -0.29438338
000360 cc e4 16 be 3d 64 db bd 57 26 e6 3d 44 c1 f8 bd
       -0.14735717 -0.10712478 0.112377815 -0.121462375
000370 fe ee 82 3d 53 1c 65 be 84 6e 9a 3d 7e 05 88 3e
       0.063932404 -0.22374086 0.075406104 0.2656669
000380 a1 66 1a be c8 3a 3f be 5d d1 88 bd 1e 6c e7 3d
       -0.15078212 -0.18674767 -0.06680558 0.112999186
000390 11 04 27 be 4c d4 03 be 75 b5 3a be 57 4e 50 3e
       -0.16310145 -0.12873954 -0.18233283 0.20342384
0003a0 18 9a 05 3e a1 10 68 3e aa 2d 6b bd a8 7e 00 3d
       0.13047063 0.22662593 -0.057416596 0.03137079
0003b0 b3 a2 a1 be ee b6 c5 bd 01 f2 16 3e 64 b5 85 bc
       -0.31569442 -0.09654032 0.14740755 -0.016321845
0003c0 d4 de 7e 3d ca cd 67 bd c0 56 a9 bd 3c 67 d1 3c
       0.062224224 -0.05659274 -0.082684994 0.025561921
0003d0 df ec dd bb e9 67 15 3e 7d eb 3c 3e 7f ad 1c 3e
       -0.006772622 0.1459042 0.18449207 0.15300559
0003e0 79 0f 2e 3e 64 5a 37 bd 44 af 0d 3e ff 9f a8 bd
       0.1699809 -0.044763938 0.1383639 -0.08233642
0003f0 80 71 71 3e f4 8c 41 3d f9 33 1b 3e a3 64 9e 3d
       0.23578453 0.047253564 0.15156545 0.07734039

rnn.bias_ih_l0 f4 [256]
000000 58 df 02 3e b2 37 dc 3d 20 56 05 bd e2 eb b5 3c
       0.12780511 0.107528105 -0.03255284 0.022207204
000010 60 b7 b2 3c 1e e8 9c 3d 33 96 e5 3d f7 30 ac 3d
       0.021815956 0.0766146 0.11210289 0.08407777
000020 ad 4b 9e 3c f8 9d 18 be 17 a7 14 bd 53 00 61 be
       0.019323194 -0.1490401 -0.03629216 -0.2197278
000030 ed 1c 0a be 4b 1c 5e 3c 3e ea 20 be cb 97 32 bd
       -0.13487597 0.01355655 -0.15714356 -0.043601792
000040 99 0e 9a bd 7a c4 98 bd 30 7b 06 bd 92 ab 8a bd
       -0.075223155 -0.0745935 -0.032832325 -0.06771006
000050 cb 06 a0 bd e8 5e 47 3e b6 86 7e bd 42 e5 4a be
       -0.07813796 0.19469798 -0.06214019 -0.19814017
000060 52 05 a5 3c 06 92 44 3d fc 69 8a 3e 16 aa 03 3d
       0.020144138 0.04799082 0.27033985 0.03214463
000070 9a 16 f6 bd a0 6c 3f 3e 04 75 88 bd 1d 8f 8b bc
       -0.1201603 0.18693781 -0.06662944 -0.017036015
000080 b7 e8 2a be 92 27 c9 ba 7d bd 78 3c 15 d8 1e bd
       -0.16690336 -0.0015346876 0.015181896 -0.03878029
000090 f7 e6 fb bc 73 fd e7 bd c5 2f 7c 3c 2a a7 0b be
       -0.030749781 -0.113276385 0.0153922485 -0.13637987
0000a0 5a 88 48 bd 16 cf b2 3d 6a 59 17 3e f3 48 96 3e
       -0.04895816 0.08730905 0.14780203 0.2935253
0000b0 64 9c 27 bd 08 9d c5 3d ef ed b0 3d 9a 8d 89 3c
       -0.04092063 0.09649092 0.08639132 0.016791154
0000c0 56 87 b1 3d ac f0 4a 3e 01 2d eb 3d 9d 14 05 3e
       0.086683914 0.19818372 0.11483193 0.12996145
0000d0 4c 89 b6 bd d2 6d 23 bc 54 2b 38 bd 23 e3 1f 3d
       -0.08912906 -0.009974914 -0.044963196 0.039034974
0000e0 1f 32 bd 3c 35 be 30 be e4 58 44 bd 6d d5 97 3d
       0.023095189 -0.17260058 -0.047936335 0.074137546
0000f0 a0 0f eb bd 2a 1b 20 bd f6 17 96 bc cc 5e db bd
       -0.114775896 -0.039088406 -0.018321972 -0.107114404
000100 33 68 4c bb 09 2a 61 3d df cb e9 bd 1d 23 66 bc
       -0.0031190037 0.05497173 -0.114158385 -0.014046458
000110 89 04 14 3e 52 cd f3 3d af 13 1e bc 6f 31 dc bd
       0.14454855 0.11904396 -0.009648248 -0.10751616
000120 48 ae 0a be 30 e5 57 bd 5f 43 6d bd c2 6d 00 3e
       -0.13543046 -0.052708805 -0.05792558 0.1254187
000130 68 a1 5d 3c 44 f8 a2 3d b0 5a 8c 3d 02 c1 16 3e
       0.013527252 0.07957509 0.06853235 0.14722064
000140 b6 72 02 bd a2 4c 6a 3d 4b ca 91 3c ef 28 e5 bd
       -0.031847678 0.05720199 0.017796656 -0.11189448
000150 f5 e2 02 3e a0 56 95 3d 46 12 5b 3e f0 d9 8c 3d
       0.1278189 0.07291913 0.2139369 0.06877506
000160 f8 7f 0d 3d 7d 66 0e be 0a b0 0d be 7b c3 fa 3d
       0.03454587 -0.13906284 -0.13836685 0.12244316
000170 92 6f f9 3b df 5e 85 3c 9c 3d 07 3e 34 ec 63 3d
       0.007612177 0.01628059 0.13207096 0.055645183
000180 5e 0d 7b 3e 75 34 4a 3e 62 cb 08 be 1b f7 9e bd
       0.24516818 0.19746573 -0.13358834 -0.077619754
000190 c3 75 6f bd 3d 49 81 be c4 30 21 3e 66 6f 6d bc
       -0.058461916 -0.2525119 0.15741259 -0.0144918915
0001a0 33 22 20 3e fa 8f 0f be ac 46 3a 3e 00 a3 f6 bd
       0.15638046 -0.14019766 0.18191022 -0.120428085
0001b0 29 91 62 bd c8 fe 36 be 76 9b 27 b9 3d 37 88 3c
       -0.055314217 -0.17870629 -0.00015984275 0.016627902
0001c0 ec 30 c2 3d 60 01 4c 3e 00 6b d0 3d 13 1e 7e bc
       0.09481987 0.199224 0.10176659 -0.0155101
0001d0 84 ef 5f 3e f2 81 12 3e fd 9f 84 3e 2a 64 d1 bd
       0.21868712 0.14307383 0.2590331 -0.10224183
0001e0 2d 6a 57 3e 6a 5d 4a be 6a 6b cf bd 5b ec df bd
       0.21036597 -0.19762197 -0.101279095 -0.10933753
0001f0 32 06 0a be 53 96 8a bd 1e 6d d6 bd de 36 52 bc
       -0.13478926 -0.06766953 -0.10470031 -0.012830464
000200 e9 a5 7d bd 07 ec ac 3c b8 08 c0 bd ff 09 98 bd
       -0.061925802 0.02110864 -0.09376663 -0.074237816
000210 fc e4 78 3d c8 b8 3c 3d 95 f7 b8 bc 24 32 a7 bd
       0.06076525 0.04607466 -0.022578994 -0.081638604
000220 96 dd 65 bd d8 d7 79 ba 70 63 4b 3d ec 71 5a bd
       -0.056119524 -0.00095307594 0.049655378 -0.0533313
000230 6d 1b ce bc b6 4c f8 3d 1b 27 02 be c9 c6 cc 3d
       -0.025159562 0.121240065 -0.1271023 0.09998853
000240 98 ff ef 3b 9e 82 30 3d 99 e2 10 be 87 14 69 bd
       0.0073241703 0.043093316 -0.1414894 -0.056904342
000250 06 d9 2b 3d ba dd d5 bc 51 fe fd bd 7a a1 d1 bc
       0.041955017 -0.026106704 -0.12402023 -0.025589693
000260 b6 6d 8d 3d b1 4a 2a 3b 30 ca 70 bd 11 0b 20 bc
       0.06905691 0.002598446 -0.05878657 -0.009768263
000270 bd f8 8e 3d 26 14 f2 bd cf cd 86 bc 63 e8 a4 bd
       0.06981037 -0.11820249 -0.016455559 -0.08052137
000280 d6 6d d3 bc e9 40 da 3d d6 69 c9 bd 87 81 ae 3d
       -0.02580921 0.10656912 -0.0983464 0.08520799
000290 22 65 b7 bd 82 51 b6 bd df 51 91 bd ea a9 bb 3d
       -0.089548364 -0.08902265 -0.07095694 0.09163268
0002a0 83 23 30 3d 47 e2 aa bd 3a 38 16 3d 78 a3 58 3d
       0.043002617 -0.0834394 0.036674716 0.05289027
0002b0 3c a3 c1 3c 9b f6 c8 3d 30 b3 f1 bd 36 e2 cf 3d
       0.023637407 0.09812661 -0.118017554 0.10150568
0002c0 ec 84 ea 3d 7f 3e d1 bd 54 4e f5 3c 67 b4 0d bd
       0.11451134 -0.10216998 0.029944576 -0.034595873
0002d0 44 b4 c6 3d 41 08 82 bc 71 4b 3f 3c a0 30 11 3d
       0.09702352 -0.015873076 0.0116757015 0.035446763
0002e0 c8 61 12 3e c8 31 70 bd 67 12 ec bd e8 eb 0e be
       0.14295113 -0.058641225 -0.115269475 -0.13957179
0002f0 65 b7 aa bb 05 33 a3 3c f8 a3 c5 bc 16 5d 01 be
       -0.0052098506 0.019921789 -0.024126038 -0.12633166
000300 f9 27 9c bc 03 07 b7 3d eb ab b5 bd 0c 3b b3 3d
       -0.01906203 0.08936884 -0.088706814 0.08751497
000310 62 aa 2e bc b5 a6 93 3d df 91 52 3e c7 b5 61 3e
       -0.01066074 0.07209531 0.20563458 0.22041999
000320 42 3c 07 be df 58 3f be e6 50 21 ba f4 de be bd
       -0.1320658 -0.18686245 -0.00061537174 -0.09319869
000330 b8 87 dc bc b8 19 26 3c 65 e1 96 bd 2e 94 c5 3d
       -0.026920184 0.010137968 -0.07367209 0.09647404
000340 13 b0 e0 3d 44 69 0a 3d 6e 11 e8 bb 59 20 01 3e
       0.109710835 0.033791795 -0.007082156 0.12609996
000350 4d 70 20 3d b5 dd 30 3e bf 06 8e bd 70 c6 8d 3d
       0.0391696 0.17272075 -0.069348805 0.069226146
000360 e0 ae 87 bd 1b a2 fe 3b 2c 66 3c 3e 30 b4 a0 bc
       -0.06625152 0.0077707893 0.1839835 -0.01961717
000370 3b 4b 25 be 34 1b 07 3d 90 49 09 be b3 7f 4f bd
       -0.1614198 0.032984927 -0.13406968 -0.050658893
000380 f1 3e e9 bc 7a ef b5 bc c2 f4 17 3e 1a 62 3b 3d
       -0.028472396 -0.022208918 0.14839461 0.045747854
000390 74 ea a0 bd d4 51 66 3d 72 e7 42 bc 1e 9e 11 be
       -0.078572184 0.05623038 -0.011896001 -0.14220473
0003a0 5e 67 98 bd 91 a3 bf 3d c6 c1 10 3e 38 93 2a 3e
       -0.07441591 0.0935737 0.14136419 0.16657722
0003b0 ff 5a 84 bd 93 25 be 3d 46 35 fc bd da 5c 3f bd
       -0.06462669 0.092845105 -0.123148486 -0.04671941
0003c0 34 ba 2e 3e 8f bb 7e bd 97 29 28 3d c1 85 83 3d
       0.17063218 -0.06219059 0.04105529 0.06421996
0003d0 de 76 e0 bc 4d c4 d7 bd ea 89 d7 ba bc 2f 1e bd
       -0.02740043 -0.10535488 -0.00164443 -0.03861974
0003e0 cc 3b 0f be 02 24 18 be 0d 88 e5 3c 4b 32 f6 3d
       -0.13987654 -0.14857486 0.028018976 0.12021311
0003f0 a0 4c 20 bd 70 e5 4f 3d 99 84 a9 3d 49 f0 92 bd
       -0.039135575 0.050755918 0.08277244 -0.07174737

rnn.bias_hh_l0 f4 [256]
000000 95 46 22 3e d6 67 94 3d 54 cc 91 bd 1d 83 e8 3c
       0.15847237 0.07246368 -0.071190506 0.028382832
000010 59 af 3c bc af b6 0d 3e df f6 11 3e 51 ad b7 3d
       -0.0115164155 0.1383922 0.1425433 0.08968604
000020 9e 0f 2b bc a1 f2 54 3c 0d e0 c1 bd 83 e2 35 be
       -0.010440735 0.0129973 -0.094665624 -0.17762189
000030 11 33 f4 bd df d8 69 bd 39 ae 9c bd 03 6a c1 bb
       -0.11923803 -0.05709159 -0.07650418 -0.00590253
000040 d7 ba a6 3d 2e 23 ed bd 31 f5 5b 3d 22 67 15 be
       0.081411056 -0.115789756 0.05370063 -0.14590123
000050 ef 08 03 3e c7 c3 b6 3d 58 0d 4e bc f2 28 2f bd
       0.12796377 0.0892406 -0.012576424 -0.042763658
000060 16 6f 2a be 15 33 0b be f5 04 9b 3d 26 a5 19 be
       -0.16643938 -0.13593705 0.07569305 -0.15004405
000070 8b 4a 19 be 1c 5f 01 3e 5e 46 9f bd 09 1f b8 bd
       -0.14969842 0.12633938 -0.07777093 -0.089902945
000080 88 74 a6 bd 67 f9 70 bd cd 76 d3 bd bc c2 16 be
       -0.08127695 -0.0588316 -0.10325394 -0.14722723
000090 77 93 5b be 59 71 9a 3d dc 8b 03 bd 6a b9 5f bd
       -0.21442972 0.075411506 -0.032115802 -0.054620184
0000a0 ba 45 4f 3d 35 02 31 3e 38 66 ac 3c ef 2d 0a 3e
       0.050603606 0.17285998 0.021044835 0.13494085
0000b0 db 1e 63 3c 96 d6 ba 3d 7f c0 c0 3d 1d bc 29 3a
       0.013862337 0.0912296 0.09411716 0.00064748694
0000c0 98 1f d1 3d 02 e6 9e 3d 65 9a 25 3d b7 bd 26 3e
       0.10211104 0.07758714 0.040430445 0.16283308
0000d0 55 29 44 be ec 46 4d bd 31 de d1 3c ba 9c 3c be
       -0.19156392 -0.050116464 0.025618644 -0.18419161
0000e0 49 c1 8a 3c 02 17 d7 bc 96 a8 0a be 54 58 a2 bc
       0.016937869 -0.026256088 -0.13540873 -0.019817509
0000f0 b8 29 55 bd e3 58 d6 3d fc 4e e5 bd 9d 12 64 be
       -0.05204174 0.104661725 -0.11196706 -0.22272725
000100 da e4 d0 bd f3 35 f6 3d b6 5b 92 3d cc c1 94 bd
       -0.101999 0.12022009 0.07146399 -0.07263526
000110 dd 45 02 3e 0c d9 15 3e bb fb 10 3d 55 5f ac bc
       0.12721963 0.14633578 0.03539632 -0.021041552
000120 65 f4 79 bd a6 b5 40 bd 3f 79 84 bd 28 c2 2b 3d
       -0.06102409 -0.047048233 -0.06468438 0.04193321
000130 26 23 00 be 44 1a 42 bd 79 d3 77 3c 50 ff 0e 3d
       -0.12513408 -0.04738833 0.015126103 0.034911454
000140 1b 9e a0 bd 05 ac 4e bc 4f bc b2 3c b3 00 27 bd
       -0.07842656 -0.012614255 0.021818308 -0.04077215
000150 63 2b ac 3e b1 97 e5 3d f8 30 9a 3d cb e3 86 3d
       0.3362685 0.112105735 0.07528871 0.06586417
000160 3e c6 d4 bd 8f 60 56 bc 8d 1b 85 be 7d 53 1e 3e
       -0.10389374 -0.013084545 -0.25997582 0.15461536
000170 5e 3e 27 bc 79 fa fa 3d a4 55 07 3d c5 13 bb bd
       -0.010207741 0.12254805 0.033040658 -0.0913463
000180 47 92 1e 3e 75 40 d1 3d 49 e6 6f 3c 74 b1 0a be
       0.15485488 0.10217372 0.014642307 -0.13544255
000190 8c ab 03 be 68 a7 4a be 4c 47 c7 3d 24 a6 16 3e
       -0.12858409 -0.19790423 0.09730396 0.14711815
0001a0 79 21 2b 3e 38 a5 74 be 1a 6b 57 3d e0 5b b2 3d
       0.16711988 -0.23891151 0.052592374 0.0870893
0001b0 82 32 bc 3c 00 11 11 bd d4 46 83 3d d1 b7 34 3e
       0.022973303 -0.035416603 0.06409994 0.17648245
0001c0 7f 4a 77 3c 70 44 db ba bb 55 2e 3e 27 5b f3 3d
       0.015093445 -0.001672877 0.17024891 0.1188262
0001d0 37 7b 1b 3e c4 43 05 bc 68 ae a0 3e d7 6e 1b be
       0.15183721 -0.008133832 0.3138306 -0.15179001
0001e0 e7 c4 93 3d 2d 63 15 be 25 ca 0f be 6b e6 23 be
       0.072152905 -0.14588614 -0.14041956 -0.16005866
0001f0 95 7f 5d be f9 fd 0a be 1e 86 b3 bd 27 9c 5c 3d
       -0.216307 -0.13573445 -0.08765815 0.053859856
000200 67 ec 0d bd 11 13 33 3e 58 b8 88 3d e1 0d 09 3e
       -0.03464928 0.17487742 0.06675786 0.133842
000210 20 49 19 bb f7 0d e8 3c 5f 68 05 3e fa 5d b2 bd
       -0.0023389533 0.028326971 0.13028096 -0.08709331
000220 f9 d6 6e 3c 18 9d b7 bd 9c cf 58 3d 4d 39 d4 3c
       0.014577621 -0.0896551 0.052932367 0.02590623
000230 e7 33 e2 3c 08 04 16 bd be 8d b2 3d e4 0e 0a 3e
       0.02761264 -0.03662494 0.087184414 0.13482243
000240 94 08 49 3d 0e 27 ab bd ce 47 95 bc d1 f5 12 be
       0.049080446 -0.083570585 -0.018222716 -0.14351584
000250 db 0a f3 bd 2a 48 11 bd 65 0e 82 bd 1e da 2a 3d
       -0.11867305 -0.03546921 -0.06350402 0.04171192
000260 0e 18 a9 3c 95 06 9f 3d d6 6b 8a bd d4 50 a8 bc
       0.020641353 0.07764927 -0.06758849 -0.020546354
000270 6f 3a c7 bd 16 2e 13 3d 28 30 18 3e d8 4a d2 3a
       -0.09727942 0.035932623 0.1486212 0.0016044034
000280 5b b5 e1 bd 8c 67 33 bd 30 37 b3 bc 6f c3 c3 3d
       -0.11020919 -0.043799922 -0.021876901 0.095587604
000290 7e a0 3d bd 68 43 b9 3d a1 50 15 3d 6c 3e 9f bd
       -0.046295635 0.0904606 0.036453847 -0.07775578
0002a0 e6 06 17 3b 35 ba b1 3d 18 f5 12 bd af 84 c8 3d
       0.0023044883 0.08678094 -0.03587827 0.097909324
0002b0 90 f8 5c bd d5 81 1b bd f0 3a a6 bd 55 f9 97 bc
       -0.053947985 -0.037965614 -0.0811671 -0.018551508
0002c0 50 b3 3e bd e5 e0 82 3b 0d 6f 79 bd bf 3e 0a bd
       -0.046557724 0.0039940947 -0.060896922 -0.033751246
0002d0 c4 d5 a9 3d 5d c4 ae bd 8c b8 0a 3e 96 c6 1a bd
       0.08292726 -0.08533547 0.13546962 -0.037787043
0002e0 07 7d ef 3d fd 45 cc bd f4 fa cf 3c a7 b5 91 3d
       0.11693769 -0.09974287 0.025388218 0.071147256
0002f0 48 78 0a bd 70 92 b4 bb a9 68 10 be 6d d0 1d bd
       -0.033806115 -0.005510621 -0.14102425 -0.03852885
000300 f8 f1 85 3d 5d 79 ac bb d9 a3 f2 3d f6 93 08 3d
       0.065402925 -0.005263491 0.11847658 0.03334423
000310 b8 4d 52 3e 20 44 e9 3d 2e 6a 39 3d bd e2 6c 3d
       0.2053746 0.11389947 0.045267276 0.057833422
000320 fa 73 21 be 52 2b b1 3c c6 70 91 3d 2a 98 95 bd
       -0.15766898 0.021627102 0.07101588 -0.073044136
000330 b1 e9 1b 3e 8f 52 96 3c f9 f2 5b bd 3e 07 af bd
       0.15225865 0.018349914 -0.053698514 -0.08546303
000340 2e 23 ae bc b6 ca 79 bd be 13 8a 3c b3 b0 45 3e
       -0.02125701 -0.060984336 0.016855117 0.19305687
000350 ac 5b 38 3e 9c db 05 3e 74 ff a0 3c d6 a1 17 be
       0.1800372 0.13072056 0.01965306 -0.1480783
000360 98 34 fd bc d3 37 01 be 12 05 2c 3e 97 4c 2f bc
       -0.030908868 -0.12618951 0.16798809 -0.010699413
000370 27 e8 32 be ba e5 4c 3e f4 cd 73 bd 00 02 bc 3d
       -0.17471372 0.20009509 -0.059522584 0.09180069
000380 e2 21 fa 3c 03 5d 84 bb c8 b6 b2 3d 82 95 1f bd
       0.030533735 -0.004039408 0.08726269 -0.03896094
000390 46 ee 47 bd 94 3a d3 3d 7b c5 7a bd a0 30 96 bd
       -0.04881122 0.10313907 -0.06122349 -0.07333493
0003a0 ef 0a 23 be e8 b5 4d 3e 50 64 21 3e 26 ae 6e 3d
       -0.1592214 0.20088923 0.15760922 0.05827155
0003b0 b9 b5 a6 3d a1 ee 66 bd 47 94 6b 3d 3e a2 09 3e
       0.081401296 -0.056379918 0.057514455 0.13440797
0003c0 ca 9a 2e 3e 4c 35 e8 3d 83 4b 33 3e e6 19 4e 3e
       0.17051235 0.113382906 0.17509274 0.20127067
0003d0 3a b2 49 3d 01 a1 76 bc e8 f1 ea 3c 0f ff bd bd
       0.049242236 -0.015053035 0.028679803 -0.09277164
0003e0 42 e6 11 be 00 05 1f be 0b a7 51 3d 49 cd 5f 3d
       -0.14247993 -0.15529251 0.051184695 0.054639135
0003f0 09 15 be 3d ba 75 1c 3e 5e 54 46 bd e3 37 4d be
       0.09281356 0.15279284 -0.048420303 -0.2004085

rnn.weight_ih_l1 f4 [256, 64]
000000 32 30 39 be 1c f9 aa 3c cd 10 fc 3d 9c 54 61 bd
       -0.18084791 0.020870738 0.12307892 -0.05501233
000010 15 97 d3 bd a6 9d a3 bd 21 64 19 3e d3 3d 1b 3d
       -0.10331551 -0.079890534 0.14979602 0.037900757
000020 cb 31 6e 3e 7e c6 94 bb e2 66 25 3e d1 45 02 3e
       0.23261182 -0.0045402637 0.16152528 0.12721945
000030 5d 0b dd bd 12 f4 4f 3e 01 6e 33 3d 42 34 cc bd
       -0.10793183 0.20307949 0.04380608 -0.09970905
000040 85 f1 56 be 02 c5 47 bd cb 6c 95 3d 49 fa 64 bd
       -0.2099057 -0.048771866 0.07296141 -0.055902753
000050 4e 32 8b be eb cf 09 3e ca e6 8e 3d b5 af e4 bd
       -0.27186817 0.1345822 0.06977613 -0.11166326
000060 5d 80 27 be c0 f7 e6 bc 0a b6 c5 bd 9f c2 05 3e
       -0.1635756 -0.028194308 -0.09653862 0.13062523
000070 ff 7a be bd 99 65 36 3e 3c 56 44 3d c0 ab f0 bd
       -0.093008034 0.17812194 0.047933802 -0.11751509
000080 a2 f3 87 bc aa 94 0b bd 4f 75 f2 bc 8d 43 ce bd
       -0.016595665 -0.034077324 -0.029596953 -0.10071478
000090 9b 70 09 be 3a e0 8a bc b0 61 aa 3d 6b 3f d1 bd
       -0.13421862 -0.016952623 0.08319414 -0.10217174
0000a0 9b d2 06 be 68 30 c3 bd 7d bd 0f 3d 47 fb 4d be
       -0.13166277 -0.09530717 0.03509282 -0.20115386
0000b0 d7 49 e6 bd 76 f5 95 3d 4a 39 34 3d 32 7c 90 be
       -0.112445526 0.073222086 0.043999948 -0.28219754
0000c0 bc ab db bd 8f f4 56 3d 4b a2 6f bd c6 64 07 be
       -0.10726115 0.052479323 -0.058504384 -0.13222036
0000d0 60 86 f8 3d 3c c7 ca 3b 32 e0 1c be 50 9c 3e 3e
       0.12135005 0.0061883014 -0.15319899 0.18614316
0000e0 12 02 8c 3e 44 19 99 3d c1 09 b9 bd 9f 76 84 3d
       0.2734533 0.07475522 -0.090350635 0.06467938
0000f0 0d d6 e0 3d c5 15 b4 bd 7f 12 17 3d 33 70 b0 3d
       0.10978327 -0.08793215 0.036882874 0.0861515
000100 0b 7d 1a 3e 4e 83 f5 bc 8c 99 ca bd cc e8 5a be
       0.15086763 -0.029969838 -0.09892568 -0.21377867
000110 4c 9a 3e 3e e3 e2 2c 3c b8 b8 fc bd a5 c8 6a 3d
       0.18613547 0.010552141 -0.1233992 0.057320256
000120 10 04 85 3d bf c6 fe bd 5a 73 ae 3c ad 70 86 3d
       0.064949155 -0.124402516 0.021295238 0.0656446
000130 d7 f7 37 bd bb c7 9c bd c6 7b af 3d c2 f6 5d 3d
       -0.044914093 -0.07655283 0.0856853 0.054190405
000140 21 db cf bd 05 60 73 3d 33 72 ac bd 5e cb 80 bd
       -0.101492174 0.059417743 -0.08420219 -0.06288789
000150 29 25 d2 bd cd 16 4e 3c f4 65 59 bd 89 5f 67 3d
       -0.10260994 0.012578678 -0.053075746 0.056487594
000160 cc 91 a0 bd b1 8e 23 be bb 8e b2 bd 8b 44 f0 3d
       -0.078403085 -0.15972401 -0.0871863 0.117318235
000170 98 08 98 3d 71 2c 3e 3e 4b bf 24 3e a9 ed a8 3d
       0.07423514 0.1857164 0.16088597 0.08248455
000180 0c f4 f0 bc 4b 70 02 3e 00 39 8b 3d 75 bf a8 3d
       -0.029413246 0.12738149 0.06797981 0.082396425
000190 b7 f2 cf 3c 15 d1 66 be e6 d4 ad 3d 7f 27 ff 3d
       0.02538429 -0.22540696 0.08487873 0.12458705
0001a0 2e cd 02 be 50 3b 94 3c 81 1e 43 3d f7 2c 1c 3d
       -0.12773582 0.018094689 0.047636513 0.03812882
0001b0 9b ef 90 3d 2f 70 55 bd f2 63 22 bd fa eb 07 be
       0.07076951 -0.05210894 -0.039646097 -0.13273612
0001c0 b4 09 88 bd b8 37 1f 3e bf 43 7d be 26 76 6c bc
       -0.06642476 0.15548599 -0.24732874 -0.014432466
0001d0 dc 12 5e bd 14 07 fd 3d f8 cc 3b 3b b8 fd bb 3c
       -0.054217204 0.12354866 0.0028656106 0.022948131
0001e0 da 97 93 3d 88 79 f0 bd ba cf 01 bd 03 7d 59 3d
       0.07206698 -0.1174193 -0.031692244 0.053097736
0001f0 92 6b a4 3d 4f 35 ce 3d 7a a9 1b 3e 24 c0 d0 bd
       0.0802833 0.100687616 0.15201369 -0.10192898
000200 b6 ea 27 3e da 8e 4f 3e 69 42 dc bc 12 fa b3 bd
       0.16398129 0.20269337 -0.026887136 -0.087879315
000210 15 fe 83 3d c1 25 0e 3e ad 8e 5b bd 73 eb 24 3e
       0.06444947 0.1388159 -0.053602863 0.16105442
000220 ff 96 dd bc 12 1b 40 bd 18 25 f6 bd 5d dc 44 3d
       -0.02704954 -0.046900816 -0.12018794 0.048061717
000230 8a 06 47 be 0e 8d 1f 3e ed 60 44 3e 2e 00 5d 3d
       -0.19436088 0.15581152 0.19177599 0.05395525
000240 04 5c d4 3d aa c7 0a 3e 58 93 12 3e 91 1d 94 bd
       0.10369113 0.13552728 0.1431402 -0.07232202
000250 17 c4 67 be 38 48 7a 3d b9 8e 7a 3d a7 05 42 bd
       -0.22633396 0.06110403 0.061171267 -0.04736867
000260 bc fc 53 bc e3 d1 49 be 84 24 12 3d a1 c0 06 be
       -0.012938675 -0.19708972 0.035679355 -0.1315942
000270 f4 cb c2 3d 7d 91 8a bd ef ad 77 bd 36 fb 6f bc
       0.09511557 -0.06766031 -0.06046861 -0.014647296
000280 2f 20 c7 bb 48 fe 3b 3c 95 41 8f 3d a4 6f 26 bd
       -0.0060768346 0.0114742 0.06994931 -0.040633813
000290 a6 11 01 be 5d 47 43 be d9 fc 5d be a1 39 68 3e
       -0.12604389 -0.19070192 -0.21678485 0.22678234
0002a0 e3 ce f5 3b 11 3c 22 3e 25 d7 1a 3d 18 04 93 3c
       0.0075014695 0.15843226 0.037802834 0.017946288
0002b0 1a c7 91 bd 79 17 32 3e b8 1f a2 ba da 0b 3d be
       -0.07118054 0.17391767 -0.0012369072 -0.18461552
0002c0 29 42 05 3d 2e 4a 52 3e 4c 0c b6 bd eb e8 b5 bd
       0.0325338 0.2053611 -0.08889064 -0.08882316
0002d0 e6 82 72 bd c4 b9 a0 3d a8 62 77 3d 7b dc df 3d
       -0.059206866 0.07847932 0.06039682 0.10930725
0002e0 f0 78 1d bd db 83 ac bd da 50 0e 3d 0f d5 92 bd
       -0.038445413 -0.08423587 0.034745075 -0.07169544
0002f0 9a c5 f0 bc a1 58 87 3d a7 63 bc 3c 9e c5 99 bd
       -0.029391099 0.066087015 0.022996737 -0.075083956
000300 60 01 08 be 84 c2 93 bd 76 24 53 bd 68 6c 17 bd
       -0.13281775 -0.07214835 -0.051548444 -0.03696862
000310 96 2e 5d 3e dc 89 48 bd 70 32 c3 bd c5 b6 b6 3d
       0.21599802 -0.048959598 -0.095311046 0.08921579
000320 d3 2b 1b 3d 69 94 82 3d e7 3d 87 bb 03 14 9c bd
       0.03788359 0.06375963 -0.0041272524 -0.076210044
000330 aa 03 14 3d 58 7d cc 3d 6d aa 0f be 36 0e 42 be
       0.036136307 0.09984845 -0.14029856 -0.18950734
000340 fb f8 d0 3d 08 f4 5c bd 19 75 73 3d 99 b9 5d 3e
       0.10203739 -0.053943664 0.059437845 0.21652831
000350 40 7b 21 be 27 43 85 3d f9 16 51 3d 09 c8 20 3e
       -0.15769672 0.06506949 0.0510473 0.15701307
000360 e2 af 39 bd f2 96 5d ba 9d 41 6e 3e 6a a5 ee bc
       -0.04533375 -0.00084529736 0.23267217 -0.02913161
000370 1d 49 27 3e 29 2a 9f bd 4d 73 6d 3e 3f 01 3b 3e
       0.16336484 -0.07771713 0.23188515 0.18262194
000380 17 d4 95 bc 67 27 d0 bc 0c 16 16 3e fa 5d 98 3d
       -0.018289609 -0.025409414 0.14656848 0.074397996
000390 9e 95 d0 bd 2f 38 69 3d d4 1a 4f 3d ce ac b0 3d
       -0.10184787 0.056938346 0.050562695 0.0862671
0003a0 60 d5 13 bd 74 53 15 3e 4a f3 92 bc 55 5d b5 bd
       -0.036092162 0.14582616 -0.017938275 -0.08855692
0003b0 75 7b 9e be 1f b5 8f 3d c2 1f 1b 3d db 3f 83 be
       -0.30953565 0.07016968 0.037872083 -0.25634655
0003c0 61 58 81 be ea 54 36 3e 89 10 b5 bd c3 20 83 bd
       -0.2526274 0.1780583 -0.088410445 -0.06402733
0003d0 1b d6 7f bd 7a 74 db bd 31 0b 07 3e 14 f7 74 3c
       -0.062460046 -0.107155755 0.13187863 0.014951486
0003e0 1c 6e 93 3d 38 cd 66 3d a5 e0 cb 3c 3a 8a 3a bd
       0.07198736 0.056348056 0.024887392 -0.04554198
0003f0 ee 17 78 3e 77 87 ba bd 61 f7 13 be dc 61 35 bd
       0.24227878 -0.09107869 -0.14449836 -0.04428278

rnn.weight_hh_l1 f4 [256, 64]
000000 2f 74 d3 3d f2 ad 0e 3e ab 0c 2c bd af b6 08 bd
       0.10324895 0.13933542 -0.04200427 -0.033377346
000010 96 72 25 3c ea df bc bd 35 aa 94 3d 72 bc 26 3d
       0.01009812 -0.09222396 0.07259027 0.04070706
000020 43 df 43 bc 7e 5d 8a bd 3d 0b 85 bd 4f 22 3c 3d
       -0.011955085 -0.067561135 -0.06496284 0.045931157
000030 fd ad 4e be cf c5 cf 3d 8a f0 2f 3d 01 d8 c1 3d
       -0.20183559 0.10145151 0.042954005 0.094650276
000040 a6 76 8a 3d 15 78 89 3c 5e 90 2f 3d 15 70 06 3e
       0.06760912 0.016780892 0.04286229 0.13128693
000050 40 f4 24 be 21 95 8b bd eb 88 88 be 7b b8 dd bd
       -0.16108799 -0.068155535 -0.2666696 -0.108262025
000060 cf 7d 8a 3d e8 62 0c 3d 76 6f 8d bd 4e 12 9c bd
       0.06762277 0.03427401 -0.06906025 -0.07620679
000070 f2 23 ec bc a5 42 84 bc ed c5 04 bd da b3 ef 3c
       -0.028825734 -0.01614506 -0.03241532 0.029260565
000080 a8 4e 35 be c8 05 c7 bd 4b fa 7c be ce 34 d2 3d
       -0.17705786 -0.097178996 -0.24704854 0.10263978
000090 71 6b 09 bc 05 6a de bd 40 ac ef bd 2d d3 f7 bc
       -0.008387432 -0.10860065 -0.11702776 -0.030252064
0000a0 ed 41 bf bd 10 74 b6 bd b9 8a 13 be 87 2e a2 3d
       -0.09338746 -0.08908856 -0.14408387 0.07919031
0000b0 6a e8 3e 3e 3f 97 d8 3b 47 8f 99 3c 7e 12 c7 3c
       0.18643346 0.006609827 0.018745078 0.02430081
0000c0 95 43 93 3d 32 09 05 3e 4c 77 ba 3d 5d a0 ef 3b
       0.071906246 0.12991789 0.09104785 0.007312818
0000d0 f5 7e 4d 3d 66 4e 63 3c 5b 80 8b bc 1b 7a 3b bd
       0.050169904 0.013873672 -0.017028978 -0.045770746
0000e0 1b 55 1c 3e 50 9c bf 3d 77 6f 17 be 30 69 03 3b
       0.1526684 0.09355986 -0.14788614 0.002005171
0000f0 e3 b1 49 bd 96 92 9e 3d e5 44 64 bd 1a 69 be bd
       -0.04924191 0.07742803 -0.055729765 -0.0929739
000100 86 70 8e 3d b7 51 10 3e d4 4a 10 be 9b 3c 69 3d
       0.06955056 0.14093672 -0.14091045 0.056942564
000110 ff 12 a6 3d a4 62 73 3c 81 86 37 be 1b 86 90 be
       0.08109092 0.014855061 -0.17922403 -0.28227314
000120 37 78 bf bd 19 56 b2 3d c9 15 88 3d e0 fd 95 3d
       -0.09349101 0.08707828 0.0664478 0.073238134
000130 b4 b8 ac bd 29 93 4f 3d 4c c1 bf bd 20 26 8c 3e
       -0.08433667 0.050677452 -0.0936304 0.27372837
000140 06 36 6c 3d 6a 74 02 3d 4d b1 b7 3d c1 00 8c bc
       0.05766871 0.031849302 0.08969364 -0.017090203
000150 51 b7 82 3d 4e dc ab 3b 06 0a 03 bc c0 ed 14 3d
       0.06382621 0.005244768 -0.007997995 0.03635955
000160 e9 77 03 3e 42 c3 0f 3d 81 c7 ad bd cd 83 d4 bc
       0.12838711 0.03509832 -0.08485318 -0.025941754
000170 e3 0b 61 bd 0a cc b1 3b 0d 04 98 bd 28 fb d6 bd
       -0.054942977 0.0054259347 -0.074226476 -0.10497123
000180 e2 f3 ba bd 58 30 90 bb 1e 81 89 be 49 df a4 3d
       -0.09128548 -0.0044002943 -0.2685632 0.08050401
000190 48 0e 86 bd 2b 3e 59 bd 01 f0 05 bd 91 05 1a bd
       -0.06545693 -0.053037804 -0.03269959 -0.037602965
0001a0 0a d3 2f be f8 79 95 bd c8 ec 04 be d1 0f 92 bd
       -0.17170349 -0.07298654 -0.1298095 -0.07131923
0001b0 4b c4 a0 3a 20 96 b4 bd 7d cc b1 3d 8d fe a8 3c
       0.0012265531 -0.088176966 0.08681581 0.020629192
0001c0 6d 7c d0 3d 29 c1 a5 3d e1 b7 74 3d 26 f2 ee 3d
       0.10179982 0.08093483 0.059745673 0.1166728
0001d0 75 cc b4 3d 2d f9 e8 bd 6d 6c e3 bd 2b 5c a4 3c
       0.088280596 -0.113756515 -0.11104665 0.02006348
0001e0 df 04 46 3e f0 28 0d be 89 b9 aa bc 06 4a 4f bd
       0.19337796 -0.13785148 -0.020840423 -0.050607704
0001f0 8e ac 1d bd c6 a5 cb 3d af c6 e6 bd 52 d4 1a be
       -0.03849464 0.09943728 -0.11268365 -0.15120056
000200 5e 8a cd bc 23 74 78 3c 66 e6 9f 3d 1c ea 4d 3b
       -0.025090393 0.015164408 0.07807617 0.0031420058
000210 47 55 23 be 22 25 37 be cd 5e 14 be 9d ce 90 be
       -0.159505 -0.17885259 -0.14489289 -0.28282633
000220 de 8b 0e 3d 70 35 46 3d 6b ea 07 bc 4b 63 63 3c
       0.034801356 0.048390806 -0.008295636 0.013878654
000230 16 92 e4 bd 99 95 19 3e 28 a8 15 bd 8d 88 26 be
       -0.11160676 0.14998473 -0.03653732 -0.16263027
000240 e3 1d 9a 3d cd 2c db bd 0b 7b c6 bd 76 75 25 3d
       0.07525232 -0.107019044 -0.09691437 0.040395223
000250 b1 e1 d9 bd f1 49 5d 3d d3 d3 5a 3d f9 43 d3 3d
       -0.1063875 0.054025594 0.053424668 0.10315699
000260 be 27 0e be cb 9e 60 3d 84 e6 52 bd 1e dd 1b bd
       -0.13882348 0.054838937 -0.051489368 -0.03805267
000270 ce da 1f 3e 61 c5 60 3d c7 46 19 be d5 00 a1 3c
       0.15610811 0.054875735 -0.14968406 0.019653717
000280 b4 ba e5 3d 52 4a 58 bd 6a 92 ee 3c 14 e0 73 bd
       0.112172514 -0.052805252 0.02912255 -0.05953987
000290 c1 57 08 3d db 88 ee 3d 03 2a 83 bd 7b 7b d9 bc
       0.033286814 0.11647197 -0.064044975 -0.026548138
0002a0 4c 37 40 3d 53 47 b0 3d 7a 20 d6 bb 83 81 ab bd
       0.046927735 0.08607354 -0.006534633 -0.08374312
0002b0 3c e8 93 3b 13 d8 90 3d c9 d2 e2 bd a7 77 0f 3e
       0.0045137685 0.07072463 -0.1107536 0.14010487
0002c0 86 03 2e 3e e7 33 1d 3d f9 78 d9 bc 1c a7 d5 3c
       0.16993532 0.038379576 -0.026546942 0.02608066
0002d0 9b f4 14 bd 2f f0 11 bb 3d a1 8b bb 98 44 ac 3d
       -0.036366086 -0.0022268405 -0.0042611645 0.08411521
0002e0 b5 cf a1 3d 09 c7 35 bd f2 bb a8 bd 8a a1 65 bd
       0.07900945 -0.044379268 -0.08238973 -0.05606226
0002f0 19 a5 be 3d d1 ff 34 bc 38 4f b5 3c 9e a2 72 bd
       0.09308834 -0.0110473195 0.022132501 -0.059237115
000300 02 f4 63 bb a6 b0 1f 3e bf 9f 1b be e2 80 da bd
       -0.003478289 0.1559473 -0.15197657 -0.10669114
000310 1c 0a 13 bd 0d e3 52 3d b8 c3 09 3d 74 4b bc 3d
       -0.035898313 0.051486064 0.033633918 0.09194079
000320 ea 5a fe 3c eb 42 61 be fd b2 e8 3d ae f4 00 3c
       0.03104921 -0.21998183 0.11362264 0.007870836
000330 9e 10 08 bc 29 68 7a bc 6c f2 02 be 08 36 90 bd
       -0.008304743 -0.015283623 -0.12787789 -0.07041556
000340 bc e7 0b 3e 12 c9 e0 bd 26 f1 b2 3d 90 65 e1 bd
       0.13662618 -0.10975851 0.08737402 -0.110057
000350 92 7e 09 bd b6 74 0d bd 53 5b d6 3d c3 69 50 bc
       -0.033567972 -0.034535132 0.104666375 -0.012720528
000360 e0 46 74 3c 89 e9 18 be 54 72 54 3e 29 b6 91 3e
       0.014909476 -0.14932837 0.20746738 0.2845929
000370 67 4b b5 3d 5b cc c8 3d 09 72 39 be f2 f7 07 be
       0.088522725 0.09804603 -0.18109907 -0.13278177
000380 f9 5d 1a 3e a7 43 0d be 42 ef 24 3b 6d 8d 05 3d
       0.1507491 -0.13795339 0.0025167023 0.032605577
000390 46 b6 dd bb 24 b2 31 bd 41 cd 32 bd 7f 51 78 3e
       -0.0067661135 -0.04338278 -0.043652777 0.24249838
0003a0 f1 66 8d bd bd e2 47 be 4e 6c 97 3d d2 9b 9f bc
       -0.069044 -0.19520088 0.07393704 -0.01948348
0003b0 b6 c2 14 bd 83 56 88 bd 19 eb 3f 3d e9 7e 82 3d
       -0.036318503 -0.06657126 0.046855066 0.063718624
0003c0 5e 49 0d bc e5 4d 0b 3d fe 18 0a 3c b0 46 1c 3e
       -0.008623449 0.034009833 0.00842881 0.1526134
0003d0 de 65 b6 3d ac ea 5c ba d8 75 0e 3d 28 2e 66 bd
       0.089061484 -0.0008427303 0.034780353 -0.05619636
0003e0 8d e5 48 3e b7 f6 ca bd 0b b9 39 bd 89 e3 1d be
       0.19618817 -0.09910338 -0.045342486 -0.15418829
0003f0 7d dc 6f be 99 c7 3b be 8d 37 d8 bd e9 30 6c be
       -0.23423953 -0.18337859 -0.105574705 -0.23065533

rnn.bias_ih_l1 f4 [256]
000000 d2 be 65 bb 95 3e c1 bd 29 46 06 be 44 ae 08 be
       -0.0035056365 -0.09435765 -0.13112701 -0.13347727
000010 19 59 c9 bd c5 b2 82 be 91 b3 4b 3d 6b 2f 11 be
       -0.09831447 -0.25527015 0.049731795 -0.14178245
000020 67 4f 82 bd f7 ec fa bd db 47 2b be 63 97 7a 3d
       -0.06362801 -0.12252229 -0.1672663 0.06117953
000030 1c bc 01 be 3e 45 7e bd 2e 23 f6 bd d2 9e 56 bb
       -0.12669414 -0.062077753 -0.12018429 -0.0032748473
000040 6d 61 35 be 8a f8 7f 3c 64 60 5d bd 2b ce 2d bd
       -0.17712946 0.015623221 -0.054047003 -0.042432945
000050 88 5c 39 be e9 da 0c be 28 ae 73 3b 36 76 ce bd
       -0.18101704 -0.13755383 0.0037182663 -0.10081141
000060 a7 d9 e9 bd fc 70 57 be 9a e9 82 be d8 9a 8d b8
       -0.11418467 -0.21039194 -0.2556885 -6.752246e-05
000070 f5 b5 dd 3c 22 9a 4d be 4d 90 10 bd 32 7a 74 be
       0.027064303 -0.20078328 -0.035293866 -0.23874739
000080 a8 55 dc bd de 11 c9 bd 9c 98 ce 3b 1f ec ca bd
       -0.10758525 -0.09817861 0.0063048135 -0.09908318
000090 d2 fb 58 be a9 ba 83 bd dd 07 8d 3d e8 aa 2b 3c
       -0.21189812 -0.06432087 0.068862654 0.010477759
0000a0 e9 dc 72 be 81 04 14 be 26 10 09 bd b3 02 d0 bd
       -0.23717083 -0.14454843 -0.033462666 -0.10156765
0000b0 40 90 09 be f9 c8 0b 3c 65 90 1d bd b0 0b 2b be
       -0.13433933 0.008531802 -0.038467783 -0.16703677
0000c0 77 ec cc 3d 6f 0f 7e be 83 93 55 3c 69 cf d5 bd
       0.100060396 -0.24810575 0.013035658 -0.10439951
0000d0 f1 77 cd 3d 9c ea b0 bd ee 8a 21 3e 13 28 7c 3c
       0.10032643 -0.08638498 0.15775654 0.015390414
0000e0 f7 ad 3b bd c4 46 ec bd ad 53 60 be 1b 5e bb bd
       -0.045820203 -0.11536935 -0.2190692 -0.091488086
0000f0 b0 fc 91 bd 88 46 1a 3c a4 d8 66 3d 9d 76 47 be
       -0.071282744 0.00941623 0.05635895 -0.19478841
000100 8b 01 5a be 2c 32 30 bd 4d ea 13 be 6d 60 4e be
       -0.21289651 -0.043016598 -0.14444847 -0.20153971
000110 4a 74 06 be 6a 83 86 bd 06 e9 af bd 25 31 65 3b
       -0.13130298 -0.06568034 -0.085893676 0.003497192
000120 97 47 63 3d ba 4c da bc 2a 94 1f bb 48 07 ef bd
       0.055488195 -0.026647914 -0.0024349787 -0.11671311
000130 a4 d3 81 3d f8 b7 3c be f5 f4 0b be 9e d3 e2 3c
       0.06339195 -0.18429554 -0.13667662 0.027688798
000140 95 7e e9 bc aa 93 17 be 67 90 20 be cc 02 6c be
       -0.028502742 -0.14802423 -0.15680085 -0.23047942
000150 22 b2 26 be 9b 30 df ba 88 3e 3d bb 4e ba d2 3d
       -0.1627889 -0.0017028035 -0.0028876383 0.10289441
000160 92 9c 9c bd 56 34 4e be 5d 1f 7d be 33 89 d8 bd
       -0.07647051 -0.20137152 -0.24718995 -0.10573044
000170 35 97 2a be 42 d1 a5 bd 13 8d 17 be f0 fd 41 be
       -0.16659243 -0.080965534 -0.1479991 -0.18944526
000180 59 0f 3d 3e db 7b e1 bd d5 d3 90 3d c2 54 15 be
       0.18462886 -0.11009952 0.07071654 -0.14583114
000190 57 46 f9 bd 65 98 dc bd 28 55 87 bd 50 20 44 be
       -0.121716194 -0.107712545 -0.06608039 -0.19152951
0001a0 14 97 1e be ce 14 82 bd 0d d7 f3 bd 88 08 67 be
       -0.15487319 -0.063516244 -0.11906252 -0.22561848
0001b0 06 40 2e be e9 19 06 be 35 88 1e be b6 04 46 be
       -0.1701661 -0.13095821 -0.15481646 -0.19337735
0001c0 16 28 16 bd b7 d5 2f be b4 77 91 bd 93 ca 82 bd
       -0.036659323 -0.1717137 -0.0710291 -0.06386294
0001d0 57 e8 d6 bd 4c 63 f9 bd ed d1 17 3e 44 74 0f bd
       -0.10493534 -0.121771425 0.14826174 -0.03502299
0001e0 61 08 42 be 6f 5c 74 bd ff 95 02 be a2 73 4a be
       -0.18948509 -0.059658464 -0.12752531 -0.19770673
0001f0 c0 5d a3 bd f3 99 05 be 21 8e ad bd 8f 01 0c bd
       -0.07976866 -0.13047008 -0.084743746 -0.034181174
000200 19 50 29 bd 67 a7 95 bc 77 82 bf 3d 8a 3c 40 3d
       -0.041336153 -0.0182683 0.09351056 0.046932735
000210 4e 49 86 3d 3a 83 4e bd 09 1b 25 bd d5 06 3c bd
       0.065569505 -0.050418116 -0.040308986 -0.045904953
000220 5f 55 45 3d a3 80 c2 3d be 90 09 3d 6b 4a d6 3d
       0.04817712 0.09497192 0.033585303 0.10463413
000230 91 5a fa bd 32 bf 22 3c 47 91 4d bc 0b a6 f6 bc
       -0.122243054 0.00993328 -0.012546844 -0.030108472
000240 b5 65 09 3d cf 53 19 bc 67 45 1a bc 0a a8 42 bd
       0.03354426 -0.00935836 -0.009415961 -0.047523536
000250 ea da b0 3d e9 87 57 3d 00 bb dd bd fc 93 ed 3a
       0.086355045 0.05261985 -0.10826683 0.0018125768
000260 85 48 45 bd 70 72 ab bd b2 2b 3b bd e0 d1 8a bc
       -0.048164863 -0.083714366 -0.045695968 -0.01694578
000270 a4 fb 0e be 52 e4 37 bd 73 c8 bf 3c 34 72 06 3e
       -0.13963181 -0.044895478 0.023411011 0.13129503
000280 95 cc fd bd e0 3f 0b 3c 2a 7c a9 3c 35 b9 b7 3c
       -0.123925366 0.008499116 0.020689089 0.02242718
000290 0b cc b9 bc 31 6f 08 bd 72 b1 c0 3d a9 5d 2a 3d
       -0.022680303 -0.033309165 0.09408845 0.041593228
0002a0 01 48 e3 bb ef ae 8b 3d 75 6f 57 bc 41 5b 9d bc
       -0.006936074 0.06820475 -0.013149132 -0.019208552
0002b0 e7 47 2d 3d f8 a0 74 3d 3f df 1a be 84 f6 fe bd
       0.0423049 0.059723824 -0.15124224 -0.12449363
0002c0 ed e3 a2 3d d6 89 44 bc fd 7e ba bd d3 54 a1 3b
       0.0795363 -0.011995753 -0.09106252 0.004923442
0002d0 fc e9 46 3d cb 75 24 3c 29 8a a3 3d a7 b0 94 3d
       0.04856299 0.01003785 0.07985336 0.07260256
0002e0 3a 42 04 be 4f 20 c9 3c f6 a1 8c 3d 5c 68 d3 3d
       -0.12915888 0.024551539 0.06866829 0.10322639
0002f0 f4 ec 56 bd 72 61 d9 3c 56 3e 9e 3d 0c c5 c6 3d
       -0.05247207 0.026535723 0.077267334 0.097055525
000300 ed 40 39 be e0 92 a1 bd 92 83 1e be 2b 61 3d bd
       -0.18091173 -0.07889342 -0.15479878 -0.046235245
000310 f0 c0 17 3d da 88 11 be ce 92 75 bc 2f fa ad bd
       0.037049234 -0.14212361 -0.014988614 -0.08494984
000320 e7 c4 34 3d 35 a6 e7 bd 1e 47 30 be 8d 0d 4f bd
       0.044133093 -0.11310998 -0.17214629 -0.050550032
000330 ef 3a 17 be 28 7a da bd fd 3b 96 bd a4 79 95 bd
       -0.14768575 -0.10667831 -0.073356606 -0.07298592
000340 f7 e2 b2 bd 5e 6f ad bd ee 17 15 3c 7c ce b2 3c
       -0.08734696 -0.08468507 0.009099944 0.021826975
000350 a7 21 26 bd 5a fa 56 3c 8d 01 eb bd 53 0b 2a be
       -0.040559437 0.013121212 -0.11474905 -0.16605882
000360 93 95 98 3b aa ff 69 be 34 94 6f bd 67 6a 22 be
       0.0046565025 -0.22851434 -0.058490947 -0.15860902
000370 4b 18 ac bd 7d c5 31 be f1 66 ea bd 08 2b 48 be
       -0.08403071 -0.17360492 -0.11445416 -0.19547665
000380 7c 27 16 bd 4d ca cb bd 42 31 f8 bd 91 b9 f4 39
       -0.03665875 -0.09950695 -0.1211877 0.00046677564
000390 bb 97 17 bd c6 4a 70 be 04 54 f7 3a 10 17 af 3c
       -0.037009936 -0.23466024 0.0018869643 0.021373302
0003a0 a1 20 66 be 7e 21 f5 3b 23 a5 63 3c 85 32 f5 bc
       -0.22473384 0.007480799 0.013894352 -0.029931316
0003b0 05 7a 3d bd 09 0c 52 3d 32 3f 07 be 70 db 15 be
       -0.046258945 0.05128101 -0.13207701 -0.1463449
0003c0 cc 36 e9 bc 59 80 0e be 5b cb 93 bc 66 36 13 be
       -0.028468512 -0.13916148 -0.018041303 -0.1437622
0003d0 f9 0b 42 bd 83 29 22 be d5 3b 59 bb 7b 59 de bb
       -0.0473747 -0.15836148 -0.0033147235 -0.0067855692
0003e0 42 e1 f5 bd a2 6a d6 bd 6c fa 2f bd fa 8d 38 bd
       -0.12005855 -0.10469557 -0.04296343 -0.045057274
0003f0 c2 fe 0c be 51 98 11 3b 51 da 17 be 8d 18 5d be
       -0.13769057 0.0022216032 -0.14829375 -0.21591397
