examples/output/Alpha158/model.bin (torch, 265912 bytes, 19 tensors)

rnn.weight_ih_l0 f4 [256, 20]
00000000: ccfa 633d 3725 7fbe 8d9b 2d3e 3089 73be
00000010: 79c4 513e 56ea 6a3e ca19 b73c 99f9 903d
00000020: 8da5 d83d fe95 2b3d c61c 1c3e cc9b 6d3e
00000030: 7487 e6bd 5510 11be e9a4 3dbc 16b0 433e
00000040: 2a6a 8bbd 0498 8fba 76a4 18be 0325 f23c
00000050: 2d49 4d3d b6de 03be 3e43 3a3d 386f b3bd
00000060: d9a8 9e3d b0c5 febd 09dc b43d dfdf 3c3e
00000070: f1a5 863d e682 5f3e 9409 5a3a 4965 07be
00000080: af31 f2bd e0dc d23d a0a3 183e e335 453d
00000090: 7ee4 993d ff6f 3ebd 4ba8 3a3e 9e2e 41bd
000000a0: e8df f7bc 3e07 17bc 16f0 3b3b 4063 d53d
000000b0: 3fbf 603d fc67 fc3d 3cc2 883e 3ce3 1f3e
000000c0: bd48 9ebd 3297 05be ad18 0c3d 0ee2 343e
000000d0: a95e a73d 54fb f7bd cd81 8f3d 726a b73d
000000e0: 3df2 fe3b ecdb 5a3d 23f3 153e 9a9e 263c
000000f0: 4cfc f13c 4923 193d e9ae 46be 751f bebd
00000100: 7397 e23e 6ad8 6a3c 8d6c d73d 0b9c 573e
00000110: 5277 c5bc 019d 643d 9c64 b63d 3b12 363e
00000120: 044a d1bd 886c a8bd dddb 033c c43a b73d
00000130: 3874 3ebc 0b5a 92bd 814d 58bd 4594 2f3d
00000140: f92b d63d dabb 423e c875 3e3d 8b19 c9bc
00000150: 1fb4 553d 4d37 6e3d 6ba6 153e e2a1 a23d
00000160: 2176 5abe 06ae b83c 3901 20bd 86f4 e63d
00000170: d3d3 213e 3717 b4bd 72d6 c63d af36 f53a
00000180: 0101 aebd 8632 54bc edbd 103e 2735 c4bc
00000190: 5882 59be 521e 4dbe 2d01 c9bd 8822 5cbe
000001a0: 8bb4 013e 1444 863e 5cf6 f43d 00a1 4fbe
000001b0: 1eb9 9e3d 9242 1c3e 0d30 7c3e b987 b13d
000001c0: 21c2 073c b075 22be d133 a03d d20a 103e
000001d0: 8ca0 013d 8d4f 9bbd 8248 7b3c 6221 30bb
000001e0: 4de1 a63d c33f f2bd b58d da3c c74e 00be
000001f0: c471 853e 3401 f3bd bf34 223b 2f00 9c3d
00000200: c821 f8bc 9f24 27be 38c4 acbc 39aa 573d
00000210: 0f2d a5bd 536c 2fbd a480 c5bd 3baf 783d
00000220: 64bc 41bd a09d 8bbc 175c aebd 32b3 d5bc
00000230: f98d 053e ee4c f8bd 86b6 7ebe 2143 e43e
00000240: e9c3 a7bd 19a2 6a3e 26a0 cb3d b4d7 f53c
00000250: 1120 863e bd6d 713e 5f05 883e 9efd 10be
00000260: ff32 133c 6739 ee3d 335b a03c 580d 60bc
00000270: 28fd a7bc 0b28 123d b329 083c f315 82be
00000280: 57a4 75bd b6f0 91be b057 76be 9878 863d
00000290: fb33 4c3d f683 11ba 8abb 0fbe 1e18 953d
000002a0: d54d ab3e 6568 683d 44b0 e3bc 17fe 9e3d
000002b0: d4e9 513c e740 ec3d f404 05bd c534 06bc
000002c0: 8c50 45bd 6326 eabc f12d 983d 967e 1cbe
000002d0: 481a a03d cb23 8c3c 5617 66bd f0b4 463d
000002e0: d8e6 213e a246 b8be a645 74be 03fb 0d3d
000002f0: fca9 adbc 0cb2 a5bd 37a5 6cbe 7eef 6bbe
00000300: 3740 42bc 0a6b aabd 2483 07be 4a09 a9bd
00000310: a5ee a03d be6a 31bd 0f73 90be bf00 09be
00000320: 806d 3c3d 2005 413e 6fcf 863e 5fb8 243e
00000330: cec9 e23d c76d 0a3c 96a7 7dba 6921 d43c
00000340: f55f 963e a333 823d 2204 b5bc 6a75 023e
00000350: dc8d 68bc 4579 3abd 4f00 aabd 0c1e 153d
00000360: af6f 0ebe 2c87 8abc d669 71be 7d95 3e3e
00000370: 921b 083d 7919 e83b 55ac 473a 4498 11be
00000380: b2b3 3a3e b04a 5c3e 9fa2 1a3d 939a 833c
00000390: c215 6bbe 5b37 553d 1623 a6bc eba6 08bd
000003a0: cccb b83d 3da0 c73d 14b9 2a3b 5b63 bdbd
000003b0: 38e7 253d 7a7c 7a3d 22ca 17be c79d 58bd
000003c0: b6b2 513e af56 1f3d 4a40 ecbd ebcc edbd
000003d0: 6a4a adbe 8d14 bdbe 5e71 ba3d c295 1cbe
000003e0: 5147 fe3d b2eb fa3d c787 c93d 6bc8 e53d
000003f0: 4e42 11be 3c27 103d 9976 653d 0180 cc3d
0.0556591 -0.2491654 0.16953869 -0.23782802 0.20485105 0.22940955 0.022351164 0.07078857
0.10578451 0.04189109 0.15245351 0.23203963 -0.112563044 -0.14166386 -0.011574962 0.1911014
-0.068073586 -0.0010955338 -0.14906487 0.029558664 0.050118614 -0.12877926 0.045474283 -0.08761448
0.07747049 -0.1244005 0.08831031 0.18444775 0.065746196 0.21827278 0.0008317467 -0.13222231
-0.11825883 0.10296035 0.14906168 0.048147094 0.075142846 -0.046493527 0.18228261 -0.0471636
-0.030258134 -0.009218035 0.0028677038 0.10419321 0.054869886 0.12324521 0.2671069 0.15614027
-0.077287175 -0.13045958 0.03420322 0.17664358 0.08172352 -0.12108484 0.070071794 0.0895585
0.007780342 0.05343239 0.1464353 0.0101696495 0.02953925 0.037387166 -0.1940266 -0.09283344
0.44256172 0.014333824 0.10518751 0.2105562 -0.024104748 0.055813793 0.089059085 0.17780392
-0.102191955 -0.08223826 0.008048025 0.089467555 -0.011624388 -0.071460806 -0.05280829 0.04286601
0.10457606 0.19016972 0.046499044 -0.024548313 0.05217373 0.058158208 0.14614265 0.07941033
-0.21334125 0.022543918 -0.039063666 0.11277108 0.15803461 -0.087934904 0.09708871 0.0018708314
-0.08496285 -0.012951499 0.14134951 -0.023951126 -0.21241128 -0.20031098 -0.098146774 -0.21497548
0.12666528 0.26223814 0.11961052 -0.2027626 0.07750152 0.1525977 0.24627705 0.08668465
0.00828603 -0.15865207 0.07822383 0.14066628 0.03164725 -0.075835325 0.015337111 -0.0026875366
0.081484415 -0.11828568 0.0266789 -0.12530051 0.2606336 -0.11865464 0.0024750677 0.076172225
-0.030289546 -0.16322564 -0.021089658 0.05265257 -0.08065235 -0.042827915 -0.09643677 0.060713988
-0.047298804 -0.017042935 -0.085136585 -0.026086424 0.1304244 -0.12124048 -0.24874315 0.44582465
-0.08191664 0.22913398 0.09942655 0.030010082 0.2619634 0.23577018 0.26566598 -0.14159247
0.008984326 0.116320424 0.019574737 -0.013675056 -0.020506456 0.03568272 0.008310723 -0.2540737
-0.05997118 -0.2850396 -0.24056888 0.0656597 0.04985426 -0.0005550975 -0.14036384 0.072799906
0.3345782 0.056740183 -0.027794011 0.077633075 0.012812097 0.11535817 -0.032475427 -0.008191292
-0.04817252 -0.028582757 0.07430638 -0.15282664 0.07817513 0.017106911 -0.0561746 0.0485124
0.15810716 -0.3599139 -0.23854694 0.03466321 -0.021199219 -0.080906 -0.231099 -0.23040578
-0.01185613 -0.08321197 -0.1323362 -0.08253725 0.07858018 -0.043314688 -0.28212783 -0.13379191
0.046002865 0.18849611 0.26330134 0.16085957 0.110736474 0.0084490245 -0.00096761563 0.025894837
0.29370084 0.06357505 -0.022096697 0.12740102 -0.014193978 -0.045525808 -0.0830084 0.036405608
-0.13909791 -0.016910158 -0.2357553 0.18611713 0.033229418 0.0070831147 0.0007616927 -0.14218241
0.18232611 0.21512866 0.037752744 0.016064918 -0.22957519 0.052054744 -0.020280402 -0.03336231
0.09023246 0.0974736 0.0026050257 -0.09247466 0.04050371 0.061153866 -0.14823201 -0.052884843
0.20478329 0.038901027 -0.115357 -0.116113506 -0.33845836 -0.36929742 0.09103654 -0.15291503
0.12415946 0.122519866 0.098403506 0.11219867 -0.1418545 0.035193667 0.056021307 0.09985352

rnn.weight_hh_l0 f4 [256, 64]
00000000: 5129 0c3d 8294 89bc ba94 ea3c 153c 3c3e
00000010: 20c3 8dbc 86a8 4abe ccb7 09bd 92a5 10be
00000020: d09d 1dbd 20d2 aebd 91b6 d3bd a051 17bd
00000030: e823 2e3c 6a23 f23d fbaa 3bbd fe43 0a3c
00000040: 6926 58be d2f9 433d 912c 343e 069c fabd
00000050: cc44 2bbe 8f99 33bd 11f4 a53d ee31 143c
00000060: 5c97 6a3d daac 76be 3c67 8bbc 233f a03d
00000070: 2e03 0dbe 9e9c dbbd 13d0 9ebd 316a 0abb
00000080: 7cd9 563c 8959 81bd 6f64 99bc 3d2f a93d
00000090: c5e2 123e 8b5f b239 99b7 1bbd 38e0 053e
000000a0: d41d 05be 434a c23d f342 203d 7df3 823d
000000b0: ab5e d03d a099 c4bd 46a6 2ebc 3620 d2bc
000000c0: 22b9 abbd 5b24 0c3d 6231 33bd 56f8 9fbd
000000d0: ea30 963d f56e 31bd aabe 0e3c 18f8 0dbe
000000e0: f405 493c 69b8 3d3d 2df1 80be 0580 2e3d
000000f0: b80f 953d ef26 103d 4ea0 08bd 8142 0b3e
00000100: 5085 193e b1ea 323c ad67 003d aecd f53d
00000110: 746a f13d 5092 473b 241a 56bd 0270 0fbe
00000120: 48d2 1e3c 1b63 21be f2e7 003c 3848 fb3d
00000130: fd88 dabd ad66 26be f087 113b 0a7a 3a3e
00000140: dff2 793d 5654 d23d 119c 763c 3e67 0b3e
00000150: 5913 a7bd e411 99bb 52fa bfbd 6d8e 813d
00000160: 660b febc 5619 b4bd 4486 8ebc bd0f d33d
00000170: 2382 8c3d 047a d1bd 4435 f83d 45ab 95bd
00000180: 0389 b8bc 2c20 abbd ebd2 4ebd 6d3a 1f3d
00000190: 93e6 a6ba 1490 6a3d 5f70 87bc c37f f83d
000001a0: b462 db3d 60cf b9bd fc23 b23d 57fa 503d
000001b0: a54c 863d 5c25 863d 10bc 22bd 9ffa 363c
000001c0: ba42 f13d a713 bd3c 2c78 e8bd 6277 073e
000001d0: 2046 873d 114b a63c 9c05 70be dfb6 28bd
000001e0: c32d acbc f100 633c f1ca 103d be43 983e
000001f0: bf1a 963c 7085 763d c28d 463d 9b4a f23d
00000200: 08b1 1cbc 6b39 c23d 8075 e7bc 8cf3 0d3e
00000210: 8dcf 0d3e b06d 763d 1235 843a a494 b13d
00000220: 055e 86bd ff77 adbd 51b4 f3bd 034d 873d
00000230: 13fa 42be 4561 53bc 1367 d2bd 5ce0 28bd
00000240: e63f 263e 7525 983d a0bb 9f3d 967a 503d
00000250: f42f 3b3d 9096 d0bd ed5c 0ebd acc5 5c3e
00000260: 27e1 5fbd 09d8 0fbe d63f ebbd ebf1 7b3e
00000270: bb1c f8bd d6ef 01be 987e 1a3c 66c7 893c
00000280: 9c49 773c d21a 663d 5516 4b3d 2f77 0dbe
00000290: c7c7 d0bd ca2c 7a3d 3dad 953d e643 35bd
000002a0: b4bd bc3a 5fb1 043d 1a66 ea3d 6d43 e93c
000002b0: fe1e 7abe f306 f83d f448 013e 1a04 0bbe
000002c0: cbd3 b4bd da12 01be 9257 c1ba 11df 3a3c
000002d0: dcfd dc3d 2cbd c9bd 6652 323d 5823 50be
000002e0: 0fdf 1dbc 3e0f 0f3e 9669 5f3d 9157 79bd
000002f0: c45e 713e 7aa1 2c3e 8c42 2e3e 5b08 34be
00000300: e6e3 32be a3a0 3a3d f58c 9cbd fe0b 10be
00000310: fc45 923c 85aa 09be 15d9 323e b482 d1bd
00000320: 686b df3d 590e 75bd 50d9 6dbc 0bbf 8fbb
00000330: f49a 67be bc64 6e3d 6a7c fe3d 0282 62bd
00000340: 8dfb 42bd 75da d23d d067 01be f2d9 463e
00000350: 72fc a4be a7fd 56be 23bd 5e3e 1a83 56bc
00000360: 7819 8b3a c369 3dbd 1102 8c3d 14e0 3f3e
00000370: 5362 b43d ea9e f53d 3587 eabc 793e 1cbd
00000380: a85d 0ebe a5c1 c53d 350a 69be bd8d 54be
00000390: 2773 cf3d 56c4 30be d325 8a3d 0da1 07bd
000003a0: 673a 2bbe 2905 13be 981b 29be c201 c43d
000003b0: 9674 ccbd d063 6ebe 5eb2 f13c c438 2e3d
000003c0: 2785 babd c627 a73d b214 773d 0efd a8bd
000003d0: 1672 e43d 38ac 5abe a110 a93d af02 8fbc
000003e0: 7d98 05be 74dd 143e ddce f5bd 9b31 19be
000003f0: 5816 733e 495e 6c3d 97da 8fbd 0207 08bd
0.03421909 -0.016794447 0.028635371 0.18382294 -0.017304957 -0.19790849 -0.033622548 -0.1412566
-0.03848058 -0.08536172 -0.10337556 -0.036943078 0.010628678 0.11823161 -0.045817357 0.008439062
-0.21108402 0.04784567 0.17595126 -0.1223679 -0.16725463 -0.043847617 0.081031926 0.009045107
0.057273254 -0.24089375 -0.017017 0.078245424 -0.13770744 -0.10723232 -0.07754531 -0.0021120424
0.013113376 -0.063159056 -0.018724648 0.08260963 0.14344318 0.0003402199 -0.03801689 0.13073814
-0.1299966 0.094868205 0.039126348 0.06394098 0.101743065 -0.09599614 -0.01065976 -0.025650125
-0.08384921 0.03421436 -0.043748267 -0.07811038 0.07333548 -0.043318707 0.00871245 -0.13864172
0.012269486 0.046318445 -0.25184003 0.042602558 0.07278389 0.03519338 -0.033356003 0.13599588
0.14992261 0.010920213 0.031348873 0.12002121 0.117878824 0.00304522 -0.052271023 -0.14007571
0.00969369 -0.15760462 0.0078678 0.12269634 -0.1067066 -0.16250105 0.002220627 0.18210617
0.061022636 0.10269992 0.015051858 0.13613603 -0.08157987 -0.004671322 -0.09373917 0.06325994
-0.031011295 -0.08793895 -0.017398007 0.10305736 0.06860759 -0.10228351 0.121195346 -0.07308058
-0.02252627 -0.08355746 -0.050494116 0.03887408 -0.0012733511 0.05726631 -0.016533075 0.121337436
0.107121855 -0.09072757 0.0869827 0.051019993 0.065575875 0.065500945 -0.03973013 0.011168151
0.11780305 0.02308066 -0.11351046 0.13229135 0.06605172 0.020299466 -0.2343964 -0.041190024
-0.021017915 0.013855205 0.03534979 0.29739183 0.0183233 0.06018585 0.048475035 0.11830636
-0.009563692 0.09483608 -0.02825427 0.13862437 0.13848706 0.0601632 0.0010086617 0.08670929
-0.065609016 -0.08470153 -0.11899627 0.06606486 -0.19040708 -0.012901609 -0.10273566 -0.04122959
0.16235313 0.07429019 0.077994585 0.050898157 0.04570003 -0.101849675 -0.03475659 0.21559781
-0.05465808 -0.14047255 -0.11486785 0.24604003 -0.12114855 -0.12689146 0.009429596 0.016818713
0.015093233 0.05617792 0.049581844 -0.13814996 -0.101943545 0.06107787 0.07308433 -0.044254206
0.0014399798 0.032395717 0.114452556 0.028474534 -0.24425885 0.121107005 0.12625486 -0.13575783
-0.08829459 -0.12604848 -0.001475083 0.011405722 0.10790607 -0.09850535 0.043535613 -0.20325983
-0.009635701 0.13970658 0.054544054 -0.060874525 0.23571306 0.16858473 0.17017573 -0.17581312
-0.17469749 0.04556335 -0.07644073 -0.14067075 0.017855637 -0.13443954 0.17465623 -0.10230008
0.10909158 -0.059828136 -0.014517143 -0.004386788 -0.22617704 0.058201537 0.12426074 -0.055299766
-0.04760318 0.102955736 -0.12637258 0.19419077 -0.3222385 -0.20995198 0.21751837 -0.0130927805
0.0010612449 -0.04624344 0.06836332 0.18737823 0.08807816 0.11993201 -0.028628925 -0.038145516
-0.13902915 0.096560754 -0.227578 -0.20757194 0.101293854 -0.17262396 0.06745496 -0.033112574
-0.16721497 -0.14357437 -0.16514432 0.09570648 -0.099831745 -0.23280263 0.029503997 0.042534605
-0.09107428 0.08161883 0.06032247 -0.08251391 0.11154573 -0.21354759 0.08255125 -0.017457334
-0.13046451 0.14537603 -0.12002347 -0.14960329 0.23738992 0.057707105 -0.070241146 -0.03320981

rnn.bias_ih_l0 f4 [256]
00000000: 1288 343d be48 e2bd 8960 3bbd 1ec5 a03d
00000010: cf82 0e3e 7b4b de3c 6fce dfbd b09c 01bd
00000020: a9fc 0ebe 6102 6e3c 1fa9 353d f9b4 47bd
00000030: b0cc 513d 6d49 e1bd f522 a73b 17c4 39bd
00000040: 60e7 4b3d 9845 fabd b37c 57bd 9815 943c
00000050: 4f5e d0bc 8d13 843d 2906 863d a5b8 a03d
00000060: bfac b3bd ace2 7c3d 83f0 5e3e ed63 8bbd
00000070: e248 13bd 60c5 0f3d 8737 90bc eb9d 95bd
00000080: 83fd 153c dae0 94bd b565 cb3d ba0b 753d
00000090: 1ee2 aebd 4f0d 31bd 1610 ac3d 7105 4a3e
000000a0: 2e27 8d3d c1c7 b93d 9805 88bd 3884 233d
000000b0: 6d18 e9bd a672 43bd 6a3b b6bd cd79 113e
000000c0: 7173 1a3d ea30 b23d 7d30 be3d 22f6 61bd
000000d0: 4ec7 4abe 1b87 04be 1420 713c 1f94 b73d
000000e0: 3884 9cbd dbfc 60bd cf01 833e 92d2 0ebd
000000f0: 8384 56bc e64d 53bd 3de7 15bc d90f a6bd
00000100: 0ae8 60bd 4dba a8bd 8585 e33d b04c 253e
00000110: 3e30 a73d 4a16 d13c 28d1 35bc 2198 d7bc
00000120: 945d 19bd e41e af3d 8801 a93d 101d 2e3d
00000130: 6f56 ea3d d303 553d ffe4 993c 5e47 26be
00000140: c8cf ce3c 7ba3 30bd 56ed 08bd bf29 70bd
00000150: e4c0 cfbd ee22 42bd ce7c 4d3d faff 643d
00000160: 5a37 1abd 02b1 7a3b 4848 cfbd 229e 44bd
00000170: e6d3 11bd 9a64 193d 1122 41bd ebfc cebd
00000180: 460d e53d b3e0 1d3d 0b71 a5bb d455 f0bd
00000190: f45e 79bd caf6 bdbd 2ecf c3bc 85bf 14be
000001a0: 32bf be3d 561f 9bbd ea80 20bd a888 883d
000001b0: 122a 1bbe ba22 7cbc 7682 163d 2bda e1bd
000001c0: 3350 e2bc 0774 073d 8b6e d83d 897c 22bc
000001d0: b4f8 ba3d 9581 853d 052f 603d 9b12 61bc
000001e0: bb24 4b3d 04a8 cb3d cb0a a9bd 83e1 d0bb
000001f0: 8c10 243e 9c4a 9ebd 4740 9fbc fd2c a8bd
00000200: 6d4a 4d3d 9ccc 9d3d e40e 6bbd 84be 8dbd
00000210: e920 e53d da07 be3d 7cbc 413d c0a5 6c3c
00000220: cc36 01be 6003 5b3d 90fb e53b 06b6 333d
00000230: 785b 493d e029 b8bd aeba a23d bddf 1bbb
00000240: 8d08 cc3c fc6f 603d 5375 6a3d 0dcf 9d3d
00000250: ddfd 5ebd 355c 873d 54ac c33d 7e03 09be
00000260: 153d ecbd 0eb0 01bc 0f9d 473c 9ad0 de3b
00000270: d651 fa3b 413a ae3d 4e9e 23bd f5ab 303d
00000280: 47b3 b73c 4f76 f2bd c154 53bd 8a69 c6bd
00000290: 75c5 193d ff69 943c a7cf 3c3d 5633 a03d
000002a0: 8bb6 7b3d 3da9 81bd 4935 99bc 9d50 e03b
000002b0: 0a2d d2bc 2094 fcbd ee25 593b 8dce eb3d
000002c0: c88b 7abd d5e9 af3d b0ba 1ebc 23c2 b4bd
000002d0: bea3 03be d9a4 e63c 4576 90bd a1b0 66bd
000002e0: 9340 9ebc 1517 82bd 65b0 ffbc 25c7 8e3d
000002f0: 1131 44bc 2757 11bd 3137 62bd 98e7 873d
00000300: 3916 573d 45e2 c73d e089 1bbb e559 023e
00000310: 9570 1abd 33d0 6fbd 8676 8f3d 8ba8 1a3e
00000320: 2dfc 9a3d 536d 103e 9d0b 633d c898 1cbd
00000330: 54bf dfbc c29a c53c 1ce3 653c 8722 b93d
00000340: a89f e53d ec63 95bd 88e9 a63d 7dc3 86bd
00000350: f1c5 e43d f531 823d 28aa 393d 3e4a 983d
00000360: 5bc1 f7bd ac72 cb3d 6d43 4a3e 7a60 ac3b
00000370: 7fca c73d d0b2 55bd 8683 d03d 7e56 04bd
00000380: 22dc 99bd eb4c dc3c 126c 9fbd da32 75bd
00000390: 2f59 763d 989c 1c3c ed14 45bd feec 693e
000003a0: 4ac0 d63c 2cc6 163e 5018 f23d 370c 02be
000003b0: da76 8f3d a26a 623d c179 90bd a589 e83d
000003c0: fec1 6c3d a810 103e cce7 b53d b454 f23d
000003d0: 5050 843c 607d d53d 205d 07bd 706c 053e
000003e0: 6fd9 24bd b796 24bd 3cf0 063d 4f30 aabd
000003f0: 1c07 14bd 70c0 f03c 8898 f83d 6d93 15be
0.04407508 -0.11049031 -0.04574636 0.07850097 0.13917087 0.027135601 -0.10928046 -0.03164357
-0.1396357 0.014526934 0.04435074 -0.048756573 0.051220596 -0.11000333 0.0051006027 -0.04535302
0.049781203 -0.12220305 -0.052609157 0.018076703 -0.025435595 0.064490415 0.06544144 0.07847718
-0.08773183 0.06173961 0.21771435 -0.06806169 -0.03595818 0.03510034 -0.017604603 -0.07305511
0.00915468 -0.072694495 0.099315085 0.059825636 -0.08539222 -0.043225583 0.08401506 0.19728638
0.068922386 0.09071303 -0.06641692 0.039921016 -0.11381612 -0.04771676 -0.08898051 0.1420662
0.03770775 0.08700736 0.09286592 -0.05516637 -0.19802591 -0.12942164 0.014717121 0.08963799
-0.07642406 -0.05492864 0.25587317 -0.034868784 -0.013093117 -0.05158796 -0.00914937 -0.081084915
-0.05490879 -0.08238659 0.11109451 0.16142535 0.08163498 0.025523324 -0.01109723 -0.026317658
-0.03744276 0.08550814 0.08252245 0.042508185 0.11442267 0.0520056 0.018785952 -0.16238162
0.025245562 -0.043124657 -0.033429466 -0.058633562 -0.10144213 -0.047396593 0.05016785 0.05590818
-0.037650444 0.0038252478 -0.101212084 -0.04800237 -0.035602473 0.037449457 -0.04715163 -0.10106834
0.11184172 0.038544368 -0.005048876 -0.117351204 -0.06088157 -0.09275587 -0.023902502 -0.14526184
0.09313811 -0.07574336 -0.039185442 0.0666669 -0.15152767 -0.015389139 0.03674551 -0.1102794
-0.027626133 0.033069637 0.105679594 -0.009917387 0.091294676 0.065188564 0.05473234 -0.013737346
0.049595576 0.09944156 -0.08254012 -0.0063745393 0.16021937 -0.07729074 -0.01943983 -0.08211706
0.050119806 0.07705042 -0.057387248 -0.069211036 0.11187918 0.09278841 0.047298893 0.014443815
-0.1261856 0.053470016 0.007018514 0.043874763 0.049159497 -0.08992362 0.079457626 -0.0023784481
0.024906421 0.054794297 0.057240795 0.077055074 -0.05444132 0.06609384 0.09554353 -0.13380238
-0.11535088 -0.00791551 0.012183442 0.0067997696 0.00763915 0.08507205 -0.039945893 0.04313274
0.022424353 -0.11838972 -0.0515945 -0.09688099 0.037541825 0.01811695 0.04609647 0.078222916
0.061453383 -0.06331108 -0.018702166 0.0068455474 -0.025656242 -0.1233294 0.003313418 0.11514006
-0.061168462 0.08589522 -0.009688064 -0.08826091 -0.12855431 0.028154777 -0.07053808 -0.05632079
-0.0193179 -0.06352059 -0.031212041 0.069715776 -0.011974589 -0.035483506 -0.055228416 0.0663597
0.052511428 0.09759954 -0.0023733303 0.12729605 -0.037705023 -0.058548164 0.070050284 0.15103357
0.0756763 0.14104204 0.055430997 -0.03823164 -0.027312912 0.024121646 0.014031198 0.09039789
0.11212093 -0.07294449 0.08150011 -0.06580255 0.11170567 0.06357185 0.04532829 0.074360356
-0.120974265 0.09933981 0.19752283 0.0052605243 0.0975542 -0.052172482 0.10181336 -0.032309048
-0.0751269 0.026892146 -0.07784285 -0.05986295 0.060143646 0.009558819 -0.04811566 0.22844312
0.026214737 0.14724034 0.118210435 -0.12699972 0.07005091 0.055277474 -0.07054473 0.113543786
0.057802193 0.14068854 0.08882102 0.11832562 0.016151577 0.10424304 -0.033047795 0.13029647
-0.040246423 -0.040182795 0.03294395 -0.083099954 -0.036139593 0.029388636 0.12138468 -0.1460702

rnn.bias_hh_l0 f4 [256]
00000000: a24f 03bd 8ebf 613b 29a3 72bc 9be0 893c
00000010: 9d59 ba3d 1d77 b1bd c54b 903c 9de1 cbbc
00000020: 5b9d 973c afc0 053e ebd2 3cbd eefe 723d
00000030: ee39 2ebd 7b19 a63c e39b 3bbc 7d15 b7bc
00000040: 67f3 723d 839c 4a3c 4cfb 243e 2784 e33d
00000050: 8698 2d3e 3491 e03c 41a7 b33d dbc4 d73d
00000060: 9f7a ecbd ac7f a83d 015d b13a 952a 453c
00000070: 990f 8bbd 9c9c 30bd e496 923d 733b b43d
00000080: c276 f5bd 592a 943c 70da c4bc 8b70 1f3e
00000090: 61a8 0bbc 6b21 1fbd c63e ad3d ef2d 033e
000000a0: 0050 963d 52f4 393d ad44 2fbd c4fa 6d3d
000000b0: 7fcc aa3d 00b1 903d 8f4c fabd d3bc 83bd
000000c0: e34f c2bd 0e42 8bbd 0b5d 853d bd30 f23d
000000d0: 2be5 3c3d 145c 363d ce86 1f3d 8b7b f23d
000000e0: 8441 3bbd d139 f5bd 1e12 703e a446 51be
000000f0: 9bb3 c1bc 61d3 af3c 2a42 5b3d 74f4 aebd
00000100: bbed 41bc 83d0 d23c 4628 afba 5eee 7fbd
00000110: acc9 a8bd c957 4a3e de5d 5c3d 8950 69bd
00000120: 8800 5d3d 3282 913d 6201 403e f65c 27bd
00000130: aba8 233e e8ae d03d f193 94bd b506 7b3d
00000140: 56bf a5bd 19b7 243e 3f51 dc3d 9c62 883d
00000150: 0afc 9fbd 98a6 d5bd a7fd 9f3d f7d7 84bd
00000160: 5cd7 07be b9d7 47bd b6b1 333d e085 213e
00000170: b064 333e a71b 85bd 3203 c738 7127 a33d
00000180: ba26 983d ee3e 133e 7c50 183d c928 da3b
00000190: 0b18 3cbd 9a39 96bd 5fa1 a53d ba42 babd
000001a0: 6efe 85bd 2ee4 f7bc 5568 183e f878 063e
000001b0: 3768 07be 8dbc 84bd be12 babc 5d60 6cbd
000001c0: 2337 2fbd 3744 e83d 8e44 2a3e d328 a6bd
000001d0: 93f3 4bbc cb70 163d 9220 b83d 27e7 bfbc
000001e0: 7cb1 ebbd 3889 b23d e7e3 ccbd 2bbe bcbd
000001f0: a64a 2f3e 7645 c8bd 4489 c53d d933 b6bd
00000200: bf83 13bc 9401 07bd f6c6 84bd b435 df3c
00000210: 8063 5e3d 2357 12bd ad5b 89bb 2897 41bd
00000220: aab5 9c3d c1e2 f8bd 622f 00bd 08ad 7ebb
00000230: 8687 a7bd db5d f6bd ccea adbd edbb 93b9
00000240: 442c dbbd d49e c53b 0604 e33d 40a9 85bd
00000250: 5f0d 8ebd 9e32 a1bc b29c 803d 2fbd 633d
00000260: 318c a7bd 7c59 073c 053e 053d 1229 d2bc
00000270: d6d0 d83c 4c14 ce3c 39e0 07bc 705d a2bd
00000280: 68a1 ba3d 8d3a f9bd 550b 223e e010 a93d
00000290: 051a 9c3d fbc7 873d 5b54 bc3d f83a 80bd
000002a0: 0d57 a63d 3abc 5abd 11a5 8abc 9129 9a3d
000002b0: ffec 8b3d 8e20 243d 6d28 d9bd 29ae 17bd
000002c0: a798 a4bd bb18 e93c 3265 2f3c fb92 05bd
000002d0: 087a 5a3d 695b ba3d 19b5 a53d fd9c 793c
000002e0: 2428 143e 7de8 ce3d 0b2b 67bd 9339 fc3a
000002f0: b83b 2c3e efce 73bb e8d5 d8bb bf1e abbd
00000300: 515f cb3d bbb2 ba3d ff70 07bd 01e7 a5bc
00000310: f797 643d cd22 793d 1c52 c53d 0a72 bf3d
00000320: 93c5 a0bd fc52 f2bc 9f68 023e f0b6 c93b
00000330: 7cfc ca3d 5232 fabc d1e3 a33b dd7a 96bd
00000340: b5ae f33b a47e ab3b d8fe 74bd aeef c03d
00000350: 8318 3b3e d139 f93d b419 62bd d789 65bd
00000360: b026 7bbd 823f eabc a1cc f83d a533 b4bc
00000370: 8ffb d33d 9b0b c13c d9e8 e73c 729a a7bd
00000380: 7a30 7abd 81f1 c33c 7e08 7e3d 2607 ea3d
00000390: 50d0 7fbd 8c16 ba3c 809b e4bd fc47 4c3e
000003a0: cffa 6dbd ddef 2e3e 5e6b b5bd c77a ef3c
000003b0: 9644 e9bc 3cd8 0a3e 1311 1abd af22 c0bd
000003c0: a17b aa3d 82cc dc3d b561 06be 806d 85bb
000003d0: 4dfb 1fbd db31 133d 2188 693c b458 183e
000003e0: 2f68 653d f544 82bd a5cc 413e 9620 27bb
000003f0: c184 a8bd 75c0 453d 5fd5 f93d 706d 2fbd
-0.032058366 0.003444645 -0.014809408 0.016830733 0.090991236 -0.08665297 0.017614255 -0.024887854
0.01850765 0.13061784 -0.046099585 0.05932515 -0.042535715 0.020275822 -0.0114507405 -0.022349114
0.059314158 0.012366417 0.16111487 0.111091904 0.16952714 0.027412988 0.087721355 0.10535594
-0.115468256 0.082274765 0.0013531746 0.012034078 -0.067900844 -0.043118104 0.07157686 0.088004015
-0.11985542 0.0180866 -0.02402994 0.15570275 -0.008524031 -0.03885023 0.08459239 0.12810491
0.073394775 0.045399018 -0.042790104 0.058100477 0.08339786 0.0706501 -0.12221634 -0.064325
-0.094878934 -0.06799708 0.06511887 0.11825702 0.04611699 0.044521406 0.03894692 0.1183997
-0.045716777 -0.11973918 0.23444411 -0.20437104 -0.023645213 0.021463098 0.053529896 -0.085427195
-0.0118364645 0.025734192 -0.0013363443 -0.062483184 -0.08241591 0.1976005 0.053800456 -0.05696157
0.053955585 0.07104911 0.18750528 -0.04086014 0.1598231 0.10189611 -0.0725478 0.061285693
-0.08093135 0.16085471 0.10757684 0.06659433 -0.078117445 -0.10432166 0.07812052 -0.064865045
-0.13265747 -0.048789714 0.04387065 0.15773726 0.17518878 -0.06499415 9.4896546e-05 0.07966507
0.074292615 0.14379475 0.03718613 0.006657694 -0.045921367 -0.073352054 0.0808742 -0.09094758
-0.06542669 -0.030260172 0.1488355 0.13132083 -0.13223349 -0.06481276 -0.022714015 -0.057709087
-0.04277719 0.11341136 0.16627714 -0.08113255 -0.012448209 0.03672866 0.08990587 -0.023425652
-0.11508462 0.08717579 -0.100044064 -0.09215959 0.1711832 -0.097788736 0.09645322 -0.08896608
-0.009003579 -0.03296049 -0.06483261 0.027247287 0.05429411 -0.03572763 -0.004191837 -0.047263294
0.07651837 -0.12152625 -0.031295188 -0.003886046 -0.08180146 -0.1202962 -0.084920496 -0.0002817804
-0.107018024 0.0060308967 0.11084752 -0.065264225 -0.06936144 -0.019677456 0.06279887 0.05560034
-0.08181036 0.008261081 0.03252985 -0.02565435 0.026466768 0.025156163 -0.008293205 -0.07927978
0.09112817 -0.12169371 0.15824635 0.08255172 0.0762215 0.0662994 0.09195777 -0.062612474
0.08122072 -0.053402163 -0.016924413 0.075274594 0.06832313 0.04007011 -0.10603414 -0.037031326
-0.080369286 0.028454175 0.010705279 -0.032610875 0.053339034 0.09099466 0.08091182 0.015235183
0.14468437 0.10102937 -0.056437533 0.0019243233 0.16819656 -0.00372022 -0.0066172965 -0.08355474
0.099302895 0.091161214 -0.033066746 -0.020251753 0.055808987 0.060824204 0.09634802 0.09347923
-0.07850184 -0.029580586 0.12735222 0.006155841 0.09911439 -0.030541573 0.005001523 -0.07347653
0.007436598 0.0052336026 -0.05981335 0.09420715 0.18271069 0.12169231 -0.055200294 -0.056039657
-0.061316192 -0.028594736 0.12148405 -0.021997282 0.10350715 0.023565104 0.028309273 -0.08183755
-0.061081387 0.023918869 0.062019818 0.11427145 -0.06245452 0.02271583 -0.11162472 0.19949335
-0.058100518 0.17083688 -0.08858369 0.02923335 -0.028475087 0.1355905 -0.03761394 -0.09381615
0.083243616 0.10781194 -0.1312321 -0.0040718913 -0.03905802 0.035936218 0.014253647 0.14877588
0.05600756 -0.06360809 0.18925722 -0.00255016 -0.08228446 0.048279244 0.121989004 -0.042828977

rnn.weight_ih_l1 f4 [256, 64]
00000000: 9dd3 edbd bcfe 043d 11c0 833d 8963 84bc
00000010: 378e c6bd db20 26be b922 64bd 4a8c 183c
00000020: 63c5 afbc 0117 e23d 09d1 37bd 0621 083d
00000030: 45d0 9a3d b297 513d 2845 acbd 1f7e 383e
00000040: 9491 d43c 737f 723c 2525 ddbc b4a3 253d
00000050: eac8 03be 3100 853d 0ba1 d5bd 58d3 c43d
00000060: 243d f2bc c1c2 063e bf26 373e 99a6 483d
00000070: 4223 ef3d 3440 7d3d 0e65 7cbd 7e33 af3b
00000080: c674 e13d 3f29 dcbd b7ca 6dbd 8d13 cbbd
00000090: d022 a6bd f278 3ebc 76be e33c 2405 3c3d
000000a0: fcf4 3e3d a916 37be d35e 9cbd ce8f 073e
000000b0: 73c8 963d 7dff a03c 15da c93c 975e b8bd
000000c0: 6620 dd3d f4ff c43d c7e5 703d 544a d1bb
000000d0: b7cb 57bd 2d50 5b3d 9b5b 743d 4b32 033e
000000e0: eb9e b7bd a842 f03d f6db fabc a600 373d
000000f0: 7f64 05be f09c 8ebb 338f 19bc 4e1c e03d
00000100: ccc5 d53d 204b 96bc 9a13 97bd 30a0 4fbd
00000110: bafb 33bd 193e d03d c5cb a93d 04e8 11be
00000120: 3201 16bc f1e8 a6bc 2226 f5bd da2c 34bd
00000130: 57db 233e db96 123e a753 cf3d e96e 093e
00000140: dbcf 063d fae2 633d c999 c3bc 74e6 863d
00000150: 38cc 243d ded7 453d 72f1 cfbd 08c8 83bd
00000160: 7274 a7bd b752 c23b d478 933d 930e 433d
00000170: be6d 003e badd cc3d a729 b13c 12ff d73c
00000180: f499 c2bd f685 4e3d fae3 d53d 65ca ecbd
00000190: f782 7c3d ecea 5ebd 5167 30bd a60a aa3d
000001a0: 8879 96bc ec9e b4bd bb79 18be 1a04 f3bc
000001b0: 47f1 b2bd 6706 183d 5c06 0bbc c3f9 64bd
000001c0: 3860 093e 4df1 8e3c 5fb0 ac3d e901 b53a
000001d0: e311 a5bd d815 333d 099e 5dbd 519f f83d
000001e0: 11be 993d eeb6 bd3d 7305 96bd 8b83 c73d
000001f0: b918 59be 5b78 b3bd 5885 bd3d 6bd1 eb3c
00000200: 38a7 c6bd 1061 e1bd cd54 bcbd 5344 40bc
00000210: 7421 c83d 21f0 05be c51c 09bd 5fd5 e1bd
00000220: 9508 3cbc 2964 ba3d b445 9c3d fc00 ccba
00000230: 6070 033d 94c2 163c 87c0 9d3b 6022 883d
00000240: 0cd5 d9bd 9165 e73d fcaa b03c 1f2d 533b
00000250: b911 07be 6a0c fe3c b81d 6e3c e60a b0bd
00000260: a99d e83c dc49 003d ac13 febc b1d6 fcbc
00000270: bb2f 75bd 7b4a e03d 83ea c5bd c5c0 82bc
00000280: b38c 1bbd 5636 003e 3e78 353d 4875 83bd
00000290: 1315 e4ba 9f2e 24bd 54d8 7dbd 914f 95bd
000002a0: d375 293d d33a 41bd ec12 f7bd e4b3 df3d
000002b0: 3757 dd3d d7d8 03be ed91 1fbe e232 8b3d
000002c0: 0875 603d d542 ff3d dac3 6dbd dcf7 0bbd
000002d0: 0254 ab3d 42f1 8fbd da99 923d 38e0 ec3c
000002e0: 1d32 8d3d e867 803d 5df1 cabd 61d7 2ebb
000002f0: 1d51 973b 3d78 0ebb 0408 203d edcd 39bd
00000300: 8700 64be dedc d9bd c588 2e3e 7569 6dbb
00000310: bf0a aebc e519 3b3d a557 113e eaef 93bd
00000320: 74d2 3abd a449 dbbc 5056 0bbd bcdc bfbd
00000330: b0a7 0a3e a093 dfbc f0dc 4c3d 9b17 983d
00000340: 32e9 bf3d ebcb f13d 665d 0c3e a058 6abc
00000350: 94b8 003e 0dee f2bd 8fde ac3d afe4 653e
00000360: 2798 1c3e 2b3c db3d 9bdb 573d 307b 42bd
00000370: fe23 ca3d d7d2 c03d 60c7 83bd d20b 103c
00000380: 6ee7 003d 68f8 6abd de3b 223c 06a8 45be
00000390: 2dea 3bbe f83f 6abd ee87 acbd 6c34 443d
000003a0: 09eb ccbd e368 1ebd 2bc8 cc3b 1320 a1bd
000003b0: db0a 10bd 7f64 953d c91d 243e 01f6 36bb
000003c0: d37b 2f3d ab49 f13d ad66 6b3d 109a e53d
000003d0: 450b 2fbd 72a4 f6bd 20dc 203e 4831 1c3d
000003e0: f9a9 76be d597 2b3e ba24 d53d aa19 37be
000003f0: 662a 1ebd 5fa0 1ebe 1205 51bd 1e5c 16bd
-0.11612628 0.032469496 0.06433118 -0.016160743 -0.09695094 -0.16223471 -0.055697177 0.009310791
-0.021456426 0.11039544 -0.044877086 0.03323462 0.075592555 0.05117006 -0.08411628 0.18016861
0.025948323 0.014800894 -0.026995251 0.040439323 -0.12869611 0.06494177 -0.10431107 0.09610623
-0.02957017 0.1316023 0.17885874 0.048987005 0.11676647 0.061828807 -0.06161981 0.0053467145
0.11008601 -0.107500546 -0.058054652 -0.099158384 -0.08112109 -0.011625515 0.02780078 0.04590334
0.046620354 -0.17879738 -0.07635274 0.13238451 0.073624514 0.019653076 0.024640122 -0.090024166
0.10797195 0.09619132 0.058812883 -0.0063870344 -0.052684512 0.05354326 0.059657674 0.12812154
-0.08965858 0.11731464 -0.030622464 0.044678353 -0.13026617 -0.0043522045 -0.00937252 0.10942899
0.104381174 -0.01834637 -0.073767856 -0.050689876 -0.043941237 0.10168094 0.08290819 -0.14248663
-0.009155558 -0.020374747 -0.11970164 -0.043988086 0.1600164 0.1431536 0.10123377 0.13421215
0.03291307 0.055636384 -0.023877041 0.06586924 0.04023382 0.04830157 -0.10153474 -0.06434637
-0.08176507 0.0059302705 0.072007805 0.04762132 0.12541863 0.100032285 0.021626307 0.026366744
-0.095020205 0.050420724 0.10443874 -0.11562041 0.061648335 -0.054423258 -0.04306728 0.08302812
-0.018368497 -0.088193744 -0.14890186 -0.029665042 -0.08737426 0.03711548 -0.008485403 -0.055902254
0.13415611 0.017449046 0.084320776 0.0013809773 -0.08060052 0.043722004 -0.054105792 0.12139762
0.075069554 0.09263407 -0.07325258 0.09741887 -0.21200837 -0.0876319 0.09253949 0.028786382
-0.09699863 -0.11004841 -0.09195862 -0.01173504 0.09772006 -0.13079883 -0.033474702 -0.110270254
-0.0114766555 0.09101135 0.07630482 -0.0015564258 0.03208959 0.0092016645 0.004814211 0.066471815
-0.106363386 0.11298669 0.021565907 0.003222294 -0.13190354 0.031011779 0.014533453 -0.08595829
0.02839549 0.031320438 -0.03101524 -0.030864092 -0.059859972 0.10951706 -0.0966387 -0.01596106
-0.037975978 0.12520728 0.044304125 -0.06418854 -0.00174013 -0.040083524 -0.061973885 -0.07290567
0.04137213 -0.04717524 -0.12064156 0.10922983 0.108076505 -0.12875687 -0.1558301 0.067968145
0.05479911 0.12463919 -0.058048107 -0.034171924 0.083656326 -0.07028438 0.07158251 0.02891551
0.06894324 0.062698185 -0.09909318 -0.0026678669 0.0046178238 -0.0021739148 0.039070144 -0.0453624
-0.22265826 -0.1063783 0.17044361 -0.0036226187 -0.021245359 0.04567899 0.1419359 -0.07223494
-0.04561086 -0.026768513 -0.03401786 -0.093682736 0.1354053 -0.027292073 0.05001539 0.074263774
0.0937065 0.118064724 0.13707504 -0.014303356 0.12570411 -0.11861811 0.08440887 0.22450517
0.15292417 0.107048355 0.052699666 -0.047480762 0.09870146 0.094152145 -0.06434512 0.008791881
0.03147071 -0.057365805 0.009901969 -0.19302377 -0.1835105 -0.05718991 -0.08424364 0.047901556
-0.10005767 -0.038674247 0.006249448 -0.07867446 -0.035166603 0.07294559 0.16026987 -0.0027917626
0.042842697 0.11781629 0.057470966 0.11211026 -0.042735357 -0.12043084 0.15708971 0.038132936
-0.24088277 0.16757138 0.10407396 -0.17880884 -0.038614653 -0.15490864 -0.051030226 -0.036708944

rnn.weight_hh_l1 f4 [256, 64]
00000000: dba1 4d3d bfdc 7d3b 8eba d0bc f2bc a4bd
00000010: 77a6 b6bc 4e43 34bd 544c 933d 5831 babc
00000020: 9ca8 62bd 0eb9 45bd b3d6 ebbd 62f0 0dbc
00000030: 460d 873d 9cbd 2b3d 490d e0bd ede0 58bb
00000040: 3283 fd3d bcc0 2a3d 1190 603e 8ccc 973d
00000050: fc07 47bd cbf8 00be 1d40 9c3d 3601 2bbe
00000060: fc9c 843d b091 353d b5ab c439 a64f 673d
00000070: 647b d73c a5a4 033c 73e2 1e3d 38c7 b0bd
00000080: 14df c13c 7213 0d3e 945e 8fbd 6c65 2f3e
00000090: 5641 c73b 63a0 d63d 61c1 033e db7e a2bd
000000a0: 8b74 d83d 9e4d a63c 20ac b53d 0127 a2bd
000000b0: 9de7 d63c 2286 acbd b61d 06be 3f6b eebd
000000c0: e4d9 3e3d 2fb1 4ebd f53a 82bd d6ac 02be
000000d0: bf52 853e 1ee3 73bc c964 db3a 119c 7f3d
000000e0: 845d 1ebd 7414 9abd 6da6 773d 6439 963d
000000f0: 8ce9 f03d f6a2 d73c d248 063c 6feb d03d
00000100: 5127 ecbc f7b7 8c3d 2ba8 893d ca8e dcbd
00000110: 4cb8 9fbd f53a d4bd a0cc f1bc 89f3 2c3c
00000120: e0a4 d2bd 13e9 d1bc 151d b7bd e895 c33d
00000130: c49a 42bc 7373 3f3e fe2a 84bd 4049 1b3e
00000140: a917 4fbb f1ef 023b 0db0 9f3d e8ee 913d
00000150: 2ab3 153e 03d0 d53d 99a4 fb3d 2377 eb3c
00000160: 0280 aebc 307e a43c 7a44 89bd 2b6d eebd
00000170: 403c fdbd c76d fcbd 3889 32bd 19cd 223d
00000180: e2d2 09be 6256 5ebc d990 8abd 4af6 913d
00000190: bee4 a7bd bf8c 683c 39ca f53a 17a3 033e
000001a0: c47e 8e3d cbfb 67bc fef6 c13d 94be 8e3c
000001b0: c7a6 993d 3df8 a93d 67ab c43d 9000 c13c
000001c0: 13d2 16bd c5bf 12bd 91d0 b0bd 829b 4ebc
000001d0: 6d2d 733e 9980 00be fb4d 01bc ae31 363c
000001e0: 19e1 253e 25bf c23d a089 8dbd e691 e7bd
000001f0: fdb6 19bd 92a0 a5bc 103a 123d 58e0 4abd
00000200: 13f1 24bd 97d7 adbd 661c 65bd a47f 86bd
00000210: df53 17bd bc99 2b3d e9b0 5c3d 3c57 29bd
00000220: 69ef f33d d626 c93b a6a4 923d ee60 8e3d
00000230: c09b 4a3d ac16 333d 0cbd af3d 5a2e 593c
00000240: 9bdc eabb 6ac0 29bc 6283 ebbd ed5c 663d
00000250: 9b5e d8bd 662f 08be d137 a1bd fbee 1c3b
00000260: 7220 cdbd f802 2d3d 660a 9abc 7029 833d
00000270: e788 b63d 1e4b f13d add1 04bd eac7 c9bd
00000280: 79ae e4bd 27c7 223e 7a2a e93d eb48 0f3b
00000290: f7c4 21bd 765c bb3c 5b79 9cbd 3627 81bd
000002a0: c020 073e 86dc 06be fbb9 ea3c 2886 5fbd
000002b0: 253e 5f3d 53ab d43d 9eb0 e6bd 62f3 ebbd
000002c0: 5ca6 fc3d 5a0c 883d 7cc9 2dbd c1cf c8bd
000002d0: 169e 573d 1f71 3ebd d7b9 8a3d d9ef c3bd
000002e0: 6176 7b3d 41a6 e13d 78e8 883d ad0f c9bd
000002f0: b1bd a1bd 1ca8 73bb 213b 83bd bb1a 4bbd
00000300: 31b5 843d c71d ccbd f0c4 ce3d fa0a c43d
00000310: 903a cc39 df46 a7bd b513 94bd 2911 37be
00000320: 4ece 343b 7e72 283d 572e a7bd a2da fbbc
00000330: e95b 7abd ef41 08be 3c70 f03d be47 7a3d
00000340: ea1a 963d 92ec 073c 692c febc cbf2 fcbc
00000350: 9878 5cb9 cf6f bb3d f773 8abd 1e70 10bd
00000360: fb4d 9abd 7173 6ebc 9d25 ecbc 61c8 e73c
00000370: 19af 693d 9d3a 163e 8b5c 4dbd f616 48bd
00000380: 2c92 00bd 9144 6fbb e9da 463d 64ab 14be
00000390: 8166 5bbd c60e d83d 746a 1a3c 453d 5dbd
000003a0: db7d 283e d0cf 68bd 8d9c 60bd 62a4 443b
000003b0: 20c0 e2bc b0f2 b4bc 1548 673d 8085 343c
000003c0: 544a d4bc 7d0b a4bd 50c8 dcbd aa79 8a3d
000003d0: 3ee1 c5bd ee46 c0bd e538 903d 0038 a3bc
000003e0: 7106 173e 38b0 7f3c 281e a13c 1c8b bf3d
000003f0: 06fd 96bc 3b48 b6bd 13e8 0c3e fd70 bb3d
0.050203186 0.0038736311 -0.025479581 -0.08043851 -0.022296173 -0.0440095 0.07192293 -0.022728607
-0.05533658 -0.048272185 -0.1151556 -0.008663269 0.065943286 0.041928872 -0.10940034 -0.003309305
0.12378539 0.041687712 0.21929957 0.07412061 -0.0485916 -0.12594907 0.07629416 -0.1669968
0.06475255 0.04432839 0.00037511965 0.056472443 0.026303954 0.00803486 0.038790178 -0.08631748
0.023665942 0.13776949 -0.07000461 0.17128533 0.0060807867 0.1047981 0.12866737 -0.07934352
0.10569104 0.020300683 0.08870721 -0.07917596 0.026233489 -0.08424021 -0.13097271 -0.11641549
0.046594515 -0.050461944 -0.063589014 -0.12761244 0.26039693 -0.014885692 0.001673841 0.062404696
-0.038663402 -0.075234324 0.06046145 0.07335165 0.117632955 0.026322823 0.008196073 0.102011554
-0.028827341 0.06871026 0.067215286 -0.10769422 -0.07798824 -0.10362808 -0.029516518 0.01055611
-0.10285354 -0.025623834 -0.08941094 0.09550077 -0.011877719 0.18696384 -0.064535126 0.15164661
-0.0031599796 0.0019979442 0.07797251 0.07125646 0.14619127 0.10440066 0.12287254 0.028743332
-0.021301273 0.020079702 -0.06702514 -0.11641916 -0.123650074 -0.12325626 -0.043587893 0.039746378
-0.13459352 -0.0135704 -0.06765909 0.07127054 -0.08197926 0.014193713 0.0018752284 0.12855183
0.069577724 -0.014159153 0.09470938 0.01742486 0.075025134 0.08299301 0.09603005 0.023559839
-0.036821436 -0.035827417 -0.08633531 -0.012610318 0.23747797 -0.12549056 -0.007892127 0.011120243
0.16199149 0.09509114 -0.069110155 -0.11307125 -0.037528027 -0.020218167 0.035699904 -0.049530357
-0.04026897 -0.08488386 -0.055935286 -0.06567314 -0.03694522 0.04189466 0.053879652 -0.04134296
0.11910898 0.006138663 0.071603104 0.069520816 0.04946494 0.043722793 0.0858098 0.01325568
-0.0071674115 -0.0103608165 -0.11499669 0.056240965 -0.105649196 -0.13299331 -0.07871974 0.0023946154
-0.10015954 0.04223916 -0.018803786 0.06404388 0.08912831 0.117819056 -0.032426525 -0.09852584
-0.111660905 0.15896283 0.11385055 0.002186353 -0.03949448 0.022871237 -0.07640334 -0.06306307
0.13196087 -0.1317006 0.028653136 -0.0545713 0.054502625 0.1038424 -0.11264156 -0.11521031
0.12336418 0.06642981 -0.04242848 -0.09805251 0.052640997 -0.0464946 0.067737274 -0.09567232
0.06139219 0.110180385 0.06684965 -0.09817443 -0.07897509 -0.0037179058 -0.06407762 -0.04958604
0.06479872 -0.09966617 0.100961566 0.09572406 0.00038953545 -0.081678145 -0.07230321 -0.1787764
0.0027588787 0.041124813 -0.081631355 -0.0307439 -0.06112281 -0.13306402 0.11740157 0.061103575
0.07329352 0.008296149 -0.031027036 -0.030877491 -0.0002102576 0.09152185 -0.067604 -0.035263173
-0.07534405 -0.014553891 -0.02882653 0.02829379 0.05705175 0.14670797 -0.050137084 -0.048850022
-0.0313894 -0.0036509375 0.048548613 -0.14518505 -0.053564552 0.10549693 0.009424794 -0.05401351
0.1645426 -0.05683881 -0.0548368 0.0030005206 -0.027679503 -0.022088379 0.056465227 0.011018157
-0.025914349 -0.08010004 -0.10780394 0.06761487 -0.09662102 -0.09388529 0.07042102 -0.019924164
0.14748551 0.015605979 0.0196677 0.09352705 -0.018431198 -0.089004956 0.13760404 0.0915241

rnn.bias_ih_l1 f4 [256]
00000000: 2b29 cfbd 8085 81bd 1d03 0e3c 955f 10be
00000010: ebf3 80bd 31a3 9e3a 54b7 173d 8b83 d33c
00000020: c2b1 25be f46c ccbb 3b16 9c3d ef4c cabc
00000030: 40f5 c2bd a81a 6f3d bad7 3bbd de39 a8bd
00000040: d825 52bd 0b76 5cbd 8c9e 403d cbbe a6bd
00000050: 643e bdbc ee73 2fbd c819 2f3b 8a6b 73bd
00000060: 508d 9a3c 5060 7bbc 18eb 2fbd 82bc 693c
00000070: c297 bdbd d7ae e3bd 94f9 29be 628b 0cbe
00000080: 64c5 643d fef1 02bd 48f2 cbbc 846e e5bd
00000090: c6a6 36bd 1635 8abd 4135 bf3d 61dc b23d
000000a0: 1011 4b3d a65d bdbc 235c 5a3d ca0f cfbd
000000b0: 34a7 f13b 039b f63b 654e 4b3d add4 f5bd
000000c0: 7303 f23d 7184 05be 5e27 e4bd 2df6 f7bc
000000d0: 0ef3 bd3c 75b0 1bbd 524e ee3b f518 60bd
000000e0: 8370 4bbd b02a 8cbd 0a80 40bd a728 3cbd
000000f0: ad3d d03d 3049 113d 9b72 47bd 3be9 06ba
00000100: a644 bdbd 7564 aebd a813 00be 3df5 3dbd
00000110: b0d8 8ebc 0123 9b3b e601 b2bd 5594 8ebd
00000120: dca7 56bd 5410 11be f4f6 8cbd 2086 a6bd
00000130: 1931 fe3d b1c7 80bb 1537 0ebd 724a 523d
00000140: a92b a13d f2d2 b2bd 031f d93d bbd1 cb3d
00000150: b70a 8d3c cdcc 20be 45b9 a83c 6475 993d
00000160: aed0 d2bd 269a 9b3c 1486 9b3d 5bfe f4bd
00000170: 5c34 f3bc 4487 ecbd 5b26 a8bd d80b c8bd
00000180: f6ca e3bd 3277 593b b927 b4bb 7ccb 813c
00000190: 7966 873d 1b2f fabc 79ac d83d d3c3 963c
000001a0: a52f 7bbd 832c 48bd b1ed 183d 99bb 903c
000001b0: 05ac d53d a65c 1f3d 32fd 23bc 19fb cabd
000001c0: fa7a 553d 3aa3 b6bd bae3 0a3d 60e4 b63b
000001d0: 5969 18bd 3708 15be 851f 113d 3ba4 d43b
000001e0: 1528 dabc 96ed 08bb 8fec 17be 1035 92bd
000001f0: 88fb b1bd 786d 1fbc bf41 71bd a8b7 8cbd
00000200: 3be0 f1bb 1550 c53d e8b0 023d 66a8 20bd
00000210: e15a e63d 72a7 943a 0db7 773d 731c 7abd
00000220: 5f89 4a3d 77dd 9cbd 4550 923c f269 af3d
00000230: a217 043d f26e 3d3d 12d6 e9bd aa74 16bd
00000240: 9f31 7bbd 1743 36bb 97f7 2f3d 5d94 ae3c
00000250: 7829 483c 4f9a c3bd 265b 8dbd 96fe ae3d
00000260: 3af1 96bd f2dd 983c eded aa3d 2f4c 063d
00000270: 02c4 1fbc 6b92 ebbd c9d6 813c 7391 163e
00000280: d2d0 dd3d 1591 493d 2ae1 783d 85b7 d4bd
00000290: 6c80 2a3c 9b91 e4bd d59d 09be b234 8fbd
000002a0: 8de0 6ebd b590 063b 1d18 b0bc b1a3 61bd
000002b0: f1ac 8dbd 238a 763c 2b26 d33c 72f8 84bd
000002c0: 0886 a03d 1860 8fbd 2345 e83d 9d70 64bd
000002d0: 6c2a 52be 22c7 25bd 44bd 9b3c a45b 7b3d
000002e0: ab88 d7bc b708 9f3d 69b4 483d 35a8 58bd
000002f0: 8442 083d 37d5 0abe d4ad 80bd b8ea 9cbd
00000300: d7d6 983d d2c5 f8bd 6e5f a13d 3cf3 e5bd
00000310: 5a02 bbbd dc9a a73d 4b6c 96bb 2a1d f2bd
00000320: 578a 1dbc 65ec 0abd 8110 893d 386a f4bd
00000330: 8570 9fbd 51a7 083d eabe a63c 4bba 0c3d
00000340: b3b4 ae3d 3e76 a13d 355e 8bbd eafb 39bc
00000350: d360 07be b410 2a3d 3456 df3d 0339 efbb
00000360: 3117 e23d 374d ffbd 70a8 463d b893 a03d
00000370: 010a 163d 2231 c8bd 81ea 1cbc e9cc 13be
00000380: 2de4 cebd ac03 ebbd 9320 053d 5d3a ecbd
00000390: c504 14be ec85 8d3d f7d6 7fbd 0eca a03c
000003a0: a782 56bd 69c6 103e db00 91bb 2c2e c7bd
000003b0: 1f33 02bd 0ef5 2d3d 2e4e 383c 1117 a33d
000003c0: 3fab 8d3c 692f 23bd e148 bebd 9deb c5bb
000003d0: f33b 303e a9b8 07be 31b3 f6bd 27cf 96bc
000003e0: 51b7 67bd c829 b9bd f768 b83c f2f9 65bd
000003f0: 804d 80bd 3e2a 6dbc 7037 873c 50d2 823d
-0.10115274 -0.06324291 0.008667734 -0.14098962 -0.06296524 0.0012103078 0.03704007 0.02581956
-0.1618109 -0.006238574 0.076214276 -0.024694888 -0.09519434 0.05837503 -0.04586003 -0.08214162
-0.05130562 -0.053823512 0.047026202 -0.081418596 -0.02310104 -0.04283517 0.0026718248 -0.05942873
0.018866211 -0.015342787 -0.042948812 0.014266135 -0.09257461 -0.111173324 -0.16599113 -0.13725045
0.05585231 -0.031969063 -0.024895802 -0.1120272 -0.04459264 -0.067484066 0.09336329 0.0873344
0.04957682 -0.023115944 0.053310525 -0.101104334 0.0073746685 0.007525803 0.04963531 -0.12003455
0.11817064 -0.13038804 -0.11140321 -0.030268753 0.023187187 -0.03801008 0.00727252 -0.0547113
-0.049667846 -0.068440795 -0.046997108 -0.045937207 0.10168014 0.035470188 -0.04869328 -0.00051464484
-0.09241609 -0.085152544 -0.12507498 -0.046376456 -0.017437309 0.0047343974 -0.08691768 -0.06961886
-0.052406177 -0.14166385 -0.0688304 -0.08131051 0.124117084 -0.003930055 -0.0347205 0.051340528
0.07869656 -0.08731641 0.10601618 0.09952112 0.017217023 -0.15703125 0.020596156 0.074930936
-0.10293709 0.018994402 0.07593933 -0.11962577 -0.029688053 -0.11549237 -0.08210441 -0.09767884
-0.11122696 0.0033182618 -0.0054978994 0.0158441 0.06611342 -0.03054004 0.105797715 0.018403923
-0.061324734 -0.048870575 0.037336055 0.017667579 0.10433201 0.038906716 -0.010009097 -0.09911174
0.052119233 -0.08917852 0.033908583 0.0055814236 -0.037209842 -0.14553915 0.03543045 0.0064893044
-0.02663044 -0.0020893565 -0.14836334 -0.07139027 -0.08690554 -0.009730689 -0.05890059 -0.06870967
-0.0073814667 0.09634415 0.031906992 -0.039223097 0.112478025 0.0011341406 0.060477305 -0.061062288
0.049447414 -0.076594286 0.017860541 0.08565129 0.0322491 0.046248384 -0.11417784 -0.036732353
-0.06132662 -0.0027810985 0.04296073 0.02131098 0.012216918 -0.095509164 -0.06902151 0.08544652
-0.07370229 0.01866052 0.08346162 0.032787498 -0.009751322 -0.115025364 0.015849488 0.14703922
0.10830845 0.049210627 0.06076161 -0.10386566 0.010406595 -0.111605845 -0.13439114 -0.06992473
-0.058319617 0.002053303 -0.021495873 -0.05508775 -0.069177516 0.015047583 0.025775036 -0.064927
0.078380644 -0.0700075 0.11341312 -0.05577146 -0.20523995 -0.04047311 0.019011147 0.061366692
-0.026310286 0.07765334 0.049000178 -0.05289479 0.03326656 -0.13557898 -0.06283155 -0.076619565
0.074628524 -0.12147106 0.0787953 -0.11228034 -0.09131308 0.08183834 -0.0045905462 -0.11821969
-0.009615502 -0.03391685 0.06692601 -0.11934322 -0.07785133 0.03336269 0.020354707 0.03435735
0.085305594 0.07883881 -0.06805078 -0.011351565 -0.1322053 0.041519836 0.10905114 -0.0073004975
0.1103958 -0.124658994 0.04850048 0.07840675 0.036630634 -0.09774996 -0.009577394 -0.14433636
-0.10102115 -0.1147531 0.03250177 -0.115345694 -0.14454944 0.06910309 -0.062460866 0.019627597
-0.052370694 0.14138187 -0.004425151 -0.097256035 -0.031787034 0.04247003 0.011249108 0.07963384
0.01729357 -0.039840136 -0.09291244 -0.00604005 0.17210369 -0.13254036 -0.12045897 -0.018409325
-0.05657131 -0.09041172 0.022510989 -0.05614657 -0.06264782 -0.014475403 0.016505927 0.0638777

rnn.bias_hh_l1 f4 [256]
00000000: 6b0f 97bd c6cc 663d a16b 89bd 5084 f9bd
00000010: 3523 01bd 7c9a 5a3d dea0 b63c 70dc 9d3d
00000020: 61c4 55bd f389 c5bd 5d05 7fbc 62d5 69bc
00000030: bcb5 d3bd 1f8e cc3c 4eaf 593d db3c 89ba
00000040: 790e 01be 6127 a3bd 6ac8 af3c a4f4 08be
00000050: 994d c1bd 7c7f 4dbd 5292 c4bc 2c24 31bb
00000060: e7b1 7cbd 389d 64bd 0c09 2ebc 2137 c1bd
00000070: 83af 653d 3c75 51bc 9184 9fbd 99e2 a23d
00000080: 60cb a03d c31a 0abe d9dd a4bc 0b9d 13bd
00000090: d651 23bd 6b8a 84bc 558a ef3d b12f 803d
000000a0: 1ef1 92bd dae0 683d ff1f 883d 0242 873a
000000b0: 7016 013e 46f9 dcbc 77cf 643d b49f abbd
000000c0: aff0 37bc d7ca 02be 6be1 b13d 0f84 94bc
000000d0: db1b 473e 217c 42be ddde a03c 2b7f d13d
000000e0: 4a3b 25bc 9e7f 163d 7680 7c3d 4797 a53c
000000f0: 36ad 563d a507 903d ffee 7f3d dec5 9a3d
00000100: 4c4f a0bc 2fc4 6b3d 5534 f1bc 9381 e8bd
00000110: 7207 bcbd fafa 97bd e1df 9c3b 1c16 34be
00000120: ce3e 3cbd c9b0 e63c b0a5 8dbd 2191 aabd
00000130: ff4a dd3c 557e 143d fe65 ae3d 63a5 e73c
00000140: 2ba0 f0bb b8e3 723d ebda 973d a1cf d6bc
00000150: 24fc c5bd 0e59 a0bb 0353 d5bc 5a22 663d
00000160: 8e27 debd 21b1 d8bd c424 e7bd 318a 8a3d
00000170: 52bb f1bd 3040 513d 7320 35bd f686 f6bd
00000180: 5031 12be 6e86 6d3d 3b6f 633c 7223 913d
00000190: bfca 45bd 1e5b b43d 880a db3c 456a a03d
000001a0: 4f5b 66bd ddf2 05be c3aa 70bd c2bf ef3c
000001b0: 6518 393d 4661 5dbd 0644 bbbc ec9e 603d
000001c0: 71e5 bd3d 6857 ac3d 11b6 5fbd 4b79 5b3d
000001d0: 5e9d 383e 13bb d5bc 46a8 93bd 72f5 b73d
000001e0: d6f6 a93d b515 03be 5735 1ebe 7de5 27be
000001f0: 257c adbd 39c5 9e3d 6675 dabd 5475 383d
00000200: a6ff 2c3d 9e90 01bd 0284 003d ba26 f73d
00000210: 8db6 af3d 13c6 5e3d b5ac 93bd b994 1b3e
00000220: 28d4 9bbd d309 8d3d 2210 ae3b 74ef bfbd
00000230: 3d94 1fbd 564d 88bd 88f4 21bd 02e8 6b3d
00000240: b68c c4bd 1404 963d 9ba7 9c3c c49b 5abd
00000250: 247b 6dbc 0f07 dcbd 08c3 ffbd 7c90 5f3b
00000260: 2ca8 9c3d b249 71bd 42cd 893c 8297 0c3b
00000270: 3400 cbbd b245 00be 1258 cdbd 8849 1f3d
00000280: b206 a4bd 5a91 bcbd 8ed7 d23c eeb2 58bd
00000290: 5459 ea3d 7b26 f5bd 3c4b 81bd 5293 8c3d
000002a0: 2b9c 063d d137 0ebd 9657 d63b f178 5c3c
000002b0: 2bd0 093e 9717 ac3c 60a7 2e3d 4627 933d
000002c0: 2457 c9bd 565b c5bd ca5c 223d 1dcc 30bd
000002d0: 157c dcbb 0e49 a1bb f240 9ebc fc16 fdbc
000002e0: c9e4 e93c e324 8e3d e5cf 033d 4426 193c
000002f0: c5fe 9c3d 1385 8abd 7f96 96bd 7301 a0bc
00000300: 3f36 2a3b ca1f 703c 7dc9 483b a6e4 66bd
00000310: 8ac0 9fbd 8a2c 0cbd 52b1 48bd 92bc fa3d
00000320: 0e44 cc3b 1456 b83c ff64 f8bd f8dd 1c3b
00000330: eae1 5abd 6bb4 f6bd c541 3c3c 977e c1bd
00000340: c29b 1cbe dc57 ad3d 5655 813d f9f6 adbd
00000350: 1e70 283d dcc2 90bd f48b 06be 2307 513d
00000360: 9b32 673d 8db6 93bc 0610 ad3b 5f6e 02be
00000370: 5749 38bd 4430 eabd 0649 29bd ab79 74bd
00000380: 03ec 14be bfe8 c73b 6b3f 013e 150e ba3c
00000390: 7323 0c3c 9c12 37bd 56e0 f13d dc10 9bbc
000003a0: f038 573c 8227 253e 3f6a 69bd 34a8 95bd
000003b0: aa73 5abd edc5 a53d de70 9cbd 6708 c4bd
000003c0: 8819 543d 979b e53d 901b 233c 06e8 9dbd
000003d0: c4d9 35ba d7c4 a7bd d00c 23bd d0d2 ff3d
000003e0: 2fc6 9dbd 4d8c e2bd 2b92 12be 8f0d 3dbe
000003f0: 2281 a8bd 29f9 94bd 386a 89bd cb0b 9bbd
-0.073759876 0.05634763 -0.06709982 -0.1218344 -0.031527717 0.053369984 0.022293504 0.07708061
-0.052189235 -0.09645452 -0.015565244 -0.014272066 -0.103373975 0.024970112 0.0531457 -0.0010470407
-0.12603177 -0.07966495 0.02145787 -0.13374573 -0.09438629 -0.050170407 -0.023995552 -0.0027029617
-0.0616931 -0.055813998 -0.010622274 -0.09434343 0.056075584 -0.0127842985 -0.07788957 0.07953376
0.07851291 -0.13486771 -0.020125316 -0.03603844 -0.039872967 -0.016179284 0.116963066 0.062590964
-0.07174896 0.05685506 0.06646728 0.0010319354 0.12606215 -0.026974332 0.055861916 -0.0838007
-0.011226817 -0.1277269 0.08685573 -0.018129377 0.1944422 -0.18992664 0.01963752 0.102293335
-0.010084936 0.0367428 0.061645947 0.020213736 0.05241128 0.07032708 0.062483784 0.075572714
-0.019569062 0.057560142 -0.0294439 -0.11352839 -0.091811076 -0.07420917 0.0047874306 -0.17586559
-0.045958333 0.02816047 -0.06916368 -0.083284624 0.0270133 0.036253292 0.08515547 0.028277105
-0.0073433123 0.0592992 0.07414802 -0.026222052 -0.09667233 -0.0048934286 -0.02604056 0.056185104
-0.10847388 -0.1058066 -0.11286309 0.06764639 -0.11803307 0.051086605 -0.0442204 -0.120374605
-0.14276624 0.05798953 0.0138815 0.07086839 -0.048289057 0.08806442 0.02673842 0.07832769
-0.056239422 -0.13080926 -0.0587566 0.029266242 0.04518928 -0.054047845 -0.022859585 0.05483906
0.09272278 0.08415109 -0.05461699 0.05358247 0.18028781 -0.02609018 -0.0720983 0.08982362
0.08299033 -0.1280125 -0.15450035 -0.16396137 -0.08470944 0.07752461 -0.10666923 0.045033768
0.042235993 -0.03163206 0.031375892 0.120679334 0.08579741 0.054388117 -0.072106756 0.15193452
-0.07608825 0.068866394 0.005311982 -0.09371844 -0.03895973 -0.06655376 -0.039539844 0.057594307
-0.09597151 0.073249966 0.01912289 -0.053371206 -0.014494691 -0.10743534 -0.12488371 0.003411322
0.07649264 -0.058908172 0.016821507 0.002145261 -0.09912148 -0.12526587 -0.10026564 0.038888484
-0.080090895 -0.09207411 0.02573755 -0.052905016 0.11442819 -0.1197023 -0.06313178 0.068640366
0.032863777 -0.0347212 0.006541203 0.013456569 0.13458316 0.021007342 0.04264009 0.07185225
-0.09831074 -0.096365616 0.03963927 -0.043163408 -0.006728659 -0.004922039 -0.019318078 -0.030894749
0.028551476 0.06940629 0.032180686 0.009347502 0.07665781 -0.06763663 -0.073529236 -0.019531941
0.0025972275 0.014656017 0.0030637674 -0.0563704 -0.07800396 -0.034222163 -0.04899723 0.12242998
0.0062336987 0.022501983 -0.121286385 0.0023936015 -0.053438105 -0.12046131 0.01149029 -0.09447973
-0.15293792 0.084640235 0.06315105 -0.08494372 0.04112255 -0.070684165 -0.13139325 0.051032197
0.056444746 -0.018031383 0.005281451 -0.12737416 -0.044991817 -0.11434987 -0.041329406 -0.059686344
-0.14543156 0.0061007435 0.12621848 0.022711793 0.008553374 -0.04469548 0.11810367 -0.018928938
0.013136134 0.16128352 -0.05698609 -0.07307473 -0.053332962 0.08094392 -0.07638715 -0.09571915
0.05178216 0.11211317 0.009955302 -0.077102706 -0.00069370517 -0.08191841 -0.03980714 0.12491381
-0.07703816 -0.110619165 -0.14313571 -0.18462203 -0.08227755 -0.07274086 -0.06709713 -0.07570609
