examples/benchmarks/LSTM/model_lstm_csi300.pkl (torch, 209290 bytes, 9 tensors)

rnn.weight_ih_l0 f4 [256, 6]
0	0x3e2d65d0	0.1693337
1	0x3db77b00	0.08959007
2	0x3e7e986c	0.24862832
3	0xbcc464fa	-0.02397393
4	0x3d93a9ae	0.07210098
5	0x3dfd402f	0.12365758
6	0x3d8fa644	0.070141345
7	0x3e439f6f	0.19103788
8	0x3e5df410	0.21675134
9	0x3e33e08b	0.17566125
10	0x3d76d124	0.060258046
11	0x3dbdb864	0.09263685
12	0x3eb2f569	0.34952858
13	0x3e21f355	0.1581548
14	0x3e9cc765	0.30620876
15	0xbcd4dfba	-0.025985587
16	0xbcc62458	-0.024187252
17	0x3db3e915	0.08784691
18	0xbe36d54c	-0.17854804
19	0xbef8967a	-0.48552305
20	0xbe6e5aee	-0.23276874
21	0xbe755395	-0.23957665
22	0xbdde4b7c	-0.10854241
23	0x3d903bbd	0.07042644
24	0x3b87fdf9	0.004150149
25	0xbe2b4580	-0.16725731
26	0xbd069118	-0.032853216
27	0xbc722070	-0.0147782415
28	0xbdbe016c	-0.09277615
29	0x3e1740e5	0.14770849
30	0xbdb56084	-0.088562995
31	0x3df6b4d0	0.12046206
32	0x3d1d560c	0.03841214
33	0x3dcb4c78	0.09926695
34	0xbc77e930	-0.01513128
35	0x3e85d342	0.2613774
36	0x3d12c5ea	0.035833277
37	0x3e75cff0	0.24005103
38	0xbe21e30e	-0.1580927
39	0x3e61edd9	0.22063388
40	0x3cc05468	0.023477748
41	0x3d0deeff	0.034651753
42	0x3d3984d0	0.045292675
43	0xbdec7525	-0.11545781
44	0x3cdc79d5	0.026913563
45	0x3e58e39e	0.21180579
46	0x3daefcaa	0.085442856
47	0x3ce14fb9	0.027503835
48	0xbe4bfcfb	-0.19920723
49	0xbea11f10	-0.3146901
50	0xbe2fcb95	-0.17167504
51	0xbe087883	-0.13327222
52	0x3dce4b28	0.10072929
53	0xbd80885a	-0.06276007
54	0xbdb78e29	-0.08962662
55	0xbe00328a	-0.12519279
56	0xbcd1680e	-0.025562312
57	0xbe8b02a6	-0.27150458
58	0x3c96d270	0.018410891
59	0xbdd9e6c4	-0.10639718
60	0x3dcb1b8a	0.09917362
61	0xbe27b696	-0.16378245
62	0x3d69fcde	0.05712592
63	0xbd5f0ce8	-0.054455668
64	0x3dce210e	0.100648984
65	0x3e2c1338	0.16804206
66	0xbe8fa56e	-0.280559
67	0x3e50a547	0.20375548
68	0xbdd97583	-0.10618117
69	0xbe614f8e	-0.22003004
70	0xbd11b540	-0.035573244
71	0xbe3a9a19	-0.18222846
72	0xbe3d9b2a	-0.18516222
73	0xbdd02072	-0.101624385
74	0xbd8dd70d	-0.06925783
75	0xbdc36c43	-0.09542134
76	0xbd4b7e68	-0.049681097
77	0x3d7f96b7	0.062399592
78	0xbe174ce4	-0.14775425
79	0xbca756f3	-0.020427203
80	0x3d989acc	0.074514
81	0xbe2ffd82	-0.1718655
82	0x3ded2f26	0.115812585
83	0xbd8f5d50	-0.0700022
84	0xbe6c1d75	-0.23058112
85	0x3d8e81c2	0.06958343
86	0xbd847189	-0.064669676
87	0x3d204648	0.039129525
88	0xbdd020ea	-0.10162528
89	0x3d9e4209	0.07727439
90	0xbe1e2279	-0.15442838
91	0x3e13c964	0.14432293
92	0x3cc00751	0.023440989
93	0xbbad41db	-0.0052873916
94	0xbc751550	-0.014958695
95	0xbdd545eb	-0.104137264
96	0x3cda8ff8	0.026679978
97	0x3dabb16b	0.08383449
98	0x3e1ca78c	0.15298289
99	0x3dbf7271	0.09348
100	0xbdf9e656	-0.12202136
101	0xbd56f59f	-0.052480336
102	0xbd5ae791	-0.053443495
103	0x3dc4875e	0.09596132
104	0x3d3bd4a9	0.045857105
105	0x3d23c800	0.039985657
106	0x3cafca08	0.02145864
107	0x3c572202	0.013130667
108	0x3dbb2614	0.09138122
109	0xbd98165d	-0.074261405
110	0x3d1a213d	0.037629355
111	0xbd857fc7	-0.06518512
112	0xbd95eace	-0.07320176
113	0x3dccd9d4	0.10002485
114	0xbc43e4ab	-0.011956374
115	0xbd94249e	-0.07233547
116	0x3e1f0eea	0.15533033
117	0xbdd9563c	-0.10612151
118	0x3de6556a	0.1124676
119	0x3bcde7fc	0.006283758
120	0x3dc0b1c7	0.09408908
121	0x3e50bcd7	0.20384537
122	0x3e9f971f	0.31169984
123	0x3e454f59	0.1926855
124	0x3dfa8da6	0.122340485
125	0x3dd47aa5	0.10374955
126	0x3e6768b3	0.22598533
127	0xbc963cee	-0.0183396
128	0x3b2e277c	0.0026573827
129	0xbd8a12b0	-0.067418456
130	0x3d693ea4	0.056944504
131	0xbdbcf672	-0.09226693
132	0xbe5a7f38	-0.21337593
133	0x3c91c97e	0.017796274
134	0xbbb17f8b	-0.0054168156
135	0xbd28112b	-0.041031998
136	0xbd10d080	-0.03535509
137	0x3e19f23c	0.15033811
138	0x3ea3a9f1	0.31965593
139	0x3ec59f81	0.38598254
140	0x3dec498c	0.115374655
141	0x3e43a796	0.19106898
142	0x3df2d63e	0.1185727
143	0x3e164138	0.14673316
144	0xbe0eaaeb	-0.13932388
145	0xbe2691af	-0.16266511
146	0x3d7f6768	0.062354475
147	0xbe9e5889	-0.30926922
148	0xbcdeab58	-0.027181312
149	0xbd7fe937	-0.06247827
150	0x3d383fa8	0.044982582
151	0xbe2e8795	-0.17043908
152	0xbc79aff4	-0.015239704
153	0xbe96606e	-0.29370445
154	0x3d1c28ac	0.038124725
155	0x3df4aacc	0.119466394
156	0xbd8ba09f	-0.068177454
157	0xbeb19365	-0.34682766
158	0xbe3b42f7	-0.18287264
159	0xbd37be3a	-0.04485915
160	0x3d400e98	0.046888918
161	0x3bf08c00	0.007340908
162	0x3e3d0be9	0.18461575
163	0x3cbdded5	0.023177544
164	0x3e4e3ed4	0.20141155
165	0x3e544f16	0.20733294
166	0x3d72c0dc	0.059265956
167	0xbe1f6891	-0.15567233
168	0xbd2c379f	-0.042045232
169	0x3d1ceb78	0.038310498
170	0x3d468c82	0.048473842
171	0xbe8b1593	-0.27164897
172	0xbdec41e6	-0.11536007
173	0xbe7ac2b9	-0.24488343
174	0xbe9cc644	-0.30620015
175	0xbbc66c42	-0.006055386
176	0xbe8966de	-0.26836294
177	0xbecb5ce8	-0.3971932
178	0x3dcd38a2	0.100205675
179	0x3e0fd094	0.1404441
180	0xbdc584c0	-0.09644461
181	0xbeaa1970	-0.33222532
182	0xbd78d3f3	-0.060749006
183	0xbed33ec4	-0.41258824
184	0x3dca80a4	0.098878175
185	0xbcf0780a	-0.029354114
186	0x3eeb1741	0.4591618
187	0x3e7963a4	0.24354416
188	0x3ec84e40	0.391222
189	0x3d87997d	0.066210724
190	0x3deda726	0.11604147
191	0x3e06c891	0.13162448
192	0xbed03725	-0.40667072
193	0xbca5f08d	-0.020256305
194	0xbe5a63bb	-0.21327107
195	0xbf031475	-0.5120309
196	0x3dea7da8	0.11449748
197	0xbdfeeb0c	-0.124471754
198	0x3dc1af7f	0.09457301
199	0x3c92f415	0.017938653
200	0x3e0441b2	0.12915686
201	0xbd4522a2	-0.04812873
202	0xbcaf5908	-0.021404758
203	0xbd9682db	-0.073491774
204	0xbe67812b	-0.22607867
205	0xbe4bc683	-0.19899945
206	0xbe352eac	-0.17693585
207	0xbe64f2ec	-0.22358292
208	0x3d4fcf78	0.050734967
209	0x3d35b922	0.04436601
210	0xbca44fa3	-0.020057505
211	0x3e0c2eae	0.13689682
212	0x3d3080f3	0.043091726
213	0x3a68e2ee	0.0008883913
214	0xbdcbbd04	-0.09948161
215	0xbe07f497	-0.13276897
216	0xbe73c34e	-0.23804972
217	0xbf070657	-0.5274405
218	0xbea6b23a	-0.3255785
219	0xbeea751e	-0.45792478
220	0x3da78334	0.08179322
221	0x3e06ef17	0.13177143
222	0x3e02928c	0.12751216
223	0x3ddc01d4	0.10742536
224	0x3e0052e3	0.12531619
225	0x3e339a80	0.17539406
226	0x3da96850	0.08271849
227	0x3c9f71c3	0.019463426
228	0x3d662f01	0.05619717
229	0xbd7547ed	-0.059883047
230	0x3dade70f	0.084913366
231	0x3d1e6363	0.038669
232	0xbdabaed8	-0.08382958
233	0x3e8b15bb	0.27165017
234	0x3d206816	0.039161764
235	0x3cc3677b	0.023853054
236	0x3e3534e6	0.1769596
237	0x3d870cce	0.06594239
238	0xbd8d1274	-0.06888285
239	0x3d02042f	0.03174227
240	0xbe98f666	-0.29875487
241	0xbe0b9470	-0.13630843
242	0xbed6bfee	-0.41943306
243	0x3dfecd4b	0.124415
244	0xbc9e9378	-0.019357428
245	0xbea595c1	-0.32340816
246	0x3e05f579	0.13081922
247	0x3d87217a	0.06598182
248	0x3e86801f	0.26269624
249	0x3e253648	0.16133988
250	0xbda9a370	-0.08283126
251	0x3e045a8e	0.12925169
252	0x3d7e11df	0.062028762
253	0x3e111996	0.14169917
254	0x3ea43bd5	0.32076898
255	0x3dac59aa	0.084155396

rnn.weight_hh_l0 f4 [256, 64]
0	0x3e2801b3	0.16406898
1	0xbd64016d	-0.055665422
2	0xbb872bbf	-0.004125088
3	0x3d8006ca	0.06251295
4	0xbc9dd577	-0.019266827
5	0xbdab61ed	-0.08368287
6	0xbd9de9b5	-0.07710592
7	0xbd771cdd	-0.06033026
8	0xba06c39a	-0.0005140841
9	0xbd4d0015	-0.050048906
10	0xbdd39288	-0.10330683
11	0xbe4c7b1e	-0.1996884
12	0x3cf7cce7	0.030249072
13	0x3e0c2b56	0.13688406
14	0x3e1cb71b	0.15304224
15	0xbd081714	-0.033225134
16	0xbb4b55ef	-0.0031026562
17	0xbcc9f132	-0.024651144
18	0x3d2d0b8b	0.042247336
19	0xbdbeeea7	-0.09322863
20	0xbcbaa46a	-0.022783477
21	0xb9b74d9d	-0.00034962306
22	0xbe493cce	-0.19652101
23	0x3bc90059	0.0061340746
24	0xbd07285a	-0.032997467
25	0xbe06a434	-0.13148576
26	0xbd2ba4bd	-0.041905154
27	0x3e75ee3d	0.24016662
28	0xbd9d8426	-0.07691221
29	0x3ce1318c	0.027489446
30	0x3d5f2c52	0.054485627
31	0xbc023686	-0.00794757
32	0xbd20e790	-0.039283335
33	0xbd23c7ab	-0.03998534
34	0x3db234cb	0.08701476
35	0xbdb73990	-0.08946526
36	0x3e14d224	0.14533287
37	0xbd167788	-0.036735088
38	0x3d2e84e3	0.0426072
39	0xbdb3572b	-0.0875686
40	0xbe10d443	-0.14143471
41	0xbc2f7a2d	-0.010710281
42	0x3e87d45e	0.2652921
43	0x3d3734dd	0.04472815
44	0x3d4075aa	0.046987213
45	0xbe76dc03	-0.24107365
46	0xbd635199	-0.05549774
47	0x3e3fde71	0.18737198
48	0xbc8433b0	-0.016137928
49	0xbd5df9a3	-0.05419315
50	0xbcd8a2c5	-0.026444802
51	0x3d9ae818	0.075637996
52	0x3da2243f	0.0791707
53	0x3d56f62e	0.05248087
54	0xbe829645	-0.25505272
55	0x3daa276f	0.083083026
56	0xbe36ef03	-0.17864613
57	0x3dfe3b75	0.12413684
58	0xbd5df95f	-0.054192897
59	0x3e317e81	0.17333414
60	0xbc482e95	-0.012218137
61	0x3d8eebc0	0.069785595
62	0xbe4c5da8	-0.19957602
63	0xbe293275	-0.16523154
64	0x3e7c0dd9	0.24614657
65	0x3cb46d6f	0.022024838
66	0x3d3be321	0.045870904
67	0x3d377914	0.044793203
68	0xbc3d5bb6	-0.01155751
69	0xbd078bb7	-0.033092227
70	0xbd01550b	-0.031575244
71	0x3cdc1be7	0.026868774
72	0x3e207f84	0.15673643
73	0x3dfc6a70	0.12324989
74	0xbca563ac	-0.020189129
75	0xbc61c9a7	-0.013780988
76	0xbda50629	-0.080578156
77	0x3d7ab7ac	0.06121032
78	0xbd87fbc4	-0.06639817
79	0xbce7f3bc	-0.028314464
80	0x3d285c84	0.041103855
81	0xbaa80de1	-0.0012821519
82	0xbc8af86f	-0.016964165
83	0x3d962d14	0.07332817
84	0xbd79be2a	-0.06097237
85	0x3e06174f	0.13094829
86	0xbdabc036	-0.08386271
87	0xbe105e67	-0.14098512
88	0x3dd5061d	0.10401557
89	0xbc7b70d6	-0.015346726
90	0xbda31a27	-0.079639725
91	0x3e315315	0.1731685
92	0xbe0f2c55	-0.13981755
93	0x3ebbc270	0.36671782
94	0x3d03fa2f	0.032221016
95	0xbd922761	-0.07136417
96	0xbd5c5d91	-0.05380017
97	0xbd32580c	-0.043541
98	0xbd391443	-0.04518534
99	0x3d3d53cf	0.046222504
100	0x3e45d665	0.19320066
101	0x3e304ef3	0.17217617
102	0x3e2e0d65	0.16997297
103	0xbd49fe84	-0.04931499
104	0xbe671d2d	-0.22569723
105	0xbdc142e0	-0.094365835
106	0xbd853fb8	-0.06506294
107	0xbdf18566	-0.11793022
108	0x3decc480	0.11560917
109	0xbc27d20a	-0.010242948
110	0xbde48539	-0.11158223
111	0xbd56ca77	-0.05243918
112	0x3d2a465b	0.041571002
113	0xbc856caa	-0.016287167
114	0xbdd88e04	-0.10573962
115	0xbd386c0f	-0.045024928
116	0x3e866d13	0.26255092
117	0xbb4cb339	-0.0031234755
118	0xbe4dfdd8	-0.20116365
119	0x3dc07aa5	0.093983926
120	0xbd4342d4	-0.047671154
121	0xbd9942d6	-0.07483451
122	0xbe206af8	-0.15665805
123	0x3db1c0a7	0.08679324
124	0x3e1d1773	0.15340976
125	0x3c8bdb4a	0.017072339
126	0xbe0bb40a	-0.13642898
127	0xbe0cd90e	-0.13754675
128	0xbe259ace	-0.16172335
129	0xbcca3394	-0.024682797
130	0x3cda1245	0.02662004
131	0xbdad805b	-0.084717475
132	0xbc55a7e3	-0.013040516
133	0xbd942d4b	-0.072352014
134	0x3e9958fa	0.29950696
135	0xbcb0e553	-0.021593725
136	0x3df47ec3	0.119382404
137	0x3c84ce81	0.01621175
138	0x3d37836a	0.04480306
139	0xbdfdfd84	-0.1240187
140	0x3db552b4	0.08853665
141	0x3de7ffad	0.11328063
142	0xbd89c38d	-0.067267515
143	0xbd78e2a8	-0.06076303
144	0x3e2a15b1	0.16609837
145	0x3d4441db	0.047914367
146	0x3dfe8a6b	0.12428745
147	0x3e317f71	0.17333771
148	0x3c905d2b	0.017622551
149	0x3d01d5f9	0.0316982
150	0xbd0b1eef	-0.033965047
151	0xbe3e1a4c	-0.18564719
152	0x3e0ebbc3	0.13938813
153	0xbd7aa230	-0.06118983
154	0x3e156a1b	0.14591257
155	0x3cd59d00	0.02607584
156	0xbe627740	-0.22115803
157	0xbd1d01ad	-0.038331676
158	0x3d1b9ad4	0.037989452
159	0xbe231fa4	-0.15930039
160	0xbe99427e	-0.29933542
161	0xb9987da2	-0.00029085303
162	0xbdc554bd	-0.09635303
163	0x3ca05d40	0.019575715
164	0x3c9c71a7	0.019097162
165	0xbd02fee5	-0.031981368
166	0x3cf48141	0.02984679
167	0x3dcf195e	0.1011226
168	0xbd7ee26e	-0.06222766
169	0xbce8ed27	-0.028433396
170	0x3e3ca1c8	0.1842109
171	0xbe688ea8	-0.22710669
172	0x3e343b50	0.17600751
173	0x3e26f9d3	0.16306238
174	0xbe9fb54b	-0.31193003
175	0x3e855dc3	0.26048097
176	0x3da765ed	0.08173738
177	0xbe29518b	-0.16535012
178	0x3dc703cc	0.09717521
179	0xbc39a890	-0.011331692
180	0x3e04913e	0.1294603
181	0xbc4e1d28	-0.012580194
182	0xbd86dce8	-0.06585103
183	0xbcc344f1	-0.023836585
184	0xbd42bcbb	-0.04754327
185	0x3de46630	0.11152303
186	0xbdcc878a	-0.099867895
187	0x3e0dd180	0.13849449
188	0x3db0b909	0.08629043
189	0x3dab40fb	0.083620034
190	0xbd98d050	-0.074616075
191	0xbd748362	-0.05969561
192	0xbe5b594f	-0.21420787
193	0x3e479b36	0.19492802
194	0xbdd99434	-0.10623971
195	0xbd8ad915	-0.06779686
196	0xbcfefa61	-0.03112525
197	0x3d2e09ae	0.0424897
198	0x3e1396a8	0.1441294
199	0x3d92f57d	0.071757294
200	0xbe25caf1	-0.16190697
201	0x3bc74068	0.006080676
202	0xbde413aa	-0.11136563
203	0x3d6f31a1	0.05839694
204	0xbd30be62	-0.043150313
205	0xbbd95903	-0.0066329255
206	0xbaf66160	-0.001879733
207	0x3df6dfd4	0.120544106
208	0xbe7b9b67	-0.24571
209	0x3d98cbf6	0.074607775
210	0x3c43355d	0.011914578
211	0xbdb9e6cc	-0.09077224
212	0xbd4f2751	-0.050574604
213	0xbd4c2a0c	-0.049844787
214	0x3cfbd3c3	0.030740624
215	0xbd9c6471	-0.07636345
216	0x3e2eb9b4	0.17063028
217	0xbde066be	-0.109570965
218	0x3be82772	0.0070847804
219	0xbc429b06	-0.011877781
220	0x3c70b127	0.014690674
221	0xbe960921	-0.2930384
222	0x3c202eff	0.00977683
223	0xbd78cb89	-0.06074098
224	0x3e6eaec8	0.23308861
225	0xbd4b7ae8	-0.04967776
226	0xbe408938	-0.18802345
227	0x3cfd070c	0.03088715
228	0xbc5b9d64	-0.013404224
229	0xbde8a4a1	-0.113595255
230	0xbe184365	-0.14869459
231	0x3ccec32a	0.025239546
232	0x3e8aec82	0.27133566
233	0xbe1f2089	-0.15539755
234	0x3d328701	0.04358578
235	0x3b95fb74	0.0045770947
236	0xbe233b56	-0.15940604
237	0x3e7d4735	0.24734195
238	0xbd8719a9	-0.06596691
239	0xbd929971	-0.07158173
240	0x3e692e45	0.22771557
241	0x3dd201bf	0.10254239
242	0x3da51e22	0.08062388
243	0x3e85e25d	0.26149264
244	0xbe98bb1a	-0.29830247
245	0x3de01bf3	0.10942831
246	0x3d4663c7	0.048435
247	0x3da9c50f	0.08289539
248	0xbd84284b	-0.06452998
249	0xbdbdff0d	-0.09277163
250	0x3ce4244c	0.027849339
251	0xbe636343	-0.22205834
252	0x3e8000c8	0.25000596
253	0xbd16e0b8	-0.036835402
254	0xbe2d04a3	-0.168963
255	0xbd71cd60	-0.05903375

rnn.bias_ih_l0 f4 [256]
0	0x3dbc17cf	0.09184229
1	0xbde8a369	-0.11359293
2	0xbcc7f462	-0.024408523
3	0x3dc4e0ca	0.096131876
4	0x3d397434	0.045276836
5	0xbe4f1646	-0.2022334
6	0xbc970308	-0.018434063
7	0x3d802f9c	0.06259081
8	0x3daf09f5	0.08546821
9	0xbbb6674f	-0.0055665146
10	0xbd4d1f25	-0.05007853
11	0x3d1d26ba	0.03836701
12	0x3e010fef	0.12603734
13	0x3dea745b	0.11447974
14	0xbdd353b9	-0.10318703
15	0x3dc37e09	0.09545524
16	0x3dae33a9	0.08505947
17	0xbbb58a72	-0.0055401856
18	0xbc885131	-0.016640278
19	0x3dac6554	0.08417764
20	0xbd788bd2	-0.060680218
21	0xbd929f21	-0.07159258
22	0xbd441d24	-0.047879353
23	0xbe81bade	-0.2533788
24	0x37fd0694	3.0163013e-05
25	0xbda7f567	-0.08201104
26	0x3d93a9a4	0.07210091
27	0x3d15dfbb	0.03659032
28	0xbe0ab099	-0.13543929
29	0x3e890f78	0.26769614
30	0xbd106743	-0.035254728
31	0x3c212762	0.00983605
32	0x3c275627	0.010213411
33	0xbda00cde	-0.07814954
34	0xbd7da888	-0.061928302
35	0x3cabbce5	0.020964095
36	0xbe17e04d	-0.14831658
37	0xbd3b1a47	-0.045679357
38	0x3d6d747e	0.057972424
39	0xbe35f638	-0.17769706
40	0x3e7ecc3a	0.24882594
41	0x3d6e5013	0.058181833
42	0x3e42a230	0.19007182
43	0x3db726dc	0.08942959
44	0x3e092552	0.13393143
45	0x3e5feed8	0.21868455
46	0x3d1b656f	0.03793853
47	0xbd4c0c33	-0.04981632
48	0x3c5f6d21	0.013636858
49	0x3d950812	0.0727693
50	0xbe0237fb	-0.12716667
51	0x3dc3b35b	0.09555694
52	0x3db6474c	0.089003175
53	0xbe273424	-0.16328484
54	0x3bbc229d	0.005741431
55	0xbdced25d	-0.10098717
56	0x39ec28db	0.00045043867
57	0xbdfa194e	-0.12211858
58	0x3d976826	0.073929116
59	0x3cdcd6d2	0.026957903
60	0xbd3a463d	-0.04547714
61	0xbe718e2b	-0.23589389
62	0x3d7aff9f	0.061278936
63	0xbd32813d	-0.043580282
64	0xbcdc9d53	-0.026930487
65	0x3cd0d177	0.025490506
66	0x3d947bc5	0.0725017
67	0xbe0f6e7c	-0.1400699
68	0x3cbb5492	0.022867475
69	0xbdabfabc	-0.08397433
70	0x3e36d5d4	0.17855006
71	0x3df6cfe8	0.12051374
72	0xbda3fc7a	-0.080071405
73	0xbd40dd53	-0.04708607
74	0x3d675df9	0.056486104
75	0x3d4d9311	0.05018908
76	0x3d96ce65	0.073635854
77	0x3d6ad474	0.057331517
78	0xbe6ce3a9	-0.2313372
79	0xbdc6812a	-0.09692605
80	0x3e1bf587	0.1523038
81	0x3dbea77c	0.09309289
82	0x3e52ffbe	0.2060537
83	0x3d3e6475	0.046482522
84	0x3b1cbc17	0.0023915821
85	0x3d18d8fa	0.0373163
86	0x3c7320b9	0.014839345
87	0xbc13913b	-0.009006794
88	0xbd9f92ce	-0.07791673
89	0xbe2515c7	-0.16121589
90	0x3e0c2c28	0.1368872
91	0x3e26d280	0.16291237
92	0xbe05a1b4	-0.13049966
93	0xbe1b04fd	-0.15138622
94	0x3d4ea0db	0.050446372
95	0xbcf60471	-0.030031415
96	0x3d30c5c9	0.043157373
97	0x3dc85b61	0.09783054
98	0x3dc697e9	0.09696943
99	0x3d16bb06	0.036799453
100	0xbcc8f0b5	-0.02452884
101	0x3d9827d2	0.0742947
102	0x3d9dcfab	0.07705625
103	0xbddefc02	-0.108879104
104	0x3c81c864	0.015842624
105	0xbdb6d057	-0.089264564
106	0xbcda766b	-0.026667794
107	0x3e80a12f	0.25122973
108	0x3baf0b5f	0.0053419317
109	0xbd5be52f	-0.053685363
110	0xbd8682a8	-0.065678895
111	0x3cff21e9	0.0311441
112	0xbcb9964b	-0.022654673
113	0x3e5f38ab	0.21798961
114	0x3ba5284a	0.005040203
115	0x3e45d7c1	0.19320585
116	0xbd09a82c	-0.033607647
117	0x3d01a412	0.03165061
118	0xbd39aae4	-0.04532899
119	0x3d6f5b18	0.058436483
120	0x3db2b841	0.0872655
121	0x3e58b13c	0.2116136
122	0xbc9bda62	-0.019025031
123	0xbd5f34a3	-0.054493558
124	0x3d2b304d	0.04179411
125	0xbe231741	-0.1592684
126	0x3e1d921e	0.1538777
127	0xbc537b78	-0.012907855
128	0x3e01704c	0.12640494
129	0x3d9aa7cc	0.07551536
130	0x3d46e557	0.04855856
131	0x3e127f6e	0.14306423
132	0x3dfb0062	0.122559324
133	0xbd0703ae	-0.032962494
134	0x3cca2c51	0.024679335
135	0xbc49e723	-0.012323174
136	0xbbf65f09	-0.0075186533
137	0xbd6198e1	-0.055077437
138	0xbdf5e8d6	-0.120073006
139	0x3db2f6f8	0.08738512
140	0x3c539935	0.012914945
141	0x3de6e129	0.11273415
142	0x3d571e9e	0.052519433
143	0x3cc15707	0.023601068
144	0x3cd9a1c8	0.026566401
145	0xbdb5bf67	-0.08874398
146	0xbd8737e7	-0.066024594
147	0x3d3217a3	0.043479573
148	0xbd6e740f	-0.05821615
149	0xbbed8394	-0.0072483514
150	0xbd848cf9	-0.06472201
151	0xbe03ea6b	-0.12882392
152	0x3d1abe01	0.037778858
153	0x3c388648	0.011262484
154	0x3d254274	0.040346578
155	0x3d3ce7df	0.046119567
156	0x3c748b6d	0.01492582
157	0xbcd36da9	-0.025809126
158	0x3d9cf2cb	0.076634966
159	0x3e305a1f	0.17221878
160	0x3d981bb2	0.074271575
161	0x3c643c0b	0.013930331
162	0x3da9c5f3	0.08289709
163	0xbdd5a6ed	-0.10432229
164	0x3dbe2ec4	0.092862636
165	0x3cc3c34b	0.023896834
166	0xbd2356c0	-0.039877653
167	0xbc678874	-0.014131654
168	0xbda34758	-0.07972592
169	0xbd0bf24c	-0.03416662
170	0x3dafc968	0.08583337
171	0x3d5cb815	0.05388649
172	0x3d1dc42b	0.03851716
173	0x3db175b9	0.08665032
174	0x3cff9bab	0.031202158
175	0xbd1b480d	-0.03791051
176	0xbbe04519	-0.0068441746
177	0x3e09157b	0.133871
178	0xbd00a137	-0.031403746
179	0xbd5bae3a	-0.053632952
180	0x3d13ab48	0.03605202
181	0x3d4da402	0.05020524
182	0x3df5b6c8	0.119977534
183	0x3dbc78eb	0.09202751
184	0x3d0c6333	0.03427429
185	0xbd569433	-0.052387428
186	0xbb2abae7	-0.0026051344
187	0xbc8729e7	-0.016499473
188	0x3d8c9307	0.06863981
189	0x3d0eaea2	0.03483451
190	0xbc95e387	-0.01829697
191	0x3db2a047	0.08721977
192	0x3da7263d	0.0816159
193	0xbdd05643	-0.10172703
194	0x3cf45dbf	0.029829858
195	0x3e0d6473	0.1380785
196	0xbd958ad3	-0.07301869
197	0xbc12ebd8	-0.008967362
198	0xbdfb6215	-0.12274567
199	0x3e08e504	0.13368613
200	0xbdad55d5	-0.08463637
201	0x3d68677f	0.056739327
202	0x3d866f85	0.065642394
203	0x3c44b9e8	0.012007214
204	0x3e0abf3b	0.13549511
205	0x3d85f983	0.06541731
206	0xbd186c11	-0.037212435
207	0x3d85cbe8	0.06533033
208	0xbd4c4246	-0.04986789
209	0x3dcf9a88	0.10136896
210	0xbd5ada86	-0.053431056
211	0x3e04da11	0.1297381
212	0xbd4165d3	-0.047216248
213	0xbe09d63c	-0.1346063
214	0x3e27f85b	0.16403334
215	0xbd5d3914	-0.054009512
216	0x3e1493ea	0.1450955
217	0xbc4d6ded	-0.012538415
218	0x3e11e2e1	0.14246704
219	0x3e5fa284	0.21839339
220	0x3d83b2b7	0.064305715
221	0x3e9f51d9	0.31117132
222	0x3dc56d3f	0.09639978
223	0x3dc08992	0.094012395
224	0xbd3cc02c	-0.046081707
225	0xbe05ccb2	-0.13066366
226	0xbdf0195a	-0.117235854
227	0xbd19d8f0	-0.037560403
228	0x3e10fc24	0.14158684
229	0xbc948304	-0.01812888
230	0x3d97e8bf	0.0741744
231	0xbdaac3ae	-0.08338104
232	0x3dc4d954	0.096117646
233	0x3d08922e	0.033342533
234	0xb9f1a0d7	-0.00046086937
235	0x3d55dc5d	0.052212108
236	0x3ba6800c	0.0050811823
237	0x3cc7eedb	0.024405887
238	0x3e06a9af	0.13150667
239	0x3e2e0448	0.1699382
240	0x3d92ec72	0.071740046
241	0xbccca4c4	-0.02498091
242	0xbc07fff0	-0.008300766
243	0x3d91bd52	0.07116188
244	0x3e638ece	0.22222444
245	0xbe02d634	-0.12777025
246	0xbd3548f1	-0.044259015
247	0xbc3bc6f7	-0.011461011
248	0x3ccb378e	0.024806764
249	0xbcf1eb51	-0.029531153
250	0xbabc8f8f	-0.0014386046
251	0x3b8cfefd	0.004302858
252	0xbdfad414	-0.12247482
253	0xbd13b5b6	-0.036061965
254	0x3dfa8cb6	0.1223387
255	0xbda5ceff	-0.08096122

rnn.bias_hh_l0 f4 [256]
0	0xbd9389f0	-0.07204044
1	0x3d8f1029	0.06985504
2	0xbd88fe39	-0.06689114
3	0xbc07936e	-0.008274896
4	0xbc2e6377	-0.010643831
5	0xbd94576a	-0.072432354
6	0xbe1f740b	-0.1557161
7	0xbc857fc6	-0.016296279
8	0xbd0d5bb3	-0.03451128
9	0x3e2fbc3d	0.17161651
10	0xbd3b1e68	-0.045683295
11	0xbd963318	-0.07333964
12	0xbd2ae375	-0.041720826
13	0xbd9649e1	-0.0733831
14	0xbd4d8f22	-0.05018533
15	0x3db9e133	0.090761565
16	0xbd6a29c4	-0.057168737
17	0x3d51321e	0.051073186
18	0x3e48876a	0.19582906
19	0x3cb414de	0.021982607
20	0xbe2adc45	-0.16685589
21	0xbe514ede	-0.20440242
22	0xbcf72c10	-0.030172378
23	0xbe2c89d6	-0.16849455
24	0x3dfa900c	0.12234506
25	0xbbf10575	-0.007355387
26	0x3dadcf0c	0.08486757
27	0x3d4e8126	0.050416134
28	0x3d7b83b8	0.061404914
29	0x3e0976bb	0.13424198
30	0x3dbd3f9b	0.092406474
31	0xbde89bc0	-0.11357832
32	0x3ceed0df	0.029152332
33	0x3d63b720	0.055594563
34	0xbe396a81	-0.18107034
35	0xbd256d11	-0.040387217
36	0x3d18a8d1	0.03727037
37	0x3d323427	0.043506768
38	0xbdc1bdab	-0.094600044
39	0xbe0e8d86	-0.13921174
40	0x3e7a30c7	0.2443267
41	0xbdbd27bf	-0.092360966
42	0x3e56d6eb	0.20980422
43	0xbd69a1ee	-0.057039194
44	0x3d2b6539	0.04184458
45	0x3e49ec06	0.19718942
46	0xbd12a600	-0.03580284
47	0xbd57868e	-0.052618556
48	0x3e714b6c	0.23563927
49	0xbd89f757	-0.067366295
50	0xbd188047	-0.03723171
51	0x3de1295e	0.10994218
52	0x3deeb3ed	0.11655412
53	0xbdb7efa9	-0.089812584
54	0xbd42863d	-0.0474913
55	0x3d584523	0.05280031
56	0xbe26e118	-0.16296804
57	0x3afbc165	0.0019207416
58	0x3d1a794e	0.03771334
59	0x3d434f24	0.047682896
60	0xbe384ab5	-0.17997248
61	0xbde5c808	-0.112197936
62	0x3dbd9dd9	0.09258623
63	0x3d9db29e	0.07700084
64	0x3dbd3592	0.09238733
65	0x3de95b85	0.11394409
66	0xbdcfcf63	-0.10146978
67	0xbcad6e01	-0.021170618
68	0x3e3c51e4	0.18390614
69	0xbe1c65d2	-0.15273216
70	0xbba56e75	-0.005048568
71	0x3dc70558	0.09717816
72	0x3c64fcb4	0.013976265
73	0xbc3451bc	-0.011005815
74	0x3dc2090f	0.09474384
75	0xbc8bb616	-0.017054599
76	0xbdbabd36	-0.0911812
77	0xbd6c072e	-0.057624035
78	0xbda6d37a	-0.08145805
79	0xbdfe2a9c	-0.12410471
80	0x3e37823e	0.17920777
81	0x3e98193d	0.29706755
82	0x3cade5de	0.021227773
83	0xbe0ab8c1	-0.1354704
84	0xb980d17b	-0.00024570138
85	0x3d104e07	0.035230663
86	0x3d8d4c4c	0.06899318
87	0xbd511954	-0.051049545
88	0xbdf3936e	-0.11893354
89	0xbe08ce76	-0.13360009
90	0x3e932987	0.2874262
91	0xbce1b2b9	-0.027551042
92	0x3d672629	0.056432877
93	0xbe3c08ea	-0.18362775
94	0xbd9f15ce	-0.07767831
95	0xbd8ad8ab	-0.067796074
96	0xbdd09ae2	-0.101857916
97	0xbd3e8d14	-0.04652126
98	0x3ba679d5	0.0050804415
99	0x3dab383f	0.083603375
100	0x3d857b68	0.065176785
101	0x3bd22e1f	0.0064141895
102	0xbe13d51b	-0.14436762
103	0x3dbcc5d7	0.092174225
104	0x3c7f587b	0.01558506
105	0x3d1caaf9	0.03824899
106	0xbd94f29d	-0.07272837
107	0x3e63979a	0.222258
108	0xbdd2d15c	-0.102938384
109	0xbdd1d320	-0.10245347
110	0xbd80c15e	-0.06286882
111	0x3e0d08b2	0.13772848
112	0x3d26d75c	0.040732726
113	0x3dab2e01	0.08358384
114	0xbd5b511c	-0.05354415
115	0x3e14b978	0.14523876
116	0x3d91c982	0.07118513
117	0xbe1351b9	-0.14386643
118	0x3e0ba3c2	0.13636687
119	0xbdc56506	-0.09638409
120	0x3e8d5ed3	0.27611408
121	0x3e2c0a32	0.16800764
122	0xbd5519b3	-0.05202646
123	0xbc4ce988	-0.01250685
124	0xbd1c505e	-0.03816258
125	0x3d51a1ab	0.05117957
126	0x3e4cdefb	0.20006935
127	0xbe05b2cc	-0.13056487
128	0xbde81c75	-0.11333553
129	0x3cd23245	0.025658736
130	0xbdd97689	-0.10618312
131	0x3de053ef	0.10953509
132	0xbd46e7e2	-0.048560984
133	0x3c0c64a6	0.008568918
134	0x3d77f6b0	0.060537994
135	0xbd9ecc27	-0.07753783
136	0x3d118074	0.035522893
137	0xbc5273d9	-0.012845003
138	0x3d8b44e2	0.06800248
139	0x3d3986fa	0.04529474
140	0xbd05f01f	-0.0326997
141	0xbca50e90	-0.020148546
142	0x3ca641cd	0.020295048
143	0x3d9c9329	0.07645256
144	0xbd9bc1fb	-0.07605358
145	0xbdca0071	-0.098633654
146	0x3cef11d5	0.029183308
147	0xbc592bac	-0.013255041
148	0xbdbfd3a9	-0.09366543
149	0xbdb44d75	-0.08803836
150	0x3d6b620c	0.05746655
151	0xbd3141e6	-0.043275736
152	0xbcd32e09	-0.025778787
153	0xbc0b0f6c	-0.008487564
154	0xba4d332f	-0.00078277563
155	0xbdd49870	-0.10380638
156	0xbd0c9d8f	-0.034329947
157	0x3db54a7c	0.088520974
158	0xba04df92	-0.0005068715
159	0x3d434f70	0.04768318
160	0xbd2dec92	-0.04246194
161	0xbdabefb0	-0.08395326
162	0xbd39afbf	-0.04533362
163	0x3d72c830	0.059272945
164	0x3d5d0ab9	0.053965304
165	0x3dac11a2	0.08401801
166	0x3cfecde4	0.031104036
167	0x3c9b481c	0.018955283
168	0x3d6d4199	0.057923887
169	0xbd351d11	-0.044217173
170	0x3d0f4f61	0.03498781
171	0x3d815fc2	0.063170925
172	0xbc1c5f4f	-0.009544208
173	0xbd74eb1a	-0.059794523
174	0x3ca825c7	0.020525826
175	0xbd54b6c7	-0.051932123
176	0x3cdbb1fe	0.026818272
177	0x3d6a4563	0.05719508
178	0x3c4d1b89	0.012518772
179	0x3becb596	0.007223795
180	0xbd89fb0e	-0.06737338
181	0xbc4c76ff	-0.012479543
182	0xbd99e4b2	-0.07514323
183	0x3b46926a	0.0030299672
184	0x3d7f06f5	0.062262494
185	0xbc9cabc6	-0.019124877
186	0xbd7efd00	-0.062253
187	0x3b73bcdf	0.0037191433
188	0x3d7f0340	0.06225896
189	0x3d359730	0.044333637
190	0xbd9af40d	-0.0756608
191	0x3d3fb81d	0.046806443
192	0x3dc1f27d	0.09470079
193	0x3cfe613d	0.031052226
194	0xbbcc4cf6	-0.0062347604
195	0x3dece09d	0.11566279
196	0xbe2c97f3	-0.16854839
197	0xbd1335ea	-0.03594009
198	0x3d9a6dc2	0.07540466
199	0x3ddccdda	0.107814506
200	0x3dfc721b	0.123264514
201	0xbaae7f02	-0.0013312998
202	0x3ae5d671	0.0017535222
203	0x3daaeee3	0.08346345
204	0x3e31a566	0.17348251
205	0x3e0857ad	0.13314696
206	0x3ca888e2	0.020573083
207	0x3df9b8ac	0.121934265
208	0x3e07357b	0.13203995
209	0x3c15f485	0.009152536
210	0x3d13f9d7	0.036126938
211	0x3d7e25ec	0.062047884
212	0xbd6fa5ff	-0.058507916
213	0xbdddc501	-0.10828591
214	0x3d49b670	0.04924625
215	0xbdf78ca5	-0.12087373
216	0x3d7a1096	0.061050974
217	0xbde64baf	-0.11244904
218	0x3c78c56e	0.01518379
219	0x3dd895f6	0.10575478
220	0x3dcf2f0b	0.101163946
221	0x3ecf0d1d	0.40439692
222	0x3d968df7	0.073512964
223	0x3d349158	0.044083923
224	0x3d450c2b	0.048107307
225	0xbd6b9ec6	-0.057524465
226	0xbd1fce02	-0.039014824
227	0xbd6af98e	-0.0573669
228	0x3e4e387b	0.20138733
229	0xbd6b741c	-0.057483777
230	0xbddee023	-0.108825944
231	0x3c0dfa1d	0.008665589
232	0x3e6960db	0.22790854
233	0xbbb9c5a6	-0.0056693135
234	0x3da1a0a6	0.078919694
235	0x3c94fb27	0.018186165
236	0x3d6bdb1f	0.057582017
237	0x3d0b2257	0.033968296
238	0xbdaabaa0	-0.08336377
239	0xbd6e2517	-0.05814084
240	0x3e14c9f5	0.14530165
241	0x3df3a618	0.11896914
242	0x3b53f5c8	0.0032342542
243	0xbd9a18ee	-0.07524286
244	0x3e739621	0.23787738
245	0xbdbd7547	-0.092508845
246	0xbe50d97e	-0.20395467
247	0xbc90ab73	-0.017659878
248	0xbd8b083b	-0.06788679
249	0x3e0d1d64	0.13780743
250	0xbd80f94d	-0.0629755
251	0xbde84581	-0.11341382
252	0xb9c31379	-0.00037207807
253	0xbd9443c1	-0.072394855
254	0xbc54a617	-0.012979052
255	0xbdf001ec	-0.117191166

rnn.weight_ih_l1 f4 [256, 64]
0	0x3bbad9e4	0.005702244
1	0x3e4eb265	0.2018524
2	0x3c6335a3	0.013867768
3	0x3cd3bd9e	0.025847252
4	0xbd5fd29f	-0.054644223
5	0x3dd0a91f	0.10188507
6	0xbd9005ac	-0.07032332
7	0x3c7453f7	0.014912597
8	0x3dd5b1ab	0.10434278
9	0xbe140499	-0.14454879
10	0xbe15bba4	-0.1462236
11	0x3d6f6471	0.058445398
12	0xbc021c55	-0.007941325
13	0x3cf69c40	0.030103803
14	0x3e184a07	0.14871989
15	0xbbe01137	-0.0068379897
16	0x3e2c517b	0.16827957
17	0xbe2a5802	-0.16635135
18	0xbe04d224	-0.12970787
19	0x3de41099	0.11135978
20	0xbbd68cc6	-0.006547543
21	0x3d483197	0.048875418
22	0xbd3a6940	-0.04551053
23	0xbd849be9	-0.0647505
24	0xbd96de6a	-0.07366641
25	0x3ce387ad	0.027774656
26	0xbe4df5b8	-0.20113266
27	0x3bffbbde	0.007804378
28	0x3e69d2bf	0.228343
29	0x3e3c4918	0.18387258
30	0x3e1e74e5	0.15474279
31	0x3e4503e3	0.19239764
32	0x3df8c9e6	0.12147884
33	0x3d8ea2dd	0.069646575
34	0xbdfe5cb4	-0.124200255
35	0xbdc441d7	-0.095828705
36	0xbd4bceec	-0.049757883
37	0xbe15a633	-0.14614181
38	0x3d07cf33	0.033156585
39	0xbdac32f6	-0.084081575
40	0x3e6defbd	0.23235984
41	0x3ddddf14	0.108335644
42	0x3deefecd	0.11669693
43	0x3e20c272	0.15699175
44	0xbd6bac2f	-0.057537254
45	0x3d1ea9ad	0.038736034
46	0x3dd0c0b4	0.10193005
47	0xbe4e53b0	-0.20149112
48	0x3cc1e788	0.023669973
49	0xbd00cb3b	-0.031443816
50	0xbe1f9df8	-0.15587604
51	0xbe491d76	-0.19640145
52	0xbb1de243	-0.0024091161
53	0xbd8835ed	-0.066509105
54	0x3d9cb950	0.07652533
55	0x3e71f934	0.2363022
56	0xbc83d560	-0.016092956
57	0x3e2ee8f9	0.1708106
58	0xbc946465	-0.018114278
59	0x3d457963	0.048211467
60	0xbd8a8d72	-0.0676526
61	0xbb526f9f	-0.0032109988
62	0x3e58f201	0.21186067
63	0xb96577a0	-0.00021883706
64	0x3bd201d4	0.0064089093
65	0x3ce02d37	0.02736531
66	0xbe21b19f	-0.15790413
67	0x3e69cf61	0.22833015
68	0x3d292632	0.04129619
69	0xbd7abb2d	-0.06121366
70	0x3e9057fb	0.28192124
71	0x3e0824c5	0.13295276
72	0xbe16dab8	-0.14731872
73	0x3df9bf44	0.12194684
74	0xbe0b2dfa	-0.13591757
75	0x3e769493	0.24080114
76	0xbb2d6bba	-0.0026461915
77	0x3d2f450a	0.04279045
78	0x3e19dfab	0.15026729
79	0x3bb791d7	0.0056021023
80	0x3dcb356b	0.09922298
81	0xbdc1ddf6	-0.09466164
82	0xbcc25b9b	-0.023725322
83	0xbc89742b	-0.016779026
84	0xbddcce11	-0.107814915
85	0x3d9dcea6	0.07705431
86	0xbe59c057	-0.21264778
87	0xbc8cad5a	-0.017172504
88	0xbd73bfce	-0.05950909
89	0xbe5ccb19	-0.2156185
90	0xbcf4d158	-0.02988498
91	0x3e1cf59c	0.15328068
92	0xbe60fdf8	-0.21971881
93	0xbe1f0ebb	-0.15532963
94	0xbed4e431	-0.41580346
95	0x3d2e04e4	0.042485133
96	0xbd1815ea	-0.037130274
97	0x3db37763	0.087630056
98	0x3ce8c3bc	0.028413646
99	0x3e1805c0	0.14845943
100	0x3d27608a	0.04086355
101	0x3dd531a9	0.104098625
102	0x3db43fa5	0.08801202
103	0xbc79d850	-0.015249327
104	0x3e3b135a	0.18269101
105	0xbc7edfc7	-0.015556282
106	0xbce63ea7	-0.028106047
107	0x3da0c4ba	0.078500226
108	0x3e273acc	0.16331023
109	0xbe86a39c	-0.262967
110	0x3e5297ad	0.20565672
111	0x3d704968	0.058663756
112	0xbd37bc9d	-0.04485761
113	0x3d1fa30a	0.038973846
114	0xbcbbae6a	-0.022910316
115	0xbb15b3fd	-0.0022842877
116	0xbdc1c064	-0.09460524
117	0xbdd02943	-0.1016412
118	0xbe90a9ec	-0.2825464
119	0x3c4573ac	0.012051504
120	0xbbf7a127	-0.0075570527
121	0x3d9c6f08	0.07638365
122	0xbd56a3d3	-0.05240233
123	0x3d753c13	0.059871744
124	0x3d61fbaa	0.055171646
125	0xbe19842b	-0.14991824
126	0xbd60f883	-0.0549245
127	0xbdc00a87	-0.09377008
128	0x3e22500f	0.15850852
129	0xbdd50b80	-0.10402584
130	0xbc2f7dc5	-0.010711138
131	0x3b1bd4c6	0.0023777946
132	0x3c6befff	0.014400481
133	0x3d338be5	0.043834586
134	0xbd2d07da	-0.042243816
135	0x3d503040	0.050827265
136	0x3d8df456	0.06931369
137	0x3e50de4d	0.20397301
138	0xbe54b94c	-0.2077381
139	0x3d8d1550	0.06888831
140	0xbd33cb33	-0.043894958
141	0xbe2f96c9	-0.17147364
142	0x3d59a21a	0.053133108
143	0xbde3527b	-0.11099716
144	0x3d5cee8d	0.053938437
145	0xbc0624bf	-0.008187472
146	0xbca2a27e	-0.019852873
147	0xbdeedd82	-0.11663343
148	0xbca3a238	-0.019974813
149	0xbd1b2de7	-0.037885573
150	0xbe1b799f	-0.15183114
151	0x3dbe2343	0.092840694
152	0xbe89f1b2	-0.2694221
153	0x3dcb4b6c	0.09926495
154	0xbd2e6812	-0.042579718
155	0xbdcc2bb9	-0.09969277
156	0x3d44769a	0.04796467
157	0xbdaad762	-0.08341862
158	0x3d1f5334	0.038897708
159	0xbe8b8372	-0.27248722
160	0xbd203ebe	-0.039122336
161	0xbcd6f84f	-0.02624145
162	0x3d6c2b8e	0.057658724
163	0x3d33109a	0.043717004
164	0xbdaa04a2	-0.08301665
165	0x3d4eb108	0.0504618
166	0x3e0a2b83	0.13493161
167	0x39a4f075	0.00031459672
168	0x3d18f761	0.037345294
169	0xbc9338c7	-0.01797141
170	0xbe552558	-0.20815027
171	0x3d817565	0.06321219
172	0xbe1badea	-0.15203062
173	0xbe1fb084	-0.15594679
174	0xbd4579cd	-0.04821186
175	0xbcb87711	-0.022517713
176	0x39760f14	0.00023466005
177	0x3e07817d	0.1323299
178	0x3d5f2968	0.054482847
179	0x3db9f1ce	0.09079324
180	0x3d7a664d	0.061132718
181	0x3d1adb49	0.037806783
182	0xbe20ca2e	-0.15702125
183	0x3e4ff963	0.20309977
184	0x3d3e3622	0.046438344
185	0xbe0ab6b7	-0.13546263
186	0xbe20746b	-0.1566941
187	0x3e07a38b	0.1324598
188	0x3d8671e1	0.065646894
189	0x3dfb5cdc	0.12273571
190	0x3e418be3	0.18901019
191	0xbc2a421d	-0.010391739
192	0x3e17129a	0.1475319
193	0x3db1a9fa	0.086749986
194	0xbd756ac5	-0.059916276
195	0x3d8af252	0.067845
196	0x3d31092d	0.04322164
197	0x3d3a3e2b	0.045469444
198	0x3d36aa62	0.044596083
199	0x3dd91b67	0.1060093
200	0xbd7b678c	-0.061378047
201	0xbc38f7e2	-0.011289569
202	0x3d87922f	0.06619679
203	0xbdbfa483	-0.0935755
204	0xbd194022	-0.037414677
205	0xbd1f159b	-0.038838964
206	0x3d1ecb90	0.03876835
207	0xbd5ae3a1	-0.05343974
208	0x3ceed08b	0.029152175
209	0x3cd36dc6	0.02580918
210	0xbd9fa8c1	-0.07795859
211	0x3cedc917	0.029026551
212	0xbcae798a	-0.021298189
213	0xbd55e903	-0.05222417
214	0xbdd095d9	-0.10184831
215	0xbe1c5c02	-0.15269473
216	0x3c059497	0.008153102
217	0x3c83b284	0.016076334
218	0xbe0411cf	-0.12897418
219	0x3c0e9947	0.008703536
220	0xbd03a699	-0.0321413
221	0x3dd739de	0.10509084
222	0x3cdd6b98	0.027028844
223	0x3afe5863	0.0019405003
224	0x3dc19cf5	0.09453765
225	0x3df3f36d	0.11911664
226	0xbc1a8912	-0.009432094
227	0xbd3f5939	-0.04671595
228	0x3beb1300	0.007173896
229	0xbda7fd75	-0.0820264
230	0xbb9a6479	-0.0047116843
231	0xbcacedd5	-0.0211095
232	0xbe0d8f4c	-0.13824195
233	0x3d063ba3	0.032771718
234	0xbca6d82f	-0.020366756
235	0x3db10423	0.08643367
236	0x3d52c04f	0.05145293
237	0x3db38eae	0.08767448
238	0x3dceefba	0.10104318
239	0xbd817859	-0.063217826
240	0x3d8a5223	0.067539476
241	0xbd0497bb	-0.032371264
242	0x3dc88fd7	0.0979306
243	0xbba60b74	-0.0050672833
244	0xbdafec53	-0.08589997
245	0x3e17bcb0	0.14818072
246	0x3dbae6e8	0.09126073
247	0x3e0ce880	0.13760567
248	0xbd67f0c4	-0.056626096
249	0xbdc59a8e	-0.096486196
250	0x3cef01c3	0.029175645
251	0x3d1ac54b	0.03778581
252	0x3d2a8c43	0.04163767
253	0xbd4b395f	-0.04961526
254	0x3d4123fb	0.047153454
255	0xbda6ddbd	-0.08147762

rnn.weight_hh_l1 f4 [256, 64]
0	0xbcb50859	-0.022098707
1	0x3e0e97aa	0.13925043
2	0x3dfb1440	0.12259722
3	0x3d96fffc	0.07373044
4	0x3e018a41	0.12650396
5	0x3d82fff1	0.06396473
6	0xbe074ee1	-0.13213684
7	0x3d8db9ef	0.0692023
8	0xbd034a59	-0.032053325
9	0x3d179f25	0.037017006
10	0x3e0a77d3	0.13522272
11	0x3e355bb1	0.17710759
12	0x3e469934	0.1939438
13	0xbe3fd68c	-0.18734187
14	0x3e8f657d	0.28007117
15	0xbd575043	-0.052566778
16	0x3e5a45d0	0.21315694
17	0xbcbc3ea5	-0.02297909
18	0xbdb207bd	-0.08692882
19	0x3ddc3ea8	0.10754138
20	0xbd632bc9	-0.05546168
21	0x3d752422	0.059848912
22	0x3da12524	0.07868412
23	0xbe7e2eb6	-0.24822506
24	0xbe4e5b9f	-0.20152138
25	0x3d3a75ae	0.045522384
26	0x3e573834	0.21017534
27	0x3d78f965	0.060784716
28	0x3e72ff27	0.23730145
29	0xbadfe368	-0.0017081322
30	0xbd2e4f2b	-0.04255597
31	0xbda7aa42	-0.08186771
32	0x3cd2c521	0.025728764
33	0xbe21fb56	-0.15818533
34	0xbe42d835	-0.19027789
35	0x3cb79bf0	0.022413224
36	0xbddb255b	-0.10700484
37	0xbdb26493	-0.08710589
38	0xbdb3a8ee	-0.08772455
39	0xbc375bee	-0.011191351
40	0x3e0930af	0.13397478
41	0x3e13014f	0.14355968
42	0xbdd69579	-0.104777284
43	0x3d9864b9	0.07441086
44	0x3dce54c5	0.10074762
45	0xbe5b2ea5	-0.21404512
46	0x3d85a18f	0.065249555
47	0xbe12847d	-0.14308353
48	0x3e97dfc4	0.29662907
49	0xbda3abbe	-0.079917416
50	0x3dcab3f6	0.09897606
51	0x3d8a4a56	0.0675246
52	0x3c8c8ec6	0.017157923
53	0xbe1c3f06	-0.15258417
54	0xbe4f3fea	-0.20239225
55	0x3d3a3a3a	0.045465685
56	0x3e35fc44	0.17772013
57	0x3ddcec0c	0.1078721
58	0x3c2f7317	0.010708592
59	0xbd47afca	-0.04875163
60	0x3e8cc4e4	0.27493966
61	0xbdb6d013	-0.08926406
62	0x3e040d12	0.12895611
63	0xbcbc1217	-0.022957845
64	0x3d6e4212	0.05816848
65	0xbcb58d39	-0.022162067
66	0x3d9cafbd	0.07650707
67	0xbdb79d35	-0.08965532
68	0xbc31823e	-0.010834275
69	0xbd7710c9	-0.060318742
70	0x3e09e7eb	0.13467376
71	0x3cd0ed17	0.025503678
72	0x3e18db49	0.149274
73	0x3e5a2c4b	0.21305959
74	0x3c798cd1	0.015231327
75	0x3e545fa9	0.20739616
76	0x3cf480f2	0.029846642
77	0x3e3fbf69	0.18725361
78	0x3c165880	0.0091763735
79	0xbd43d785	-0.047812957
80	0x3de4fad9	0.11180658
81	0x3dd60882	0.104508415
82	0x3dc5cd76	0.09658329
83	0x3d8e15e6	0.069377705
84	0xbe4b633f	-0.19862078
85	0x3e0f6e7b	0.14006989
86	0xbc58ce56	-0.013232788
87	0xbe3e74ab	-0.18599193
88	0x3d9850b2	0.074372664
89	0xbe1cf5ae	-0.15328094
90	0xbcb6904e	-0.022285607
91	0xbe46abc4	-0.19401461
92	0xbdad4a5e	-0.0846145
93	0x3e13e879	0.1444415
94	0xbe28888b	-0.16458337
95	0xbce76d5e	-0.028250393
96	0xbd209716	-0.039206587
97	0xbe49541b	-0.1966099
98	0x3d68cd6e	0.056836538
99	0xbd35e357	-0.04440626
100	0x3dd929d2	0.1060368
101	0xbe4dc731	-0.20095517
102	0x3b94b15b	0.004537744
103	0x3d669ddd	0.056302894
104	0x3e130e92	0.14361027
105	0x3d979200	0.07400894
106	0x3d52d429	0.051471863
107	0x3dab6fd6	0.083709404
108	0xbcb4f3d5	-0.022088924
109	0xbd8731ee	-0.0660132
110	0xbe80ba02	-0.25141913
111	0x3d681e6f	0.05666965
112	0x3cbede70	0.023299426
113	0xbdefa9c1	-0.117023
114	0xbd49b3f9	-0.0492439
115	0x3de96f70	0.11398208
116	0xbdcbb46a	-0.099465206
117	0x3ad699ce	0.0016372742
118	0xbdb5c2e7	-0.08875065
119	0x3de4df84	0.11175445
120	0x3c85e2c7	0.016343487
121	0x3e031496	0.12800822
122	0xbe10843a	-0.1411294
123	0x3d35b207	0.044359233
124	0x3d4b5f8a	0.04965166
125	0x3dc72f6d	0.097258426
126	0xbe54c104	-0.20776755
127	0xbcb46c71	-0.022024365
128	0xbdc2a14b	-0.095034204
129	0xbe0f0e35	-0.13970263
130	0x3b9bf1f5	0.004759068
131	0x3de2f514	0.11081901
132	0x3d52d7ed	0.051475454
133	0xbe13a4b7	-0.14418302
134	0xbcca02ef	-0.024659602
135	0x3d7a72d0	0.06114465
136	0x3e3af8e7	0.18259011
137	0xbdfbd298	-0.12296027
138	0xbd92bbd5	-0.07164732
139	0x3e2e3856	0.17013678
140	0xbcba333f	-0.022729514
141	0x3e05ad7c	0.1305446
142	0x3db1f3e5	0.08689097
143	0xbe34468c	-0.17605036
144	0xbd1fdc25	-0.039028306
145	0x3dc32d74	0.09530154
146	0xbdb6b9ea	-0.08922179
147	0x3c3adfc2	0.011405887
148	0xbc2e82f1	-0.010651336
149	0xbdf6a791	-0.120436795
150	0xbe07e5c9	-0.1327125
151	0xbd49e6b6	-0.04929229
152	0xbe28572b	-0.16439502
153	0xbe461424	-0.1934362
154	0xbdcad272	-0.099034205
155	0xbd4ca982	-0.049966343
156	0xbe3223ad	-0.17396422
157	0x3e08b928	0.13351882
158	0xbc3f34b5	-0.011670281
159	0xbe0b7f61	-0.1362281
160	0xbdc9165e	-0.09818719
161	0x3e4418bd	0.19150062
162	0xbe2be4eb	-0.16786544
163	0x3b2c43fc	0.002628564
164	0x3be58851	0.0070047756
165	0x3c1bbb63	0.009505126
166	0xbd02baf6	-0.03191658
167	0xbc730fdd	-0.014835325
168	0x3d8f70e6	0.070039555
169	0xbe19b3c1	-0.15009977
170	0xbd111785	-0.03542282
171	0xbd8b7c64	-0.06810835
172	0x3e02e61b	0.12783091
173	0x3d9ad35a	0.07559843
174	0xbe3b2351	-0.18275191
175	0x3c9efe69	0.019408422
176	0xbca64d3f	-0.020300506
177	0xbd4ca10c	-0.049958274
178	0xbd372a13	-0.04471786
179	0xbdd93b6c	-0.10607037
180	0x3da1c6ff	0.078992836
181	0x3be5f640	0.0070178807
182	0x3cc6e5b4	0.024279453
183	0x3cc92576	0.024553996
184	0x3dacd13e	0.08438347
185	0xbe29e9ae	-0.16593048
186	0xbcf5add7	-0.02999012
187	0x3bfb728d	0.0076735676
188	0xbd953406	-0.07285313
189	0xbb8af8cb	-0.004241084
190	0x3e03c7ce	0.12869188
191	0x3d828fd1	0.06375087
192	0x3d7a7ae7	0.061152365
193	0x3d99a463	0.075020574
194	0xbb789768	-0.0037932042
195	0x3e045db0	0.12926364
196	0xbad12dc3	-0.0015959073
197	0xbd888f3b	-0.06667944
198	0x3d995dd0	0.074885964
199	0xbc622458	-0.01380261
200	0xbdfa2579	-0.122141786
201	0xbdc93dd2	-0.098262444
202	0x3ddd4eaa	0.108060196
203	0x3dca30bd	0.09872577
204	0x3e3ca127	0.1842085
205	0xbdac6d3f	-0.084192745
206	0x3db41092	0.08792223
207	0xbdf548ef	-0.119768016
208	0xbd76485a	-0.060127594
209	0x3d424824	0.04743208
210	0xbe4f26ee	-0.20229694
211	0xbd64bec2	-0.055845983
212	0xbd113474	-0.035450414
213	0xbe3ff2ad	-0.18744917
214	0x3d577274	0.052599385
215	0x3cf1c018	0.029510543
216	0x3dddaaaa	0.10823567
217	0xbe3e7e87	-0.18602954
218	0xbd6fe836	-0.058571063
219	0x3c6c98c6	0.014440721
220	0x3c9c92d3	0.01911298
221	0xbdbe4346	-0.09290175
222	0xbcec1da8	-0.028822735
223	0xbe81c0d3	-0.25342426
224	0x3dd6c8fc	0.104875535
225	0x3dabba37	0.08385127
226	0x3db9c103	0.09070017
227	0x3d91ff21	0.0712874
228	0x3d147aad	0.036249805
229	0x3c06fce1	0.008239002
230	0xbcf84516	-0.03030638
231	0x3d9d6639	0.07685513
232	0xbe0470dd	-0.12933679
233	0xbde8580d	-0.11344919
234	0x3ceeb794	0.029140271
235	0x3d7e20e6	0.062043093
236	0xbde9e069	-0.11419756
237	0x3d1663d2	0.03671629
238	0x3cbe6138	0.023239717
239	0x3e0691ef	0.13141607
240	0x3e2d6ac3	0.16935258
241	0x3e18542a	0.14875856
242	0xbdf05f8d	-0.11736975
243	0xbdf29cff	-0.11846351
244	0x3dbc3dfb	0.09191509
245	0x3d76ed68	0.060285002
246	0xbd692c8d	-0.056927253
247	0xbe18a4e5	-0.14906652
248	0xbe2a5b63	-0.16636424
249	0xbcb3e8db	-0.02196162
250	0x3e84199a	0.25800782
251	0x3d8631c3	0.0655246
252	0x3d75642e	0.059909992
253	0xbe872c3f	-0.26400945
254	0x3de1ad43	0.11019375
255	0x3df006c8	0.117200434

rnn.bias_ih_l1 f4 [256]
0	0xbce0d1e1	-0.027443828
1	0x3b637c06	0.0034711375
2	0xbe00fbb0	-0.12596011
3	0xbcd045e3	-0.02542395
4	0x3d250d4a	0.040295877
5	0x3b4a904b	0.003090876
6	0xbd376f33	-0.044783782
7	0xbd230c0f	-0.03980642
8	0x3d5afa1b	0.053461175
9	0xbddff0a3	-0.1093457
10	0xbda7c2c3	-0.08191445
11	0x3cb6258a	0.022234697
12	0xbe583600	-0.2111435
13	0x3e5473ec	0.20747346
14	0xbe4a98d9	-0.19784869
15	0x3d096b5d	0.033549655
16	0xbd34b9e4	-0.04412259
17	0xbce2cc55	-0.027685324
18	0xbdc710bb	-0.09719988
19	0xbd80515b	-0.06265517
20	0x3de27483	0.11057379
21	0xbe064f88	-0.13116276
22	0xbc9808d0	-0.01855889
23	0xbdc0cc0c	-0.09413919
24	0xbc40799a	-0.011747742
25	0xbd9a61da	-0.07538195
26	0x3c9d9fcf	0.019241242
27	0xbcbb30cf	-0.022850422
28	0xbd9f1737	-0.077681
29	0x3db41d7e	0.08794688
30	0xbe0113c1	-0.12605192
31	0xbe3f7678	-0.18697536
32	0xbda44e5a	-0.08022757
33	0xbdf21568	-0.11820489
34	0xbd4dcdac	-0.050244972
35	0xbc5bfdc3	-0.013427201
36	0xbcfb8b60	-0.030706108
37	0xbd7364be	-0.059422247
38	0xbb979f50	-0.004627146
39	0x3d04a812	0.032386847
40	0xbe05c4df	-0.13063382
41	0xbd12f3cc	-0.035877034
42	0x3d7af096	0.061264597
43	0xbe1370dc	-0.14398521
44	0x3d8b3d67	0.06798821
45	0xbc8e0a20	-0.017338812
46	0xbe5d71bd	-0.21625419
47	0xbdba9e8e	-0.09112273
48	0xbe34ab44	-0.17643458
49	0xbd7cb1f8	-0.06169316
50	0x3d3ae83b	0.04563163
51	0xbd6c44cb	-0.057682794
52	0x3db4702e	0.08810459
53	0xbdb321ad	-0.087466575
54	0x3d16f10d	0.036850978
55	0xbdab22e4	-0.08356264
56	0xbde43609	-0.11143119
57	0x3db304bc	0.087411374
58	0x3e019f0c	0.12658328
59	0xbe7cd040	-0.24688816
60	0xbd390503	-0.045170795
61	0x3d963842	0.07334949
62	0x3e17d852	0.14828613
63	0x3d5b2a69	0.053507242
64	0xbe573dbb	-0.21019642
65	0xbe697279	-0.22797574
66	0xbd613218	-0.054979414
67	0xbddccca3	-0.10781219
68	0xbd79d57f	-0.06099462
69	0xbd8843f5	-0.06653587
70	0xbcc82e57	-0.024436159
71	0xbdfbce8c	-0.12295255
72	0xbd493801	-0.049125675
73	0xbc8e3c05	-0.017362604
74	0xbd7ce64a	-0.06174306
75	0xbdc25c11	-0.094902165
76	0xbe73b642	-0.23799995
77	0xbc3f6a90	-0.011683121
78	0xbd7ce6ec	-0.06174366
79	0xbe5eb2d8	-0.21747911
80	0xbe515366	-0.2044197
81	0x3da2440a	0.07923134
82	0xbe00848e	-0.12550566
83	0xbcdbd966	-0.026837062
84	0xbdccae50	-0.09994185
85	0xbda573ed	-0.08078752
86	0xbd7455b6	-0.059652053
87	0xbd9b87c9	-0.07594258
88	0xbe04c3e6	-0.12965354
89	0x3e04de69	0.12975468
90	0xbd84884b	-0.06471308
91	0x3d00f098	0.031479448
92	0x3c683132	0.014171885
93	0xbc2c4ad7	-0.01051589
94	0xbde47b8b	-0.111563765
95	0xbe15c3bb	-0.14625446
96	0x3be59b35	0.0070070275
97	0x3cf3ed94	0.029776372
98	0xbdb70cc4	-0.08937982
99	0xbc104875	-0.008806338
100	0xbe1b61fb	-0.15174095
101	0xbdb96c86	-0.09053902
102	0xbddfc4de	-0.10926221
103	0x3d871430	0.06595647
104	0xbd6e9711	-0.058249537
105	0x3d7565d3	0.05991156
106	0xbe100137	-0.14062963
107	0xbe187aba	-0.14890566
108	0xbe3f4a27	-0.1868063
109	0xbd194f97	-0.03742942
110	0x3c9dfaa6	0.019284558
111	0xbdf0daf1	-0.1176051
112	0x3d660ccd	0.05616455
113	0xbd8fff72	-0.07031144
114	0xbd86ea15	-0.06587616
115	0x3ceaf0bb	0.028679242
116	0xbe57e234	-0.21082383
117	0xbcb4c6ec	-0.02206751
118	0xbd8ffd4a	-0.07030733
119	0xbdeb41f8	-0.11487192
120	0xbb1cd93c	-0.0023933193
121	0xbd4b020b	-0.049562495
122	0xbdd02927	-0.10164099
123	0xbe048377	-0.12940775
124	0xbe2d172c	-0.1690337
125	0xbdb754e3	-0.08951738
126	0xbe6f74b8	-0.23384368
127	0xbd0d7e78	-0.034544438
128	0x3c48d5e2	0.012258025
129	0x3c0c66aa	0.008569399
130	0x3e001471	0.12507798
131	0xbd6637a5	-0.05620541
132	0x3dcf49ea	0.1012152
133	0xbd94c756	-0.07264583
134	0xbdddcc30	-0.10829961
135	0x3d4b91a9	0.04969946
136	0xbd88ea71	-0.06685341
137	0x3d32437f	0.0435214
138	0xbd192cd8	-0.037396282
139	0xbd90ae22	-0.07064463
140	0xbdec9ef6	-0.11553757
141	0xbce8a729	-0.02840002
142	0x3db01a54	0.08598772
143	0xb9dc64d9	-0.00042036807
144	0xbd74749c	-0.05968152
145	0xbdd15c92	-0.102227345
146	0xbcba0722	-0.02270848
147	0xbdb4f584	-0.08835891
148	0x3be6b4c1	0.0070405905
149	0xbc746759	-0.014917218
150	0x399d5b11	0.00030013223
151	0x3da0e19a	0.0785553
152	0x3dc577f0	0.09642017
153	0x3df0ffee	0.11767565
154	0xbd8fb404	-0.07016757
155	0x3d68c3f6	0.056827508
156	0xbac722ae	-0.001519283
157	0x3beb57bd	0.00718209
158	0xbd680bc2	-0.056651838
159	0x3d0ed532	0.034871288
160	0xbc8d6015	-0.01725773
161	0xbd7ef509	-0.062245402
162	0xbd78a5ab	-0.06070487
163	0xbd27675e	-0.040870063
164	0x3a99aa0f	0.0011723655
165	0xbc94330b	-0.018090745
166	0x3dd3a09f	0.103333704
167	0xbd9bb789	-0.07603366
168	0x3d40a26a	0.04702989
169	0x3da26321	0.079290636
170	0x3cd53476	0.026025992
171	0xbcfd41fc	-0.030915253
172	0x3cc57973	0.024105763
173	0x3d5f3b7b	0.054500084
174	0x3c2dd503	0.010609868
175	0xbd368320	-0.044558644
176	0x3c51cfe8	0.012805916
177	0x3dae8810	0.085220456
178	0x3de8aa66	0.11360626
179	0x3dfe6ad7	0.12422722
180	0x3e37c485	0.1794606
181	0xbd3c58e8	-0.045983225
182	0x3dab8f33	0.083769225
183	0xbd9b1f23	-0.07574298
184	0x3c2d491b	0.010576512
185	0xbc160ab0	-0.009157822
186	0x3c48c988	0.01225508
187	0x3c8b1dae	0.016981926
188	0xbd66e436	-0.056369983
189	0xbc734120	-0.01484707
190	0xbd8c1a5c	-0.06840965
191	0x3d9e51bf	0.077304356
192	0xbdf0bd03	-0.11754801
193	0xbdda6fe5	-0.106658734
194	0xbe1eb87e	-0.15500066
195	0xbcc54192	-0.024079118
196	0xbd472cb9	-0.048626635
197	0xbd49e1fb	-0.049287777
198	0x3b484984	0.0030561397
199	0xbe2cb9ee	-0.16867802
200	0xbd32bbef	-0.04363626
201	0xbd3ac9bc	-0.045602545
202	0xbe51fb42	-0.20506003
203	0x3a57cbff	0.0008231997
204	0xbe64f845	-0.22360332
205	0x3e265033	0.16241531
206	0xbe6c68c3	-0.23086838
207	0x3d836014	0.0641481
208	0xbe01fc4c	-0.126939
209	0xbe0cfa97	-0.13767467
210	0x3d41c7a9	0.04730955
211	0xbd9b9821	-0.07597376
212	0xbd1a5713	-0.037680697
213	0xbe7981a0	-0.24365854
214	0xbe17a452	-0.14808777
215	0xbe3e0703	-0.18557362
216	0xbdd2fc0c	-0.103019804
217	0xbd9d1ee6	-0.07671909
218	0x3d19ae0c	0.0375195
219	0xbd422fe6	-0.04740896
220	0xbdf2e5b7	-0.11860221
221	0xbd74056e	-0.05957549
222	0xbc1bce6b	-0.009509663
223	0x3ccf5084	0.025306948
224	0xbdfc12c7	-0.12308269
225	0xbcbb8d73	-0.022894597
226	0x3d157911	0.03649241
227	0xbe12c6b0	-0.14333606
228	0xbd2ac05a	-0.041687347
229	0xbd91e06b	-0.071228825
230	0x3dd8c473	0.10584345
231	0xbd076a5e	-0.033060424
232	0xbe006180	-0.12537193
233	0xbd5cbb85	-0.05388977
234	0xbdb70cec	-0.089380115
235	0xbe3abc23	-0.18235831
236	0x3bf6585d	0.007517858
237	0xb9174333	-0.00014425516
238	0xbd80278d	-0.06257544
239	0xbcf67486	-0.03008486
240	0x3bc1815e	0.0059053143
241	0xbce5b801	-0.028041841
242	0x3d8f75bd	0.07004879
243	0xbd8911e8	-0.066928685
244	0x3dbcbca3	0.09215667
245	0xbc4c26dc	-0.012460437
246	0xbe14d32d	-0.14533682
247	0xbb8447df	-0.004036888
248	0xbd3c942f	-0.046039756
249	0xbdf17b72	-0.117911234
250	0xbaf88e3d	-0.0018963289
251	0xbe4a2721	-0.19741489
252	0x3c7964de	0.0152218025
253	0x3d285834	0.041099742
254	0x3d428f4b	0.047499936
255	0xbd692aa7	-0.056925442
