examples/benchmarks/GRU/model_gru_csi300.pkl (torch, 157578 bytes, 9 tensors)

rnn.weight_ih_l0 f4 [192, 6]
00000000: 4ff1 d23e 944f 403f 7bc2 d43e 2bd7 ad3e
00000010: 3040 db3c 5f68 a8be 7e4b 813e 06b1 d5be
00000020: f9a5 d23e d531 80be a012 dd3c 7583 ea3d
00000030: 4197 c6be 35a0 ddbe fe36 8cbe ed6a eebe
00000040: 6cb9 28bd 0761 6a3f adb9 1ebe d74c 5dbe
00000050: edb2 c53c eb2c 22bf 9441 0cbd ff24 b7bd
00000060: 0b27 743f 77a2 113f 3f59 983f 6d4e fe3e
00000070: 5231 fcbd 292f 4bbe 23fd 973e a45b a23e
00000080: f313 8f3e c9a8 f03d 468b d13d 3d16 8e3e
00000090: 3b62 303e c56c 283e 6134 143f 540a 8f3e
000000a0: 105a 033d 09b7 2f3e 9ac6 283f 6432 013e
000000b0: 4a3c 2e3f cd9d ca3d 60f6 aebd fd8c f83e
000000c0: 09fd 873e 8865 99bf 0f0f 8e3d 4f7a 45bf
000000d0: 3aa9 b1bd 537c 093e e1d2 1e3d 6362 b7bd
000000e0: 5a5d 9fbe c896 713d 301a 85bd 89fb 1a3f
000000f0: 7fc5 543e 557b b03d 2b1e be3e d2a3 f83d
00000100: 267e bd3d 48bd 7f3e 97b1 9cbd d397 303d
00000110: 4e2c 81be 0a3c 36bd f01d 1cbd 8c97 c8be
00000120: bdf2 fabe 533f debe 7af2 9dbe d4ae 7fbf
00000130: 0e35 ed3d 554f 0dbf 4df8 5abd bc58 3dbf
00000140: 2bed 6cbe cbd3 f6bd a023 a5bc 0260 903e
00000150: fae4 ee3c 02c6 f5bd 1110 5dbe a1fe 0dbe
00000160: 5433 aebd 26b3 9c3e 60de 153e 4b32 28be
00000170: 6b12 e1bd 7db9 a13d 12fe 86bd f25a 123e
00000180: 68d9 cfbe 7f5d 023f f4ce 5b3e 05d7 40bc
00000190: 441b c7bd e78c 3d3e 51c1 0e3e 5286 38be
000001a0: 38f1 2d3f 15ea 1cbf 5e82 dabd 0aed 17bf
000001b0: 0cd4 83be af85 883d 4d7d 2cbe 5036 21be
000001c0: a6ad 813d 1404 98bb 9ef1 19be c66f e9be
000001d0: f7a5 5cbe f8d1 0cbf d647 9f3d 6b5b 723e
000001e0: 5d9b 043e baa1 cbbe 509a 06bf f28b 5dbc
000001f0: 4ce9 20bd 590c cf3d c28a 88be f09b 9abe
00000200: c6bf fb3d 637f 0bbf 2415 133d bf33 543e
00000210: 17b9 573e 3471 9ebe 1040 f8bc d1ae 0d3e
00000220: 10bd 4a3c 53a7 25bd adf6 24bf ec91 46bf
00000230: 3779 14bf 6f2e 94be ec7b 70bd 7ee7 113f
00000240: 43d9 b23f 5c8d c93e 9fb7 d23f 4e46 823f
00000250: 1e29 813d acf1 4cbd 050f 43be 1d76 87be
00000260: 10b7 57be 7698 43be 0047 d0ba f481 cebe
00000270: 212e 9cbe 4f8c 63bd 75c2 ecbd a846 febe
00000280: 803f e9bd 1d8e eabd 2c00 38bd 4e72 f4bd
00000290: 5075 c13e a80c a8bd 98fd ecbd 7320 f33e
000002a0: 80ae d03e 6665 023e 5100 243e 190e b93e
000002b0: 0034 d63b 241f f1be 177a aabc 9538 d33d
000002c0: e0c0 643e 3a25 3a3c 68f2 71bd dd63 90be
000002d0: 5dcb 32be e68e b6be a965 b8be 64a3 bcbe
000002e0: 2072 883d 511b 9ebe 420d 173f d630 ce3e
000002f0: 5368 253f 9797 2b3e 0814 f5bc e520 9fbe
00000300: a136 523f bd02 94bf efdb 003b 7617 aa3e
00000310: a859 9ebd 2668 bbbe edb9 b6bd 32bd 1d3c
00000320: 7b9d 46be 4895 41bd 9081 47bc 1c25 073f
00000330: 134d 73be 9a4a d3be 478e 0cbf d47f b1be
00000340: 1868 8a3c 1144 713e cf11 393f f9a3 89be
00000350: 2915 4d3f 21f1 c7be 78b5 ffbd 6d41 7ebe
00000360: ca13 943e 12ad 983d 423c c5bd 1abd 713e
00000370: 40e4 5e3c b6c7 d2bd 14d7 333e 1f37 12bf
00000380: d134 d1be 9b91 873e ec78 a63d 5b84 06bf
00000390: bc64 4d3f 6eb6 1f3f 5f1f 5b3f 2b02 4d3f
000003a0: c04c fb3b 7f58 1d3f 0395 3d3f 82cc 193e
000003b0: 02dc 8e3f 030a 4ebd 3800 87bc e384 243f
000003c0: 6414 b0bd 497d cabe 8e48 00bf deb2 35bd
000003d0: b016 543d 2ba4 86be de95 6ebe 3c5b 97be
000003e0: 7c03 abbe ac37 d5bd 3035 393d 13aa b43e
000003f0: 45b4 fa3c 83cd 90be 5d9e 6cbd fa79 763e
0.4119973 0.75121427 0.41554627 0.33953223 0.026764005 -0.3289213 0.25252908 -0.4173662
0.41142252 -0.2503802 0.02698642 0.11450855 -0.38787273 -0.4328629 -0.27385706 -0.46565953
-0.041192457 0.915543 -0.15500517 -0.21611343 0.02413317 -0.6334979 -0.034242228 -0.08942603
0.95372075 0.56888527 1.1902236 0.4966921 -0.123140946 -0.19842209 0.29685315 0.3171054
0.27944908 0.11750943 0.102316424 0.2775134 0.17224972 0.16447742 0.57892424 0.27937567
0.032068312 0.17159666 0.6592804 0.12616879 0.68060744 0.09893379 -0.08543086 0.48545066
0.26560238 -1.198411 0.06936466 -0.77139753 -0.086748555 0.13426332 0.03877533 -0.08954313
-0.3112591 0.058981687 -0.064991355 0.6054006 0.20778464 0.08617274 0.3713239 0.12140621
0.092525765 0.24974549 -0.0765106 0.04311354 -0.25229114 -0.04449085 -0.038114488 -0.3917812
-0.4901332 -0.43407688 -0.30849057 -0.9987614 0.11582385 -0.55199176 -0.053459454 -0.7396352
-0.23137347 -0.12052115 -0.020158589 0.28198248 0.029161919 -0.120006576 -0.2158816 -0.13866664
-0.08505884 0.3060543 0.1463561 -0.16425435 -0.10989841 0.07896707 -0.06591429 0.14292505
-0.40595555 0.50923914 0.21465665 -0.011770015 -0.097219974 0.18510781 0.13940932 -0.18019989
0.67946196 -0.6129468 -0.10669397 -0.5934607 -0.25747716 0.06666123 -0.16844673 -0.15743375
0.06331949 -0.004639158 -0.15033576 -0.4559309 -0.21547686 -0.55007887 0.077773735 0.23667686
0.12949891 -0.39771825 -0.5257921 -0.013522135 -0.03928499 0.10109777 -0.26668364 -0.30197096
0.12292437 -0.5449125 0.035908833 0.20722865 0.210667 -0.30945742 -0.030303985 0.13836218
0.012374178 -0.040442776 -0.644389 -0.7756641 -0.5799746 -0.28941676 -0.05871193 0.56993854
1.3972553 0.3936566 1.6462287 1.0177705 0.063066706 -0.050035164 -0.19048698 -0.264573
-0.21065927 -0.19101128 -0.00158903 -0.4033352 -0.30503944 -0.05555373 -0.11560527 -0.4966328
-0.11389065 -0.11452887 -0.04492204 -0.119358644 0.37784815 -0.08205539 -0.11571807 0.47485694
0.40758133 0.12733993 0.16015746 0.36143568 0.0065369606 -0.4709407 -0.02081017 0.103135265
0.22339201 0.011361415 -0.059069067 -0.2820119 -0.1746039 -0.35655898 -0.3601506 -0.36843407
0.066623926 -0.30880216 0.59004605 0.40271634 0.6461231 0.16757046 -0.029916778 -0.31079784
0.8211461 -1.1563336 0.001966234 0.33221024 -0.07731944 -0.36602896 -0.08922181 0.009627627
-0.19396012 -0.047261506 -0.012176886 0.52791 -0.2375987 -0.41267854 -0.549046 -0.34667838
0.016895339 0.23561122 0.722928 -0.26882914 0.8011041 -0.39051154 -0.12485784 -0.24829645
0.28921348 0.074548855 -0.09630634 0.23607293 0.013604224 -0.10291998 0.17562515 -0.5711536
-0.40860608 0.26478276 0.08128533 -0.5254571 0.80231833 0.6238774 0.85594743 0.80081433
0.0076690614 0.6146316 0.740555 0.1501942 1.1160891 -0.050302517 -0.016479596 0.6426527
-0.08597639 -0.3954871 -0.5011071 -0.044360034 0.05177945 -0.26297125 -0.23299357 -0.29561794
-0.33401096 -0.10411009 0.04521674 0.35286006 0.030603537 -0.28281793 -0.057768214 0.24069968

rnn.weight_hh_l0 f4 [192, 64]
00000000: 2f29 11bf 2bf4 803f 1d2c c83e 2a07 043f
00000010: f150 df3e 8196 8d3e 77c0 8b3e 4d8f 613f
00000020: 2cd0 aa3e 8adf 073f e407 85be f49f 1ebe
00000030: e183 cc3e 8413 1f3f ba19 19bf 4524 b43d
00000040: aa74 f13d fce2 1dbf 9b0c a43e b8d2 cc3e
00000050: f73f 063f 9a03 6bbe f137 8d3d dd19 39bd
00000060: a98d 42bd 2dc6 de3d f902 29bd 5556 f13a
00000070: 4186 83bf 8e45 513e 2a5a aa3e 7640 25be
00000080: 0cb6 1abf 7b82 943c d18f 22bf 9946 28bd
00000090: 0d14 07bf 3136 943e faa3 4a3e dbb5 8a3e
000000a0: a027 333d 10a8 8a3e 88b0 093f 4d34 85be
000000b0: 4ab7 023e 3dca b53e 0df5 3d3e 5877 36bf
000000c0: b0c5 6b3e bc74 9e3e 706d cc3c 5cf4 acbe
000000d0: 6317 f83e 7688 793e 49b8 5cbe e224 0d3f
000000e0: 59fd 5cbf 1222 9d3e e45c c13d 5b6f 803b
000000f0: eec2 7e3e e342 b4bd 1b72 51bf 1867 15bf
00000100: 8bf1 9bbe e13f 0cba cf77 d3be 065b b6be
00000110: 16e3 07bc e15e 883e ed48 8f3d 6ec3 a0bd
00000120: a955 a93e 1622 99bd cd0e b4bd d40f ccbe
00000130: 97f0 10bf c2b6 eb3c c2d2 13be fac1 cdbe
00000140: c77d 8d3e d4d1 3f3d 43d0 f43d f67c 0a3e
00000150: 25cb 58be 8ff0 b2bd 489d 50be dac1 68be
00000160: 898e 5d3d 4bf4 e9be 30e8 703d 94ec 9ebe
00000170: c956 ac3d e118 cc3e 8ee8 92bd cbd8 1cbe
00000180: bcd1 323e bc72 11be 8175 133e 382a 843c
00000190: 046c c9bd 02ea bcbd a769 f53d c0d8 7dbe
000001a0: ddde 40be 0fa8 f83c 4470 bcbc b462 0e3d
000001b0: 35fe 393d f107 283e ee0e c9be dce5 11be
000001c0: 1ad8 b9be cc20 0bbe 8872 9cbe a174 80be
000001d0: a029 e73e be2b 943e aab6 dcbe 82ee 443e
000001e0: f081 cebc daf2 bfbd 0a36 983e a7b4 513e
000001f0: ab49 913e 2646 22bd 76d2 7fbd faff cb3c
00000200: f35d 043f 25de 973e f28e 3cbe bec4 b83e
00000210: e37e 333d a85e e43e be63 4c3e a282 0fbd
00000220: 2a14 88be c130 d93e e194 55be da3b bfbe
00000230: ff0a 913e 44ae ecbd 4651 863e 7877 45be
00000240: d6af 803e 92e3 813e d48c 073f 4007 43be
00000250: 8b26 3bbe 6b11 de3d ca75 a6be 564f 2e3e
00000260: ac2f 8abe 6158 5d3f 87cb 77be 9a88 a63e
00000270: ea5a 543e 9d28 8ebd dbba b73e 8c29 b9be
00000280: f568 92bd 1130 583e e313 213c 55cd bd3e
00000290: 31a3 963d 6ef9 303d a762 083e 2ab0 133e
000002a0: 80b1 9e3e 502e 39be db61 7fbe 6537 583d
000002b0: 9620 193f 3eec 2f3e 6a4c 0c3f 1283 c83d
000002c0: cf82 c33d dbd1 763e c042 c4bc e28e 04bf
000002d0: 465d 33be 9908 a13e 6b2a 52be 6cd9 2e3e
000002e0: 577e 003e d68d 363e dcda 84bd 8cef 2d3c
000002f0: f99e 193f 38df 8abd ab77 783d 999e 21be
00000300: 8cfb 0bbf acec a33e 3185 0cbe f030 c9be
00000310: 88e6 a93e 48cf 9a3e 3651 14bc c960 e63d
00000320: 73b0 e53e d9dd cbbd ceca c2be f6bb 04bf
00000330: c50f adbb 2466 903d b0b7 813e 1d36 10be
00000340: ac29 0a3f 6a3c d03d 8ec2 993e 9f4b 07bf
00000350: 3f20 92be 6c23 0bbe 96ec 43be 8d32 d1bd
00000360: e2a8 04be 30de e9bd be47 b1bc eb07 5cbe
00000370: 84e5 0fbd 17b8 23bb 6e1b b73e 11c0 b13e
00000380: 70bf c93e 51f1 bebe d0a3 35bd c3d4 05bd
00000390: 1089 9dbe 349a f13d 52f8 3c3e 2d27 4dbe
000003a0: 4c9d 853e d9a4 3dbe feb1 99be 211a 4c3e
000003b0: 32fa ac3e 743c 473d e707 0c3e c1e9 593e
000003c0: 3222 bcbd d3fb 8f3e 180a b4be 8165 2dbf
000003d0: a8d4 783d 8073 e13e 02c8 c13d 3b0c 823e
000003e0: 4dbc 3a3e 88df fa3e 4df5 b1be bf49 98bd
000003f0: ad51 ddbd 89d5 0abf 6df2 78bd 4fe2 95be
-0.56703466 1.0074514 0.39096156 0.5157343 0.4361644 0.27653888 0.27295277 0.88109285
0.33361948 0.5307547 -0.25982583 -0.15490705 0.39944366 0.62139153 -0.5980488 0.0879598
0.1178983 -0.61674476 0.32040867 0.40004516 0.5244135 -0.22950593 0.068954356 -0.04519068
-0.04749838 0.10877643 -0.0412626 0.001841257 -1.0275346 0.2043669 0.33271915 -0.16137871
-0.6043403 0.018128624 -0.63500696 -0.041082952 -0.5276497 0.28947595 0.19789115 0.2709187
0.04373896 0.27081347 0.5378499 -0.26016465 0.12765232 0.35505858 0.1855051 -0.71275854
0.2302463 0.30948436 0.024954528 -0.3378018 0.48455343 0.24368462 -0.21554674 0.55134404
-0.8632408 0.30690056 0.094415456 0.0039195246 0.24879047 -0.0880182 -0.81814736 -0.58360434
-0.3045772 -0.0005350095 -0.41302344 -0.3561632 -0.008293888 0.26634887 0.06996331 -0.07849775
0.33073166 -0.074772045 -0.087918855 -0.39855826 -0.5661711 0.02877367 -0.14435866 -0.40187055
0.27635023 0.046830967 0.11953785 0.13524231 -0.21171243 -0.08737289 -0.20372498 -0.22730199
0.05409101 -0.45694193 0.05881518 -0.3103987 0.084149905 0.3986273 -0.071732625 -0.15317075
0.1746282 -0.14203924 0.14400293 0.016133413 -0.098350555 -0.09224321 0.11983042 -0.24789715
-0.18835016 0.030353574 -0.023002751 0.0347621 0.045408446 0.1640928 -0.39269203 -0.1424784
-0.36297685 -0.1358673 -0.3055613 -0.2508898 0.45148945 0.28939623 -0.43108112 0.19231609
-0.025208443 -0.09372492 0.2972873 0.2047907 0.28376517 -0.03961768 -0.06245657 0.024902333
0.51705855 0.2966167 -0.18413904 0.36087602 0.04382218 0.44603467 0.19959924 -0.03503669
-0.26577884 0.4242001 -0.20857574 -0.3735035 0.28328702 -0.11556676 0.26233882 -0.19283855
0.25134152 0.25368935 0.5294926 -0.19045734 -0.18276422 0.10843166 -0.3251174 0.17022452
-0.26989496 0.8646298 -0.24198733 0.32526094 0.20737806 -0.0694134 0.35884747 -0.3616451
-0.07148925 0.21112086 0.0098314015 0.37070718 0.07355345 0.043206625 0.13318883 0.1442267
0.30994797 -0.18084073 -0.24939673 0.052787203 0.5981535 0.17179963 0.548041 0.09790625
0.09546434 0.24103491 -0.02395761 -0.5178052 -0.1751605 0.31451872 -0.20523994 0.17075127
0.12548195 0.17827544 -0.064870566 0.010616194 0.600082 -0.06780857 0.060661 -0.15783156
-0.54680705 0.32016504 -0.13722683 -0.3929515 0.33183694 0.30236268 -0.009052565 0.11248929
0.44861183 -0.099544235 -0.38045353 -0.51849306 -0.005281421 0.07050732 0.25335455 -0.14083143
0.53969836 0.10167773 0.30031246 -0.52849764 -0.28540227 -0.13587731 -0.19133219 -0.1021472
-0.12955049 -0.11419332 -0.021640655 -0.21487395 -0.035130993 -0.0024981552 0.35763115 0.34716848
0.39403868 -0.37293485 -0.044345677 -0.03267361 -0.30768633 0.1179699 0.18454102 -0.20034476
0.2609657 -0.18519916 -0.3001861 0.19931842 0.33784634 0.048641637 0.1367489 0.21280576
-0.0918621 0.28121814 -0.3516395 -0.6773301 0.06074968 0.44033432 0.094619766 0.25399956
0.18235894 0.48998666 -0.34757462 -0.07435941 -0.10806594 -0.5423208 -0.06077807 -0.29274222

rnn.bias_ih_l0 f4 [192]
00000000: 175f 23bd c0e4 cdbe 15e2 9abe 9773 bcbe
00000010: 0818 ecbe af73 19be 469e cabe ce1e 59bd
00000020: 94d9 e6bd 42d3 abbe 401d 74be 314a d9be
00000030: 37ab 38be a12a 4fbe fdd3 72be 4a3e 1fbe
00000040: 8a74 9fbe dd17 aa3d 2b70 b6be 986b d0be
00000050: 7f93 e1be a8a9 83bc 364f b3be 9186 b3be
00000060: 1a5f f4bd 89b3 8fbe 45b7 f9bd 58eb ccbd
00000070: cbef ddbe df57 27be 34f1 b8be 9b52 a7be
00000080: 5251 37be 17c2 f2be 84d1 99be 7a8b e2bd
00000090: 1206 23be 29f4 bbbb a936 aabe 65f7 653d
000000a0: 627a 77be 90b9 90bd ef65 cdbd 7954 b4be
000000b0: 9e28 b8bc 5bf0 91bc 678d c5bd ffc2 a3be
000000c0: 549a e5be aab8 16bf 64e2 0bbf 4ab7 4dbd
000000d0: 183e 15be b69b 0ebf 679d 6fbe b4ec 8bbe
000000e0: dc3c 453d 8715 e2be 510c 823d 7972 ffbe
000000f0: cd64 92bc 3736 6fbe 24e0 a3be 1766 8dbe
00000100: e8c1 3fbf 0023 f0be 8528 b03e 63c0 dbbe
00000110: cdd4 57bf 211a 393f 5b2f 46be a24f 19bf
00000120: 1213 e93e 02a4 6ebe f5be 4cbe ba4c 81bd
00000130: f5a2 47bf 2403 28bf 7d75 91bd c6a7 0dbe
00000140: 9af1 16be eac6 833d 94d5 9dbe 77e2 e2be
00000150: 46d5 b1be 1b1a 14bf 8ea8 49be 4259 2d3d
00000160: 4a7e 34bf b15e 7ebd da69 c6bd 001b aebb
00000170: 6961 5ebe cf95 00bf fb64 2bbf 9911 21bf
00000180: 9b39 1fbf 465d 95be 25eb 9dbe f6a2 7bbf
00000190: 0026 c83e fb1a 99bd 4012 febe a6ab a43e
000001a0: 3cc5 03be c848 473e 349d 18bf 8500 75bd
000001b0: d536 bebe 1985 8bbe a550 e33a c466 8d3e
000001c0: f4ec 073e cd11 5abf eecf 01bf 5ae7 08be
000001d0: 40f4 473e 54dd 30bf e1b9 18bf 8453 63be
000001e0: c0ce c53e 0a4f f0be e775 8abe 80f7 70bd
000001f0: 7fe3 2f3f a6a8 c6be 9578 0cbf d599 c2be
00000200: 7c04 4b3d 1b90 92be 5c72 d3bd b97c 7cbc
00000210: 4015 00be 96a7 97be a285 0a3e 130b e13d
00000220: 858b c6be f9b0 61bd 80b7 bd3e f556 88bd
00000230: 9000 a1bc 44cf 88bd 809f 373d f156 253e
00000240: 0b14 003d 6fa4 a2bc 96fb cc3d 174d 023d
00000250: ef2c 48bc 66e8 893d d419 593c f2ad 293d
00000260: f217 e13c b9c8 d9bd 0ba1 43be 9537 77be
00000270: 8910 3f3e c701 6ebe 6149 633c b39b a43c
00000280: faa3 9c3e e205 6cbe e347 25bc 0c51 a5be
00000290: 6c1d 333e e782 df3d 32df 853c b4a8 35bd
000002a0: 89a0 0d3e 606c f9bd e66c 49be 1b86 3f3e
000002b0: d3e8 9ebc 8ab8 b43c f017 ad3d c171 963e
000002c0: 6bd1 b43d b0e5 75bd e058 4e3e 427b 043e
000002d0: eed7 8abe 8ed0 62be f9b9 8c3d 510b 8ebe
000002e0: 2287 963e bc70 61bd 894f 483e 0cf8 03be
000002f0: 46b3 8a3d 7d5f d63d 24f9 183e 2c87 cd3d
-0.039885607 -0.40213585 -0.30250612 -0.36806938 -0.46112084 -0.14985536 -0.39573878 -0.053007893
-0.112719685 -0.33559614 -0.23839283 -0.42439416 -0.18034063 -0.20231105 -0.2371368 -0.15551105
-0.311436 0.08305333 -0.35632452 -0.40707088 -0.44057843 -0.01607211 -0.3502137 -0.35063604
-0.11932202 -0.28066662 -0.12193159 -0.10005826 -0.4334701 -0.16342114 -0.36121523 -0.3268021
-0.17902115 -0.47413704 -0.3004266 -0.11061759 -0.15920284 -0.0057358933 -0.33244827 0.056144137
-0.24167779 -0.07066643 -0.10029208 -0.35220698 -0.022480305 -0.017814806 -0.09646111 -0.31984708
-0.44844306 -0.58875525 -0.5464232 -0.050223626 -0.14574468 -0.55706346 -0.23399888 -0.27329028
0.048153743 -0.4415705 0.063500054 -0.49892023 -0.017870331 -0.23360525 -0.32006943 -0.2761695
-0.7490525 -0.46901703 0.34405914 -0.42920217 -0.84309083 0.72305495 -0.19354002 -0.59887135
0.45522362 -0.23304752 -0.1999472 -0.063134626 -0.7798303 -0.6562979 -0.07102487 -0.13833532
-0.14740601 0.06434424 -0.3082701 -0.44313404 -0.34733027 -0.57852334 -0.19693205 0.04232145
-0.705052 -0.062102024 -0.09688158 -0.0053132772 -0.21716847 -0.5022859 -0.6695096 -0.62917477
-0.62197274 -0.29172724 -0.30843464 -0.98295534 0.39091492 -0.07475849 -0.496233 0.32162207
-0.12868208 0.19461358 -0.5961487 -0.05981495 -0.3715121 -0.27249983 0.001734276 0.27617466
0.13273984 -0.8518341 -0.507079 -0.13369504 0.19526768 -0.6908772 -0.5965863 -0.22199827
0.386343 -0.46935302 -0.27043077 -0.058829784 0.68706506 -0.38800544 -0.54871494 -0.3800799
0.049564824 -0.2862557 -0.10324547 -0.015410596 -0.12508106 -0.29620045 0.1352754 0.1098844
-0.3877832 -0.055100415 0.37054062 -0.06657211 -0.019653589 -0.06680158 0.044829845 0.16146447
0.031269114 -0.019853799 0.10008924 0.0318118 -0.012217744 0.067337796 0.013250787 0.041425653
0.027477238 -0.10633988 -0.19104402 -0.24142297 0.18658651 -0.23242866 0.013872475 0.020093774
0.30593854 -0.23049119 -0.01008794 -0.32288396 0.17491692 0.109136395 0.01634178 -0.04435034
0.1383077 -0.12178874 -0.19670448 0.18703501 -0.019398129 0.022060651 0.08451831 0.29383662
0.08829006 -0.0600335 0.2015109 0.12937644 -0.27117866 -0.2214987 0.06871409 -0.2774301
0.29399973 -0.055039153 0.1956159 -0.12887591 0.06772475 0.10467432 0.1493879 0.100355476

rnn.bias_hh_l0 f4 [192]
00000000: 4acf d13d 05d7 5cbe 6d39 e4be c137 e3be
00000010: 82f5 08bf 5722 a6be d4ab 81be 2c5f e8bd
00000020: ddfe c0bd d7e0 10be 0aaa 0abe be27 f0be
00000030: 7d9a c0be 5396 14bd 4e58 d2be ce70 73be
00000040: 432b 6ebe 6c5c b0bd c7b8 bdbe 2f00 c0be
00000050: dcd7 83be a452 293d ec15 a8be 30fa abbe
00000060: 6a19 8bbd c8d2 9fbe c06c 1abe 935f 66bd
00000070: d33f d2be 5ba1 8ebe 47de dabe 1fca 8abe
00000080: a393 19be f6af febe 58bb a8be a191 3fbe
00000090: f42e 02be 261f 96bb 6a45 74be 26d6 aabd
000000a0: 3145 78be d6a7 893c 2599 4abe b146 22be
000000b0: 4777 d5bb 430f 29bd 9f39 55be 2ba2 92be
000000c0: c9ad 98be 491a 06bf 26d3 efbe 7183 70bd
000000d0: 6b7b 96bd deb5 47bf b719 eebd a5ec b9bd
000000e0: a1dc 413e 4449 0abf 2515 fc3d d089 9fbe
000000f0: 042e 38be 8a52 adbe 64a4 d3be e33b 81be
00000100: ae5d 4abf b821 0fbf c08c e13e bd84 1abf
00000110: 2c57 51bf 72ba 603f bb78 07be 0779 44bf
00000120: 610f e63e 2d07 c6bd f33e cbbe 7d40 8ebe
00000130: d647 47bf 8bd1 ffbe 369c 16be 4689 8bbe
00000140: 0b64 54be 07df 0bbd 47e8 96be 16b9 08bf
00000150: 8862 a8be dd71 19bf 166b 8dbd 718e 91bd
00000160: 9cae 04bf ae83 a83b 7ede a4be 255c 9b3d
00000170: 0895 a3be 43b3 05bf ef28 39bf 78c4 17bf
00000180: b052 ebbe 124f a1be bb2e 05bf 6e27 59bf
00000190: 3590 463e 3c66 a73b 7758 26bf e76e 8d3e
000001a0: 6d07 c3bb 1243 a43c 5fad 04bf 9762 babc
000001b0: 835b f4be 3426 d6be 8436 64be a4bc 5d3d
000001c0: 00fc d03b 421f 3bbf 603e 0cbf dfb2 d6bd
000001d0: 1170 ea3d 06a2 2dbf 9095 43bf 264e 6bbd
000001e0: 9f44 b03e d303 8ebe 33e0 57be 2712 48be
000001f0: 63dd 223f b9a4 fcbe 7af4 0abf 1e4a 53be
00000200: 09be 41be 2bc6 a8be 6470 e7bd a645 39be
00000210: 193e 03be 8e2e d0bd 305e 8c3d fd6f 90bd
00000220: db23 2cbe dad1 22be 6b72 c33e 5272 773e
00000230: 9b5f 15be 9342 773d 002c 403e 5be3 783e
00000240: 6e30 05bd aa15 a2bd f005 57bd 180b 3bbe
00000250: 28e0 893d b3ae c6bd 2af6 cbbd 9e68 24be
00000260: 1eb2 413d 0f8c 3ebe e204 8bbe bc2a d9bc
00000270: fcc2 d73c 0ec9 ebbc 2dfe 5f3e ae30 f9bd
00000280: dd29 1d3d 756d 9a3d bd43 273e 6318 a0be
00000290: 3979 f3bc 3461 a1bd 1a81 13be 2d78 a1bd
000002a0: cc2e d33e fefe 31be e605 d0bd 4cb8 9e3e
000002b0: 05a7 d13d 7238 0b3e d7d5 d03c a4b9 1e3e
000002c0: 45d2 143e e1e7 763c f7e6 3bbe c2e7 113e
000002d0: d9fc 30be 0f1d 0d3e 0bcf 053e 6348 94be
000002e0: f946 303e 9c1a 8bbe 1799 163e ffd9 26be
000002f0: 8552 54be d3dc 013d b829 243d fd24 0f3e
0.102446154 -0.21566398 -0.44575062 -0.44378474 -0.53499615 -0.32448074 -0.25326407 -0.113462776
-0.09423611 -0.1414827 -0.13541427 -0.4690532 -0.37617865 -0.036276173 -0.41082996 -0.237735
-0.2325869 -0.08611378 -0.37055036 -0.3750014 -0.25750625 0.041338578 -0.32829225 -0.33589315
-0.06791957 -0.312155 -0.15080547 -0.05624349 -0.4106432 -0.2785748 -0.4274771 -0.2710733
-0.14997725 -0.49743623 -0.32955432 -0.18707897 -0.12713224 -0.00458135 -0.23854604 -0.08341627
-0.24245144 0.016803663 -0.19784983 -0.15847279 -0.006514463 -0.04127432 -0.20822762 -0.2863935
-0.29820088 -0.5238386 -0.4684078 -0.058719102 -0.07347759 -0.7801188 -0.116259985 -0.090783395
0.1893182 -0.54018044 0.123087205 -0.3115983 -0.17986304 -0.33852035 -0.41336358 -0.25241002
-0.79049194 -0.55910826 0.44052696 -0.6035879 -0.8177364 0.8778449 -0.13229649 -0.76747173
0.44933608 -0.096693374 -0.39696464 -0.27783576 -0.7784399 -0.49964556 -0.14708027 -0.2725317
-0.20741288 -0.034148242 -0.2947409 -0.5340742 -0.32887673 -0.59939367 -0.06905191 -0.07107247
-0.5182893 0.0051426506 -0.32200998 0.075859345 -0.3194964 -0.52226657 -0.72328085 -0.5928416
-0.45961523 -0.31505638 -0.5202443 -0.8482579 0.19390948 0.005108623 -0.64978737 0.27623674
-0.005951813 0.020051513 -0.51827043 -0.02275209 -0.47726068 -0.41826022 -0.22286421 0.05413498
0.006377697 -0.7309457 -0.54782677 -0.10483336 0.11447156 -0.67825353 -0.7640009 -0.057447575
0.34427354 -0.27737293 -0.21081619 -0.19538175 0.6361906 -0.49344423 -0.5427929 -0.20633742
-0.18920149 -0.3296369 -0.11300734 -0.18092975 -0.12816657 -0.101651296 0.06853902 -0.0705261
-0.16810553 -0.15900365 0.3817323 0.24164703 -0.14587252 0.060366224 0.18766785 0.24305479
-0.03251689 -0.07914288 -0.052495897 -0.1826595 0.067322075 -0.0970129 -0.099590614 -0.16055533
0.047289006 -0.18608116 -0.27152163 -0.026509635 0.026338093 -0.028782394 0.21874304 -0.12167488
0.038370002 0.075404085 0.16334434 -0.31268606 -0.02972089 -0.07879868 -0.14404717 -0.0788425
0.4124664 -0.17382428 -0.10157375 0.30999982 0.102369346 0.13595751 0.025492592 0.15500504
0.14533336 0.015069933 -0.18349825 0.14248565 -0.17283954 0.13780616 0.13067262 -0.28961477
0.17214574 -0.2716874 0.14706837 -0.16294096 -0.20734604 0.031704735 0.04007885 0.13978954

rnn.weight_ih_l1 f4 [192, 64]
00000000: 1321 09bd 085e cabd 908c 75bd 375e e7be
00000010: 3d05 113f 7aba 9e3e f969 203e 9cc0 353b
00000020: 83ad 01bf 6b1b 423e b3c1 263d 246f 22bf
00000030: 8cbc 14be f851 b83e 3f0e 033d f777 85be
00000040: 4793 19bd 3179 d8bd c758 9a3d a164 a6be
00000050: 1641 e83d 01a4 febe 7f8f fcbe a919 4b3e
00000060: 2682 d8be 90a1 043e af47 9e3e 0545 0dbf
00000070: a832 5cbe 9222 023e 808d b6be f064 8e3c
00000080: 385d 4abd 4a5f f2be ac03 d53c 6fcb b93e
00000090: d886 05bf a9ad 53be 1b86 ca3e b195 673e
000000a0: c965 8ebe 4a2b af3d f42b 903e 7b27 b63d
000000b0: f922 3e3e 0c1a 5bbe d463 8c3e be42 74be
000000c0: 4aef 813e 8747 88be 0f62 0abe 0c7f f7be
000000d0: 81fb b5be 9300 33bf 600d 583e 09b1 aebd
000000e0: 6f4a 6dbe db57 1c3f aeae 143f beb4 2abf
000000f0: 8766 423e 76fb cbbe e147 ccbd ecc9 8b3e
00000100: a75b 21bf b594 b03e e7ec 15bf fe54 1d3f
00000110: b44f 6a3f 2ac4 eb3c 6471 523f a8b0 883f
00000120: 5c70 693d 7aae 85be fc0e b3be b8fd 65bf
00000130: 6a19 bbbe 4476 6a3e 4b53 d9bd 5bf5 d1bd
00000140: cf5b 463e ba25 eabe 4c38 003f c0f4 463e
00000150: 5e05 fe3d 0c53 24bf 6f3b cbbe 2bb4 9f3e
00000160: 8d15 3abf 4eba ff3d 73cb 1d3f 6dbe b1bd
00000170: de57 0bbf 3410 323f 2c69 cdbe 45e9 a83f
00000180: dad3 06be 3b3d b3be f3aa 83be 3877 4e3f
00000190: d0bc 04bf 3907 4a3e f85c 483f ee10 193d
000001a0: 6016 e2bd 32c8 3dbf 74dd bd3e 6c7b 0abe
000001b0: de19 c43e 9277 a73f dee9 433f 1342 d0be
000001c0: c870 c63e 9494 ad3f d1e9 0d3f d2b1 c5be
000001d0: 2cd7 153c 47b6 67bf 7689 25bf bd4a d0bd
000001e0: 0689 6abe 43e2 8a3f b273 bfbe 3c72 4abf
000001f0: 9c6c 0ebd 26b8 dcbe 9a6a 73bf 1ade fdbd
00000200: b164 e8be 3c57 9f3e d5df f93e 24e2 a93e
00000210: ec0d 64be 685d 6e3c 8440 41be 5e32 193f
00000220: 8d91 92bd 846f a33e 7bd1 c03e c9b1 823e
00000230: 24df 63bd ef77 453d ea11 db3c 2797 bf3d
00000240: 7e64 8e3e 8722 b13d 77dd d33e bf82 023d
00000250: e408 a63d df58 1abe 1558 d63d d920 863e
00000260: 2ecc febc a918 703f 2750 973e 5c37 04bf
00000270: c2a4 023f 97a4 2dbe d5de 8e3e 900a 24bf
00000280: bc4b 953e 892a 1a3f 5526 3cbe e03d a33e
00000290: 3d60 00bf b1c9 e53e c002 4e3d a140 d93e
000002a0: 2395 9c3e e3d3 683e 218e e3be 62dc 983e
000002b0: 4aa0 483e 9d2a 813e 9d6f 523d f130 d1be
000002c0: d18c afbe 41ec abbe f9e4 54be 938b 28be
000002d0: 2bbe c9be 2ea3 203f f468 92be 0500 193f
000002e0: 7c4d 0dbf 5ac1 8c3e 6af5 97be 1bf8 f63e
000002f0: 7fda 31be 852a 423f c5c9 fbbd 5685 f0be
00000300: 5bc4 ab3e 4dcb a3be 7978 803d f8c3 253e
00000310: 5adb abbe 0be2 c23e d1df 163f b40f 23be
00000320: 8450 8d3d 641b 243f e164 563a b51f 173f
00000330: 4e4b 71bd 4e9a debe fec9 363d 22d4 643d
00000340: 8c42 a2be 5498 273c 139f 353f 63de 913d
00000350: aee7 bbbd a17a 6cbf d07c 8dbe 0ccb 863e
00000360: 9ffe 0ebf ed31 233f 23ed cfbe 0912 13be
00000370: 7c85 3a3f 61b8 b63e 8679 043f d0a2 58be
00000380: e35c e43e 5eeb 8abe 6438 4a3c 285f e53e
00000390: 4765 15bf ffcc 243f abb3 0b3f 0485 a4be
000003a0: 798d 5f3d 09a0 6bbe 084c ac3d fa0c 863e
000003b0: 8f87 94bd 56c4 373e 6326 803e ef8b 903e
000003c0: 39cf 753f f8d8 b5bd 88bb d13d b7b8 20bf
000003d0: 60e8 17bf 8291 3dbe 47f1 823d baf0 b5bd
000003e0: e628 88be 7b1c 97be 16a7 00be de0a 30bf
000003f0: 9a4d 863e 31f2 d2be dbbe 4bbd c216 1e3f
-0.033478808 -0.09881216 -0.059948504 -0.45189068 0.5664862 0.31001645 0.15665425 0.0027733212
-0.5065538 0.18955772 0.04071207 -0.6345084 -0.1452505 0.36000037 0.031996008 -0.26068088
-0.03749397 -0.105699904 0.07536464 -0.3249865 0.11340539 -0.497345 -0.4932823 0.19834007
-0.42286795 0.12952256 0.30914065 -0.5518344 -0.21503699 0.127085 -0.3565483 0.017382115
-0.049405307 -0.47338325 0.026002727 0.3628802 -0.5215888 -0.20671715 0.3955544 0.22615696
-0.2781203 0.085531786 0.28158534 0.08894249 0.18568029 -0.21396655 0.27419913 -0.23853585
0.25377876 -0.2661707 -0.13513969 -0.48339117 -0.35543445 -0.6992275 0.21098852 -0.085298605
-0.23172925 0.61071557 0.5807904 -0.6668204 0.18984424 -0.39840287 -0.09974647 0.27302492
-0.63030475 0.34488454 -0.5856461 0.6145781 0.9152787 0.028780062 0.8220427 1.0678911
0.05699192 -0.26109678 -0.3497237 -0.8984027 -0.36542827 0.22896677 -0.1061159 -0.10251876
0.1937096 -0.45731908 0.500859 0.19429302 0.124033675 -0.6418922 -0.39693782 0.31192145
-0.72689134 0.12486707 0.61638564 -0.08678899 -0.5443095 0.69555974 -0.40119302 1.3196188
-0.13166752 -0.35007653 -0.2571636 0.80650663 -0.51850605 0.19729318 0.7826686 0.03736966
-0.11039424 -0.741336 0.37083018 -0.13523644 0.38300985 1.3083365 0.7652873 -0.4067541
0.3875792 1.3560967 0.554349 -0.3861223 0.009145539 -0.9051251 -0.64662874 -0.10170505
-0.22903833 1.08503 -0.37392956 -0.7908056 -0.034771547 -0.43109244 -0.95084536 -0.12395878
-0.4538932 0.31121242 0.48803583 0.33180344 -0.22270936 0.014548637 -0.18872267 0.5984248
-0.07156668 0.31921017 0.3765982 0.25526264 -0.055632725 0.04821008 0.02674194 0.09355002
0.27811044 0.08649164 0.41379902 0.03186297 0.081071645 -0.15072964 0.10466019 0.26196936
-0.03110322 0.9378763 0.2955334 -0.5164697 0.5103265 -0.16957317 0.27904382 -0.6407862
0.29159343 0.60221153 -0.18373998 0.31883144 -0.5014685 0.4488044 0.05029559 0.4243212
0.30582532 0.22737078 -0.44444373 0.2985564 0.19592395 0.25227824 0.051375974 -0.40857652
-0.34287122 -0.33578685 -0.20790471 -0.16459493 -0.394029 0.6274899 -0.28595698 0.59765655
-0.55196357 0.27491266 -0.29679424 0.48236164 -0.17368506 0.7584613 -0.12294344 -0.46976727
0.33548245 -0.31991044 0.06272978 0.16188037 -0.3356579 0.38063082 0.58935267 -0.15923959
0.06900123 0.64104295 0.0008178484 0.59032756 -0.058909707 -0.434771 0.04462623 0.055866368
-0.31691396 0.010229189 0.70945853 0.07122495 -0.09175049 -0.92374617 -0.27634287 0.26326787
-0.5585727 0.63748056 -0.40610608 -0.14362349 0.7285993 0.35687545 0.5174793 -0.21155858
0.44602117 -0.27132696 0.012342546 0.4479916 -0.5835766 0.643753 0.54571027 -0.32132733
0.05457828 -0.23010267 0.08412939 0.26181775 -0.07252418 0.1794599 0.25029287 0.2823176
0.9601932 -0.08879274 0.10240847 -0.6278185 -0.5933895 -0.18512538 0.06393676 -0.088838056
-0.26593703 -0.29513916 -0.12563738 -0.6876658 0.2623108 -0.41200402 -0.04974256 0.61753476

rnn.weight_hh_l1 f4 [192, 64]
00000000: 030e 6b3e cadd abbe 7613 7fbe 0852 803d
00000010: 48d8 09bd 55cf 1a3e b8be 9bbd 7e5a 253f
00000020: 8939 a5bd 0e2b 12bd 1588 ccbe 640e 16bf
00000030: 597c 143d 7adc 1bbe f119 debe 06c0 0ebe
00000040: b080 903e 0157 2cbe 9e93 a2bb 7ab1 ad3d
00000050: 62f6 483f f7e3 51bf 7a46 c8bd 702d 24bf
00000060: 430f a03c 7abb 92be 484b 21be 4c00 1dbe
00000070: 4e18 a0bd b1d6 f93d e27e 8bbe e5fd 063e
00000080: bff7 34bd 001e a93e d23e dcbd 6728 70be
00000090: c7b8 17bd 873e ae3d c844 3bbe 4dbb 87bd
000000a0: bdaf 5cbe 4573 e63d 2072 26bf 25aa 9bba
000000b0: 80d6 1c3f d57d 5cbe 9a7d 133d 4961 69bd
000000c0: 0368 cb3d b17f 993e cc1a e5be 1682 0a3e
000000d0: 683e b83e 773b dabd 8e35 e6be 8fc1 92bd
000000e0: 0691 913d bf48 cc3e 5c31 44be 5218 b33e
000000f0: ce96 d33e 6af8 c23d 6c51 e83d 2681 2ebe
00000100: 5a3a bfbe 166e d3bc 9455 9bbe 85de 9a3d
00000110: c50c 6b3e 43f0 9d3e cf85 2f3d 5935 0f3e
00000120: ecc4 953c 9b97 69bd 37ac d13d 684d 833c
00000130: 90be 85bc 95fa a9bd 7e19 72bf e29f 30be
00000140: 54c5 a03d 27dc 463e b3bc 133f 4e10 a13e
00000150: e30d a33e 5ed7 1fbf a45d 54be 76b1 463e
00000160: 1728 1fbe 2a90 e1be de32 b4bd fe43 77bd
00000170: e530 6d3d b6b3 233e 4277 7b3e 5e4c 9a3e
00000180: 96c8 823e c973 8e3f d280 dc3e 8bbe 9d3d
00000190: b76e 523e 39a8 0ebf d5e4 133e ba5c e1bc
000001a0: d480 bfbe 6fd7 23be 8328 a6be 2172 5ebe
000001b0: b28b 113f 79e1 35be 9a80 223e 8e3d 77be
000001c0: b8ba ed3e 7831 9c3d 76db 6abf 1149 103e
000001d0: 5b75 853e f9f7 123f c8b9 c8be ac78 50bd
000001e0: e308 913e 0344 a13e 564e 6ebe 5eec 813d
000001f0: 9e1e aabd 9f51 273e 5fcf 85bc 9844 8b3d
00000200: e85b a13d 7887 f33e 923a c5bc 9736 1ebd
00000210: ad3f 863e 1356 8cbe ef48 08bf a122 f2be
00000220: dbc6 1c3f 01db e43d 44e0 a2bc 9b0a 163f
00000230: d8f8 12be acbc 90bd 9137 c33d 6871 cd3e
00000240: 6398 013e 051f 37bd e88f f63d d6b0 44be
00000250: 4f51 30be 9059 8a3e 924a a43e 4b1f de3d
00000260: b268 49be e1f8 213f 1d3c 353e 91f7 6cbe
00000270: 744a c53e 0669 963e e122 153f 2366 5cbc
00000280: d973 8cbe 6653 833f dc3b 4f3d 058f 70be
00000290: a137 4abd e6f8 523e f7c8 e13d a277 53bd
000002a0: 7ade be3d 04e8 0abf 83c7 3d3e 2471 c2be
000002b0: 592a 933e 4bfe 7abe 41aa ee3d 3cc5 053f
000002c0: 1434 7ebe 2f7b 6dbe b785 68be b9d8 a73d
000002d0: 902d bbbe c50d a2bd a2fd 1dbe 1ced 023e
000002e0: 31a0 ad3e f27a 46be e88f 193f b9c3 7ebe
000002f0: 1f6f 293f 8db3 073f 0d8a ebbe 8923 c03e
00000300: d35c 103f 4893 933d 1a7e 24be 1455 8a3e
00000310: 91ee 16be b895 75bd 73d5 40be 6876 713f
00000320: 9916 8f3e 912f 93be af8d 86be b823 343b
00000330: 9b25 1d3f 0c6e 0f3e 1d9c 28bf b1dc b73c
00000340: c274 c33d 132e b93c 1cd7 0f3f 1091 2f3e
00000350: bcf0 b73e 0313 4dbe f27b 52be 8e80 1e3e
00000360: 856c 3bbe 20c6 2b3d fb46 7bbe 2c0f 303f
00000370: dac4 4dbd b44e ae3e bcc7 5dbe 068a 0e3e
00000380: 8760 4b3d e44f 5fbe 7d28 af3e 9fb6 0cbd
00000390: cc94 403f a495 a13e c7fb 803e 17e0 453d
000003a0: 9d87 3f3d d4a4 f0be 2ecb a7be cd78 bd3d
000003b0: db62 a63c c804 963d 37ce 4bbc b217 c73e
000003c0: f51e eabe 375f d4bd 2119 19bf 4bbf b83e
000003d0: 033c a63e 8cf6 f93e 56a2 5abe 855c 873d
000003e0: 461e 233f ee38 b63e d78e 6cbe 1735 bf3d
000003f0: c52a 4fbe afaa 49be 41bc 6f3c 8a55 18bd
0.22954564 -0.3356765 -0.24909768 0.06265646 -0.033653527 0.15118153 -0.07604736 0.64591205
-0.080676146 -0.03568559 -0.39947572 -0.5861571 0.0362514 -0.15220824 -0.43379167 -0.13940439
0.2822318 -0.16830064 -0.004961445 0.084811166 0.7850095 -0.8198847 -0.09779067 -0.6413183
0.019538527 -0.28658658 -0.15751374 -0.15332144 -0.07817136 0.12199152 -0.2724524 0.1318279
-0.04418158 0.330307 -0.107541695 -0.23452912 -0.03704145 0.0850802 -0.18287957 -0.06627522
-0.21551414 0.11252455 -0.6501789 -0.0011876269 0.612648 -0.21532376 0.036008455 -0.056977544
0.09931948 0.29980233 -0.44747007 0.13526186 0.35985112 -0.10655873 -0.44962734 -0.071658246
0.07107739 0.3989925 -0.19159454 0.34979492 0.41325992 0.095200375 0.11343655 -0.17041454
-0.37349206 -0.025809329 -0.30338728 0.075619735 0.2295409 0.30847368 0.04285222 0.13985194
0.018282376 -0.057029348 0.102379255 0.016028121 -0.016326219 -0.08299748 -0.9457015 -0.1724849
0.07850137 0.19419919 0.5770981 0.31457752 0.31846532 -0.62438 -0.20738846 0.19403633
-0.15542637 -0.440553 -0.08798765 -0.060367577 0.057907958 0.15986523 0.24557212 0.3013639
0.2554366 1.1129085 0.43067032 0.07702359 0.20550047 -0.5572544 0.14442761 -0.027510036
-0.37402976 -0.1600015 -0.32452783 -0.21723224 0.56853783 -0.17761792 0.1586937 -0.24144575
0.46431518 0.07626623 -0.9174112 0.14090373 0.26066098 0.57409626 -0.3920424 -0.05089633
0.28327093 0.314972 -0.2327207 0.063439116 -0.08306621 0.1633973 -0.016334234 0.068001926
0.07878858 0.47564292 -0.02407578 -0.03862628 0.26220456 -0.2740942 -0.5323629 -0.47292045
0.6124093 0.11174584 -0.019882329 0.5860993 -0.14352739 -0.07067236 0.09532083 0.40125585
0.12655787 -0.044707317 0.12039167 -0.19208083 -0.17218517 0.27021456 0.32088143 0.108458124
-0.19668844 0.63270384 0.17698713 -0.23141314 0.38533366 0.29377002 0.58256346 -0.013452086
-0.27432135 1.0259826 0.050594196 -0.23492058 -0.049369458 0.2060276 0.11024659 -0.051627763
0.09319778 -0.5426028 0.18533139 -0.37976944 0.28743246 -0.24511068 0.11653567 0.5225408
-0.24824554 -0.23191522 -0.22707258 0.081956334 -0.365582 -0.079127826 -0.15428784 0.12785763
0.3391128 -0.19382837 0.5998521 -0.2487935 0.6618518 0.5300835 -0.46003762 0.3752711
0.5639164 0.07205826 -0.16063729 0.27018034 -0.14739443 -0.059957236 -0.18831424 0.943213
0.27946928 -0.28747228 -0.2627997 0.002748711 0.61385506 0.14006823 -0.6586321 0.022444101
0.09543754 0.022604978 0.56187606 0.1714518 0.35925853 -0.20026784 -0.20555094 0.15478727
-0.18303116 0.041936994 -0.24538796 0.6877315 -0.05023656 0.3404442 -0.21658224 0.1391984
0.049652603 -0.2180782 0.34210578 -0.03435385 0.75227046 0.3155948 0.2519209 0.04830941
0.04676019 -0.47000754 -0.327722 0.092515565 0.02031081 0.07325131 -0.012439302 0.38885266
-0.45726743 -0.10369723 -0.5980397 0.36083445 0.3246766 0.48820913 -0.21350989 0.066094436
0.6371807 0.3559031 -0.23101364 0.09336298 -0.20231159 -0.19694017 0.014632286 -0.03719095

rnn.bias_ih_l1 f4 [192]
00000000: 75b8 283e 8036 6a3e bc12 2abe c216 6f3b
00000010: 6b5c cabc 6b8a 0bbe 53f6 75be 04e2 333d
00000020: c0af 33bd 75db b73e 2de7 d43d bb9c 8a3c
00000030: 5940 dfbb 8223 7e3d bd10 8cbe 25e2 80be
00000040: 0a89 6b3d 05db b3be 90e4 ee3d 8e26 bf3d
00000050: b604 b53e dc0d 99bd 7d62 ac3d 540d 9f3d
00000060: e401 853d a0ec 2ebe ccd9 803d 6156 d0bd
00000070: 3926 123f 985f 593a 5e81 bdbe 3f3a 1b3e
00000080: d2cf 643d 9bc3 363c a61d 7d3d 7300 9f3e
00000090: 6457 cf3d 36a7 7abe 1b92 b0bd aa2f a03e
000000a0: fe90 4a3e 5be3 443e abd1 8e3d fd8c 443e
000000b0: bf5b d9bc 32ba d63e 690d 853e de50 a13e
000000c0: e9da ec3d cd58 263e 8b8a acbd f94e a1bd
000000d0: 064b dc3d 95ef 073e 9814 48be 0e2d b33d
000000e0: 9c86 4b3d 99fe 463e 844e 97be 4f7f af3c
000000f0: 87e5 5e3e f463 663e 9b19 223e 2620 113e
00000100: 6965 013e f369 d93c 4068 dcbd 163c 623e
00000110: 366c a0be b8ce af3b e02b cabd 02d3 e83d
00000120: add3 8c3e eeec e03b 0490 87be 134f 563e
00000130: 7e49 aebd bd75 5abd 5d49 8abc 1598 cbbe
00000140: 3eaa 263d eccc babe 2899 ba3e a0bf 02be
00000150: 7b44 4fbe bc24 793e b8c0 883c 2db2 eabe
00000160: b053 5b3e a725 8dbe 8144 02bd 6355 83be
00000170: c4df 033d 7895 97be b524 cd3d 2720 6a3e
00000180: 70c9 a1be 96b3 b73e ce9d 89be 916a d23d
00000190: a219 4bbe 792e 85be e0cd 4e3e b829 413e
000001a0: 188f af3c efed e73e 0df3 d73d 0546 9dbe
000001b0: c891 91be 9a55 b6bd 6d1f 3e3d 6a87 6dbe
000001c0: 38b4 c3bc b7e3 05bf 3d1f dc3d 0fd5 9b3e
000001d0: 62f8 7dbe cfa5 d2bd bfa5 88be c026 f53e
000001e0: fff8 883e 2c04 583e 8f0e a23d e5f6 5cbd
000001f0: 56bc 07bf 7c89 68be 0231 5dbe 8d02 bb3d
00000200: 164b f1bd cb33 ccbd c604 e1bb ef36 33be
00000210: 0034 973e ce83 4cbe 3503 1cbe 20fd 50bd
00000220: a9bc 45be 0ca2 a83d a40a 19be 6527 41be
00000230: e720 45bc ca0a 023e 8912 b43e 4845 593e
00000240: f957 2cbe 2848 70be 2436 a0bc ef07 b6be
00000250: 49cb fa3d 1919 21be 1ac6 44bd 8f2f 7c3d
00000260: af5f 553e d8f1 adba 9717 873d 70ef a6bd
00000270: 1903 68be 24a5 89be 5e14 15be 8923 0c3e
00000280: 7a48 29be ea36 afbd 6d93 8bbe 7015 f5bd
00000290: ad0f 243e cd35 b1bd 6e02 043e 770f 103b
000002a0: 352c 57be 7e1d b23d e938 97be c2e8 1a3e
000002b0: 3140 89bd 438b 13be 095f 363d f55b 14be
000002c0: 9c71 f3bd 77b4 963c d2df 173e 6526 7e3e
000002d0: 679c 57bc e77c abbe 1f1a b53d 0b5f 01bd
000002e0: f1f5 66be 2f77 80be 8f48 023e 8340 813e
000002f0: 9bbd 323d f280 c13e c7e9 9d3d a1b7 34be
0.16476615 0.22872353 -0.16608709 0.003648207 -0.024702271 -0.13627021 -0.24019746 0.043916717
-0.04386878 0.3590962 0.10395656 0.016920438 -0.0068130908 0.06204558 -0.2735652 -0.25172535
0.057503738 -0.35128036 0.116646886 0.093335256 0.35355157 -0.074733466 0.08417223 0.07766214
0.06494501 -0.17082453 0.062915415 -0.101727255 0.57089573 0.00082921376 -0.37012762 0.15158938
0.055862255 0.011155034 0.061795853 0.3105503 0.1012409 -0.24477848 -0.086216174 0.31286365
0.19781873 0.19227354 0.06973585 0.19194408 -0.026533006 0.4193893 0.25986794 0.3150701
0.11565191 0.16244812 -0.084248625 -0.07876391 0.10756497 0.13274987 -0.19539106 0.08748828
0.04968892 0.19433059 -0.2955209 0.02142301 0.21767245 0.22499067 0.1583008 0.1417242
0.12636341 0.026539778 -0.107620716 0.22093233 -0.31332558 0.005365219 -0.0987165 0.113683715
0.27505246 0.0068641817 -0.26477063 0.20928602 -0.08510111 -0.05333494 -0.016880685 -0.39764467
0.0406897 -0.36484468 0.36444974 -0.12768412 -0.20240967 0.2433042 0.016693458 -0.45839062
0.21418643 -0.2756779 -0.03180361 -0.25651082 0.03219582 -0.29606223 0.10016767 0.22863828
-0.31598997 0.358792 -0.26878208 0.10274232 -0.19833997 -0.26012018 0.20195723 0.1886357
0.021430537 0.45298716 0.10544405 -0.30717483 -0.28431535 -0.08903046 0.04641669 -0.23196188
-0.023889646 -0.5230059 0.10748146 0.30435988 -0.24801782 -0.10285532 -0.26688954 0.47881126
0.2675247 0.21095341 0.07912933 -0.053946394 -0.5302175 -0.22708696 -0.21600726 0.09131346
-0.117819 -0.09970816 -0.006867024 -0.17501424 0.2953186 -0.19972154 -0.15235598 -0.05102265
-0.1931025 0.08234033 -0.14945465 -0.18862684 -0.01203177 0.12699428 0.3517039 0.21217835
-0.16830434 -0.23465025 -0.019557066 -0.35552928 0.12245805 -0.1573223 -0.048040487 0.061568793
0.20837282 -0.0013270928 0.06596296 -0.08151138 -0.22657432 -0.26883805 -0.1455855 0.1368543
-0.16531554 -0.08555396 -0.27260914 -0.119669795 0.16021605 -0.0865284 0.12891552 0.0021981874
-0.21012957 0.086970314 -0.29535607 0.15127853 -0.06701697 -0.14408593 0.044524226 -0.14488204
-0.11886904 0.0183966 0.14831474 0.24819334 -0.013159848 -0.3349373 0.08842873 -0.03158478
-0.22554757 -0.2509093 0.12722991 0.2524453 0.043637853 0.3779369 0.07710605 -0.17648174

rnn.bias_hh_l1 f4 [192]
00000000: 975d 313e e91c 603e e4f0 82be 566d 3a3e
00000010: 6efa c43d dd34 653b 0a5a 3cbe 1a8c 8d3d
00000020: ac6d 97bd d2e6 f93e d454 953e 43fb c4bd
00000030: 1765 a53d 5729 13bd 720b 8fbe 5881 acbc
00000040: 2b94 523e f4eb aebe afac b2bd 267b 9a3d
00000050: 67bc a73e b2e7 9c3d 64d5 ce3d 6f0f 9f3d
00000060: 07e6 89bc 0929 6dbe f064 b23d 704a a4bd
00000070: 2d96 df3e 5c80 68bd ebe6 acbe d7c9 2b3d
00000080: 1f8e b03d 61f1 f738 7719 9f3c 2ea5 913e
00000090: bcd6 733d b6c7 f5bd c1ce f6bd 3ca2 ca3e
000000a0: 12aa 8d3d 47c9 3d3e bb6c 51bd e58e 443e
000000b0: ffff 703c c97b 153f 904f a73e 666b 863e
000000c0: 3372 e13d ca75 953e 1c05 acbd f75b 7e3c
000000d0: 0865 623d 12dd 103d f9da 85bd ff0c 28bc
000000e0: b211 ea3d 7cd4 e63d 410b aabe 6b19 87ba
000000f0: 1769 a5bc ea80 a53e b81e 923d e49c 283e
00000100: 5ec1 383d 2a53 6dbd 806d 953d 36b3 033e
00000110: 16d6 3abe 1445 c73d 58ee 5abe 08dc c33b
00000120: 9309 173e d8f4 173e 1fed 73be 4f9b 4c3e
00000130: c5ee 1a3e 5c72 123e 8255 8bbd 8447 e5be
00000140: cece 9fbc e77f 00bf eac8 2c3e 7e8b 3fbe
00000150: f824 46be 8839 3a3e 2272 c7bc 96c0 8cbe
00000160: c87f 563e 5021 33bd 09d5 0abe 821a c1bd
00000170: 991d 7c3e d316 8cbe 8a54 ce3d 20cc e53d
00000180: 13ef e2be db14 a33e e086 49be c2bd 1bbc
00000190: b644 93bc 9caf 0ebe 8452 233e c260 2bbd
000001a0: 151b bd3b fd49 d43e 0f69 63bd 0406 8fbe
000001b0: 0c60 82be c305 883d 5273 893d 3bcb 81be
000001c0: b53b 59bc 2bed d0be 2c5a bc3d cf85 7e3e
000001d0: 5025 57be d4ef 4dbe 9fc5 01be 9f36 bc3e
000001e0: 73c1 363e e4db df3e f02c 593d 0bd3 b8bd
000001f0: cf9d 23bf cbda 89be c747 28be 7763 883e
00000200: fa34 b7bd 253a 893e 6e8a bf3d ab6b abbe
00000210: f1ea 56be 0610 0d3e 66fc 963d 4865 3abe
00000220: 034f 0bbe 01f6 b83d 4c9b 103d 2255 06bd
00000230: 8a36 f9bd 93bf 113e bc1e b63d 13b4 57be
00000240: 21b3 2e3e f74a 67be aec2 ac3e eaef 6d3e
00000250: d6d1 8d3e 778b 9dbb 7067 89bd 74a4 15bb
00000260: d980 733e 7ab9 b13d 7b1c babe 2d79 033f
00000270: 158c fcbd 2ea5 713e 1009 00be 90e0 b2be
00000280: cbae ec3d ca1a 84be 2354 1fbe 43d7 103e
00000290: 9f18 343b adcc 8f3e 8ca5 9c3c 74ed 4dbe
000002a0: 4103 103f 152a f8bc f652 413e 02e6 8cbc
000002b0: e138 18be 73ec 66bd cae2 2bbe d7cd 15ba
000002c0: 0c20 a7be fb58 ecbd 7052 c3bd 2f33 a43c
000002d0: 9a15 993e 779c 283e bb7b cbbd b476 7cbe
000002e0: d48f 9c3d 988a 07bf 4230 15be 87c0 d43d
000002f0: b16d e9be 1478 b73d 1de1 f2be 489b c7bd
0.17320858 0.21886028 -0.2557441 0.18205771 0.09618078 0.0034974136 -0.18393722 0.06911488
-0.07393965 0.48808914 0.2916628 -0.09618237 0.08075922 -0.035928097 -0.2793842 -0.02105777
0.20564334 -0.34164393 -0.08724343 0.0754302 0.32760927 0.0766138 0.10099295 0.077666156
-0.016833318 -0.23160185 0.087106586 -0.0802201 0.43669263 -0.056763038 -0.33769926 0.041940536
0.086208574 0.00011822838 0.019421322 0.28446335 0.05953096 -0.120009825 -0.12051154 0.395769
0.06917204 0.18533812 -0.051129084 0.19195135 0.014709472 0.58392006 0.3267789 0.26253814
0.1100811 0.29191428 -0.08399412 0.015524856 0.055272132 0.03536708 -0.06535906 -0.010257005
0.11429156 0.11270997 -0.3321171 -0.0010307258 -0.020191712 0.32324916 0.071347654 0.16466099
0.045106284 -0.05794064 0.07296276 0.12861332 -0.1824573 0.097299725 -0.21379983 0.0059771575
0.14749746 0.14839494 -0.23820923 0.1998112 0.15130146 0.14301437 -0.06803419 -0.44781125
-0.019507792 -0.50195163 0.16873518 -0.18705556 -0.1935004 0.18186009 -0.024346415 -0.2749068
0.20947182 -0.04373294 -0.13557829 -0.09428884 0.24620666 -0.27361163 0.10074718 0.112205744
-0.44323024 0.3185185 -0.19680357 -0.009505691 -0.0179771 -0.13934177 0.15949446 -0.041840322
0.0057710507 0.414627 -0.055520114 -0.27934277 -0.25463903 0.06641724 0.06711449 -0.25350365
-0.013258864 -0.40805945 0.091968864 0.24855731 -0.21010327 -0.20111018 -0.12673043 0.36760423
0.17847233 0.4372245 0.05302137 -0.09024628 -0.6391267 -0.26924738 -0.16433631 0.26638386
-0.08945651 0.26802173 0.09352575 -0.33480582 -0.2098806 0.13775644 0.0737236 -0.18202698
-0.1360436 0.090312965 0.035304353 -0.032796033 -0.121686056 0.14233236 0.08892581 -0.21064787
0.1706052 -0.2258719 0.3374228 0.23236051 0.27699155 -0.0048078853 -0.06709182 -0.0022833617
0.2377962 0.08677955 -0.36349854 0.51356775 -0.12331406 0.23598167 -0.12503457 -0.34936953
0.115567766 -0.25801688 -0.1555944 0.14144616 0.0027480496 0.28085843 0.019121908 -0.20110112
0.56254965 -0.030293504 0.18879303 -0.01719952 -0.14865448 -0.05637784 -0.16785732 -0.00057145715
-0.32641637 -0.11540409 -0.09537208 0.020043937 0.29899293 0.16465937 -0.09935709 -0.24654657
0.076446205 -0.5294585 -0.1456919 0.10388284 -0.455915 0.0895845 -0.47437373 -0.097464144

fc_out.weight f4 [1, 64]
00000000: b334 2640 c7ee 3140 eced 74be faf0 ffbf
00000010: 0d69 9f3f 8d38 1640 7cdb b33f f770 963e
00000020: 89a9 ecbe 9688 8abc 07f6 bebf c265 0dbf
00000030: 0758 13c0 5554 d73f 4e12 e2bf ecb2 3fc0
00000040: 109d 0d40 c830 a2c0 2470 e93f 4aff 0e40
00000050: ea5e 4f40 4fe9 0d3e c107 3940 7c09 aac0
00000060: f437 093f 4937 4ac0 d485 c7bf 0834 bc3f
00000070: 1e73 68c0 92ea 1c40 f8e3 af3f e6da e1bf
00000080: 18ff 1740 8b28 1740 56bd b6bf 369c f43f
00000090: 1f5c 4640 aafe 0440 23e3 26c0 130f 0cc0
000000a0: 9be7 0440 72e9 1c3e faa5 8cbf a7a6 0840
000000b0: c905 92bf 1bf7 7d3f ea16 78bd cb30 84c0
000000c0: ec43 8dbe 0832 5540 04ff 483e f5dd 59bf
000000d0: 5a76 cd3f 0218 0c40 0c2b 3fbf 3ebb a3bf
000000e0: 701b 0d40 e93b 3ebf c338 07c0 f311 4040
000000f0: a86a ad40 da5e 68c0 f41f 54c0 4888 04c0
2.5969665 2.7801988 -0.23918885 -1.9995415 1.2453934 2.3472016 1.4051356 0.2938306
-0.46223095 -0.016910832 -1.4918832 -0.55233395 -2.3022478 1.6822611 -1.7661836 -2.9952955
2.2127113 -5.0684547 1.8237348 2.2343316 3.240168 0.13858531 2.8910983 -5.3136578
0.53601 -3.1596243 -1.5587716 1.4703379 -3.6320262 2.451817 1.3741446 -1.7644928
2.3749447 2.3618495 -1.4276531 1.9110172 3.0993726 2.0780435 -2.6076133 -2.18842
2.076636 0.15323427 -1.0988152 2.1351717 -1.1408015 0.9920518 -0.060568728 -4.130956
-0.27590883 3.3311787 0.1962853 -0.85104305 1.6051743 2.1889653 -0.7467506 -1.2791517
2.2047997 -0.74310166 -2.1128395 3.0010955 5.4192696 -3.6307893 -3.3144503 -2.070818
